models/v0.pt (torch, 583850 bytes, 57 tensors)

cls f4 [1, 1, 32]
00000000: 87b7 2abf f3eb a13f 4c0e 8d3f 5bd7 ebbe
00000010: 4bf0 d2bf 1e76 43be 5d20 a6be d791 5c3f
00000020: fb33 e63f 8e53 8fbd 4222 6abe 4312 1ebf
00000030: 3d0e 263f 63a7 8abf 6708 1c3f f964 e23c
00000040: d594 74bf cb20 07be 68e5 7c3f 853d c03e
00000050: 69f4 e03e 3b7b a2be 340d c23f 0e47 27c0
00000060: 38de cf3f a1c5 71bf a5ae a33e 3790 2ebf
00000070: 2225 e03f 95d8 5fbf 2b58 71bf e454 a03d
-0.6668629 1.2650131 1.1019988 -0.4606274 -1.6479582 -0.19088027 -0.32446566 0.86160034
1.7984613 -0.06998359 -0.22864631 -0.61746615 0.64865476 -1.0832332 0.6095032 0.027636038
-0.955396 -0.13196103 0.98787546 0.37546936 0.4393647 -0.31734642 1.5160279 -2.6137118
1.6239691 -0.9444218 0.3196918 -0.68188804 1.7511332 -0.8743985 -0.9427516 0.078286916

gaze_pe f4 [1, 120, 32]
00000000: bb80 40be 6487 30bf e9fc 85bf 9115 3dbf
00000010: 6214 8abf 5d68 853f 4df1 52bf ad3f cfbf
00000020: 2596 e83f 81ea cd3c 69bb a03e c3a1 f9bf
00000030: df03 03c0 2d6e 3a3f b7a6 a63e ea1f d1bf
00000040: 7bed 913e da93 9cbf e009 67be 7464 233e
00000050: 4b25 cdbf cc23 43be 4f69 46bf 6896 b5bf
00000060: b20c a63f 284e 1abf 7a2c 943e 5f31 a23f
00000070: d4e3 8dbf 49b3 fb3e 984c 1b3d d291 43be
00000080: 8df4 8abf a4c2 603e 877d 3abf 7639 053f
00000090: 1dd2 02bf 3138 1cbd 97da b03e 2723 00bf
000000a0: 4d65 543f 4e6e 76be 6c3f ee3d db1d 83bf
000000b0: 6bae 273f 9e2b bd3f eda9 d63e f31a 8d3e
000000c0: 268c a7bf db13 0abf 8171 65bf 76e4 3abf
000000d0: 34ca 473f b8bf 903f c01d c2bc cd97 b3bf
000000e0: e6ab 003f e2ba 943d 7415 82bf 9978 b33e
000000f0: d49d 64be 9d89 0840 e769 913e 96e7 7a3f
00000100: 6107 e3be 0261 a8be 3e73 f9be 2f3d a1be
00000110: e421 67bf efec 05bf 8242 a33e 3501 8dbf
00000120: 201c 913f 5b8d 253f 29b8 00bf 4bc8 8fbe
00000130: 5f2c 463d 9179 453f 0f53 62bf aeb9 8c3f
00000140: cd6d 923e 1d68 37bf 3fc6 df3f 331d 863e
00000150: 641b 51bf a899 853e 0c4b a03d c0b3 f33d
00000160: cc4d 0b3a c7c7 cabe 7765 88bf 7dda b9bf
00000170: f3cd 4e3f 1731 7cbf a9e1 7ebd 7b69 903f
00000180: 158b d43c 90dc 1b3f 5186 33be 49ba e93f
00000190: 1697 e1be 7cd9 0440 bdde 07bf c750 0e3f
000001a0: 669f a5bd c6bb 903e 9fa1 22bf 6b7b 873e
000001b0: ea4d 84bf 72ec 81bf 1ce7 a43f 20af 56bf
000001c0: 0d18 62bf 55a4 513f e1bb 883e 46fd 2fbe
000001d0: b880 863c 533d b2bf c07d 0c3f 2e7b 3a3f
000001e0: 65b1 31bf 0e78 8abf 5a93 e3bd 7360 033f
000001f0: a434 bb3e 7026 19bf e9c5 2cbf 7185 c0bf
00000200: e969 483e 8e77 edbd 15e1 a3bf b6e8 263e
00000210: 0f2e c53f d1d7 c33f 06b9 f03e 7f98 f8bf
00000220: 61fe 963e 3296 13bf 90d0 85be c307 b63f
00000230: 0349 1fbe 6350 79bf 2662 a2bf 0718 653e
00000240: 49c2 8ebf 0f25 cbbe 8ead 113e 979c 15bf
00000250: c93c 56bf a564 6a3e 51a1 5fbf 10c9 0b40
00000260: f36e c73e 53ab 2abf dabc be3e 5b6b a13e
00000270: cddf b0be 72e4 153e 1567 be3e 6c02 bebe
00000280: 0a7d fbbd a880 883e 227b da3e 9e5a 7c3f
00000290: c953 9d3e f1f7 a33f e054 ae3e 358f 84bf
000002a0: daed b5bc 4816 593f 399e 9e3f d422 c53e
000002b0: e08e 07bf bd31 ddbe 6159 b4be e876 32be
000002c0: bd16 a5be cfc8 c83f ef9e a13f 3ba1 0ebe
000002d0: 3e7c 113e be53 a73f 79b5 84bf 564d 9cbe
000002e0: fae8 883f 5fbe 0d3f 2794 cf3d 00b1 e5bf
000002f0: 50af a5bf 884b 88bd e0b3 0abd 9062 953f
00000300: 8628 ed3d f63c 593f ab03 3cbf 5239 02bf
00000310: 14b3 a4bf c53b 16bf c681 283f c1b6 73bf
00000320: 22b9 93bf 9b50 c23f 8638 69bf 04a7 723f
00000330: 8495 403f 29c9 c53f ac35 8b3e 44ea ae3d
00000340: 872c fb3e cdc7 153f cd11 4f3f 6d38 1440
00000350: 9b9a 953e d00e 443f 7da9 213e 6a88 923f
00000360: 4660 4a3f 3413 acbe b215 933e 458d 82bd
00000370: d9e8 7abf 91b9 45bf bdb6 0fbf 2d90 be3c
00000380: 38df e1be 945b e4bd 0e1f a03f f59e 033f
00000390: a77a 063f 362e 2e3f cf0b 1e40 6379 143f
000003a0: bcc1 f43e 4bca 8e3e 0ea6 99bd 292f 61bf
000003b0: 0e25 0f40 a876 debe b13e 26bf 0214 833f
000003c0: c3ef 3dbf dc63 8f3d 37bc 0640 35cb d0bc
000003d0: 73af c4bd cba5 bebe e9c4 153f 0a71 6d3f
000003e0: 1a70 5dbf 13d5 67bf 41b5 44bf 5f23 19bf
000003f0: e07f 8dbf 02ec 4fbf ee0c 10bd 6326 633e
-0.18799107 -0.6895659 -1.0467807 -0.7386103 -1.078747 1.0422474 -0.82399446 -1.6191307
1.817082 0.025136234 0.31392983 -1.9502491 -2.0471113 0.72824365 0.32549068 -1.6337864
0.28501496 -1.2232621 -0.22562361 0.15956289 -1.6027006 -0.19056624 -0.7750444 -1.4186525
1.2972624 -0.60275507 0.28940183 1.2671317 -1.1085153 0.4916022 0.037914842 -0.19098595
-1.0855881 0.2194925 -0.7284779 0.52040803 -0.5110186 -0.038139526 0.3454177 -0.5005364
0.8296707 -0.24065515 0.116331905 -1.0243486 0.65500516 1.4778936 0.41926518 0.27559623
-1.3089645 -0.5393655 -0.8962632 -0.73004854 0.7804291 1.1308508 -0.023695827 -1.4030701
0.50262296 0.072622076 -1.0162797 0.35052946 -0.22325832 2.1333992 0.2840111 0.9800962
-0.44341567 -0.3288651 -0.48720735 -0.31491992 -0.9028609 -0.52314657 0.3188668 -1.1015993
1.1336708 0.64668816 -0.50281006 -0.280825 0.04838216 0.7713862 -0.8840799 1.0994165
0.28599396 -0.7164324 1.7482375 0.26194152 -0.8168242 0.26093793 0.07826814 0.11899519
0.0005314022 -0.39605543 -1.0655965 -1.4519802 0.80783004 -0.98512405 -0.062226925 1.128219
0.025945226 0.60883427 -0.17531706 1.8259975 -0.44060582 2.0757742 -0.53074247 0.55592006
-0.080870435 0.2826826 -0.63527864 0.26461348 -1.0336277 -1.0150282 1.2883029 -0.8386097
-0.8831795 0.81891376 0.2670584 -0.1718646 0.0164188 -1.3924965 0.5487938 0.7284421
-0.6941131 -1.0817888 -0.111120895 0.51319045 0.365636 -0.59824276 -0.67489487 -1.5040723
0.19571652 -0.11595069 -1.2803065 0.1629971 1.5404681 1.5300237 0.47016162 -1.9421538
0.2949095 -0.57651055 -0.26135683 1.4221119 -0.15555196 -0.97388285 -1.2686203 0.22372447
-1.1153041 -0.3967671 0.14226362 -0.5844206 -0.836865 0.22889955 -0.87355524 2.184147
0.38951835 -0.6666767 0.37253457 0.31527218 -0.34545746 0.14637926 0.3718802 -0.37111223
-0.12279709 0.26660657 0.42672068 0.9857577 0.30727986 1.2810041 0.3404913 -1.0356203
-0.022208143 0.84799623 1.2392036 0.38503134 -0.52952385 -0.4320201 -0.3522444 -0.17428172
-0.3224391 1.5686282 1.2626628 -0.13928692 0.14207551 1.3072431 -1.0367881 -0.30527753
1.0696099 0.5536861 0.1013568 -1.7944641 -1.2944126 -0.066550314 -0.03386295 1.1670704
0.11579995 0.84858644 -0.73443097 -0.50868714 -1.286715 -0.5868495 0.6582302 -0.95200735
-1.1540873 1.5180849 -0.9110187 0.94786096 0.7522814 1.5452014 0.27189386 0.08540776
0.4905741 0.58507997 0.80886537 2.315944 0.29219517 0.765851 0.15787311 1.144788
0.7905315 -0.336084 0.2872749 -0.06374601 -0.9801155 -0.77236277 -0.5613821 0.023262108
-0.44115615 -0.1115028 1.2509477 0.51414424 0.525309 0.6803926 2.4694707 0.5799772
0.47804058 0.27888712 -0.075023755 -0.87962586 2.2366366 -0.43449903 -0.6493941 1.0240481
-0.7419397 0.070014685 2.1052377 -0.025487522 -0.09603777 -0.37235865 0.58503586 0.9275061
-0.8649918 -0.905595 -0.7683907 -0.59819597 -1.1054649 -0.81219494 -0.03516858 0.22182612

imu_pe f4 [1, 120, 32]
00000000: edf2 c13e 4a80 fdbe ed6f c5bd 191d 533f
00000010: e7ea 0abf aeee a13f 249f 2040 e1dd 8b3e
00000020: cb88 b03f 5d4b 83be 1365 74bf 22f2 f3be
00000030: 2086 543e a7db 9d3f c514 86bf b89f 99be
00000040: dc8f 95bf cac1 8fbe 332b af3d 666f 54be
00000050: e6e6 463e 434e a8bf 1d1e 64be a673 c9bf
00000060: 37b9 913e 746c db3f 34ad 34be 3459 0fbf
00000070: b54b 0640 4c3a 01bf 2031 47be 86d6 c6be
00000080: f2f5 9f3f 847a fd3e 5625 39bf 9e46 26c0
00000090: 28da abbf e015 95bf 9172 2dbf f870 86bf
000000a0: c8fd b73e de00 c9bd c885 06bb 53e8 653d
000000b0: 0a41 21bf 6fe5 c93e e5cb e1be 4c4b 5e3f
000000c0: a30b 923e b999 93bf f5b2 833e 86d3 03c0
000000d0: 9ed6 e03e 14b4 24bf 54d1 82bf 750c 533f
000000e0: 99a1 a33e 4294 6fbf 5f3a 51bf a4fe a63e
000000f0: 4ef4 023e 5e77 b4bf a397 0bbf 6f72 c0be
00000100: c24d 8ebf ee70 79bf bf58 453f 32ff 27bf
00000110: 80e7 dcbf 932b 4e3f 388f 91bd a95f 6e3f
00000120: cc5f 17c0 6554 a5bf 160e 26bf 7927 95bf
00000130: cdf8 dbbf 5fc7 7e3e c82f 56be c6dd b13d
00000140: 2250 11c0 8ecf 38be 970b be3e 16ba ec3f
00000150: ddd4 5ebe b856 25be 75f8 283f 51ec 283f
00000160: 7aad 09be 9d1c 62bf 3a39 bf3e d7a3 35bf
00000170: 4813 e93e 6ace 1cc0 e1d1 8a3f 625a babe
00000180: ab81 0cbf a659 2c3f 1fb4 58be 5fe8 8c3f
00000190: 4460 12bf 7f55 fb3f 3857 d13f b375 a83f
000001a0: 711f 0d40 a2a8 d33e 3847 2b3e ed81 9c3e
000001b0: ad92 4d3f a05a 213f d9c8 8c3d 3260 2140
000001c0: 5dc9 b03f a682 433f e89c 203f 297b a6bf
000001d0: dcb8 9e3f 497c 973f c0a2 f9be 7572 0040
000001e0: f9fc 25bf 9c83 e23e a0c6 993d fad4 363e
000001f0: 2cb2 72bf 6c6a cbbf 8da9 be3f 31e9 d0bf
00000200: 6c09 a83f 7d96 ae3f e2d8 23bf 56e4 9b3e
00000210: c4b1 c6be 152f 94be 6e5a b9bf 4d7d d33d
00000220: 496d bebf 7c15 023e cb63 c23f 5036 3ebe
00000230: 5fc7 c6be 0aa6 b1be 9179 05bf 26bb 7dbe
00000240: 94de 333e ed8a 41bf 69c3 293e e64d 9fbf
00000250: 4a10 40bf 40b3 a43e cb78 37bf 2df6 eebe
00000260: 3596 a6bf 0344 acbf b286 13bf dd6d 663f
00000270: 1d42 e73e 30a6 91bf 3a9e c8bc 77fa 553f
00000280: 2780 aa3f 4a9f c6bf 9b51 2cbf 0d0a 0340
00000290: ec8e 103d e0bf bfbf 34dc 383f 47a8 1040
000002a0: 4c62 453e 3311 343f 1663 843f 267d 9e3d
000002b0: 2289 ed3e 536f 343f 7bad bd3f 3aa3 3b3f
000002c0: c58f 6abe 42b3 533f d91e 763f a860 973f
000002d0: 9740 a83f 8ded 26bf d80f efbe 4cb6 98bf
000002e0: d455 b0bf 6b6a a73f aed5 443f b4df bdbf
000002f0: 4e2b 2bbf bd4b 7ebf de73 f6be e576 b6bf
00000300: d597 e7be 0892 3dbf c4b3 71bf 2a7f b43e
00000310: a9d4 95be 550c b13f e2d1 61be c887 92bf
00000320: 21cd 903e ef0a 85bf f406 a9bf e7f4 05c0
00000330: 9c7c e1bd 0326 b6bf 7493 233e b068 873f
00000340: c061 7bbe f1e1 5ebf cd2a a8be 7a46 abbf
00000350: 4b13 a1bd e518 6f3f 58cf 873f 74bf 2cbf
00000360: 11ef bb3e 5b18 3a3f 60a9 13c0 4cbf bcbe
00000370: 9298 523f 18fb b9bf bbbf 5c3e 0461 a03c
00000380: 2af7 3b3f 962e abbf e9cd 7fbf 1abd 953f
00000390: 24c5 0a3e 4b96 b73e 5335 44bf 310a 59bc
000003a0: f263 463e 9300 953f c741 85bf e07f 9bbf
000003b0: 0d15 dfbf 61ec 9ebc 4dd3 d33c 8319 a2bd
000003c0: 1f32 a3bf 56be 593f 1701 cf3e 83cb 953f
000003d0: 8f87 e1bf c41b 2cc0 2a8b 59bf cf39 06c0
000003e0: 274e 913f eeea 8a3e 8737 963e fb46 233f
000003f0: 8016 9c3f 9a85 cfbf 4e81 393f fb52 2bbf
0.3788065 -0.4951194 -0.09640489 0.82466274 -0.5426468 1.2650964 2.5097132 0.27317718
1.3791746 -0.25643435 -0.95466727 -0.4764567 0.2075429 1.2332658 -1.0475088 -0.30004668
-1.1684527 -0.28077537 0.085531615 -0.2074562 0.19424018 -1.3148884 -0.22277112 -1.5738418
0.2846162 1.7142472 -0.17644197 -0.5599549 2.0983708 -0.5047958 -0.19452333 -0.38835543
1.2496932 0.49507535 -0.72322595 -2.5980601 -1.3425951 -1.1647301 -0.6775294 -1.0503225
0.35935807 -0.098146185 -0.0020526517 0.056129765 -0.62989867 0.39432856 -0.44100872 0.86833644
0.28524503 -1.1531287 0.2572247 -2.0597854 0.4391374 -0.6433728 -1.0220132 0.8244088
0.31959227 -0.935856 -0.8172969 0.3261615 0.12788507 -1.4098928 -0.54528254 -0.37587306
-1.111748 -0.9743794 0.7708854 -0.6562377 -1.7258148 0.8053524 -0.07107395 0.93114716
-2.365222 -1.291638 -0.64865243 -1.1652671 -1.7185303 0.24880742 -0.20916665 0.08684878
-2.270516 -0.18047926 0.37118217 1.8494289 -0.21760888 -0.16146362 0.66004115 0.6598559
-0.13445082 -0.8832491 0.37348348 -0.70953125 0.45522523 -2.4500985 1.08453 -0.36397082
-0.5488536 0.6732429 -0.2116246 1.1008414 -0.5717814 1.9635466 1.6354742 1.3160919
2.205044 0.41339594 0.16726387 0.30567876 0.80301934 0.6302891 0.06874246 2.5214963
1.3811451 0.7637123 0.6273942 -1.3006335 1.2400165 1.1834804 -0.4875698 2.006986
-0.6483913 0.44241035 0.07508588 0.17854682 -0.9480312 -1.5891852 1.4895493 -1.6321164
1.3127875 1.3639675 -0.6400281 0.30447644 -0.388075 -0.2894217 -1.4480722 0.103266336
-1.4877101 0.12703508 1.5186704 -0.18575406 -0.38823983 -0.3469699 -0.5213862 -0.24778423
0.17565376 -0.7560261 0.1657845 -1.2445648 -0.75024855 0.32168007 -0.7166869 -0.46672192
-1.301459 -1.3458256 -0.57627404 0.9001139 0.45167628 -1.1378841 -0.02448951 0.83585304
1.3320359 -1.5517361 -0.6731202 2.0474885 0.03529255 -1.4980431 0.72211003 2.2602708
0.19275779 0.70338744 1.0342739 0.07738714 0.46393687 0.7048237 1.4818567 0.7329594
-0.22906406 0.826954 0.9614082 1.1826372 1.3144711 -0.65206224 -0.46691775 -1.1930633
-1.3776193 1.3079351 0.7688855 -1.4833894 -0.6686295 -0.9933432 -0.48135275 -1.4255034
-0.45233026 -0.7405095 -0.94414926 0.35253268 -0.2926381 1.3831888 -0.2205272 -1.1447687
0.282815 -1.0393962 -1.3205247 -2.0930727 -0.110100955 -1.423035 0.15974218 1.0578823
-0.24549007 -0.8706351 -0.32845154 -1.3380883 -0.07865008 0.9339736 1.0610151 -0.67479634
0.3670583 0.72693413 -2.3072128 -0.36864698 0.82264054 -1.4529753 0.21557514 0.01957751
0.7342402 -1.3373592 -0.9992357 1.1698334 0.13551766 0.35856852 -0.76643866 -0.013247059
0.19374064 1.16408 -1.0410699 -1.2148399 -1.7428299 -0.019399824 0.025857592 -0.07915022
-1.2749671 0.85056055 0.4043052 1.1702732 -1.7619494 -2.6891947 -0.8497797 -2.0972784
1.1351975 0.27132362 0.2933924 0.6378018 1.2194366 -1.6212647 0.7246293 -0.66923493

rgb_pe f4 [1, 49, 32]
00000000: f9c4 acbd f3a0 dfbf 9dbd ef3e c020 6f3a
00000010: 55fb 1bbf 0c35 893f 5402 643f d04b 82bf
00000020: a720 913e c8a7 443d c8ae 86be 96b3 83be
00000030: 1b47 113e 9fe0 c93e 6b3f 27c0 2d51 263f
00000040: 5b0f e63f 530b af3f 6e29 87bf d7d6 25bf
00000050: 7a77 623f 041d 5abf 53ed 0f3f be64 423f
00000060: 474c f3be 2b44 57bf 6f05 6e3f 6791 1d3e
00000070: 37aa ad3f 18ea 08c0 2974 48bf 9b3f 0e3f
00000080: 584b 75bd 68cf 213f bafb 433f 7169 bfbf
00000090: ff4e 6bbd 1245 f1be fd52 6ebe 23f7 803f
000000a0: 917e babe e8b3 443e 31f0 26c0 72e3 fbbd
000000b0: 1377 5fbf f0a8 6240 5377 f63e 6195 16bf
000000c0: 4adb 8f3e caaa debe d379 52bf 3d1f 2040
000000d0: ba49 643e c53f e2be 9d7f 96bf ec52 91bf
000000e0: 62a8 0c3f fc36 ac3f 7fc6 08bf fe6e bb3f
000000f0: e1a4 f1bf bcaa 643f 4f7c 28bf 3a39 4fbf
00000100: 0f29 513f 8497 4d3f c789 783d 7c56 853e
00000110: aaf0 10be 123e bc3f 898d 323f 3da5 d03f
00000120: 823c abbe 5587 813f 4591 fe3e d2ee 42c0
00000130: 5703 b53f 7f53 81bf a60b 09c0 9139 0740
00000140: 6d90 6fbf 74a5 b73f 230d a03f a3f6 99bf
00000150: 2881 6abe 91a6 493d fe8d a93e e6d3 2abf
00000160: 35ba 27c0 35a4 173e 0ec6 3abf 7d24 d6bf
00000170: 0907 f9bf 110b 97bf ec9c d5bd 50c2 dabf
00000180: bfa3 303e 4eab 3abd 0623 12bf be42 16bc
00000190: 07ec 3b3f df86 cc3d 590a 2e3f c228 693e
000001a0: 5d7f 783f 689a a13f 80fe 7abf 0dff a93e
000001b0: eeba a63f 8726 39be ce9c d53e c947 be3e
000001c0: 3f72 a13f 4efb c23f 438b fb3e 82bc 8ebe
000001d0: cd84 8dbf a32b 14bf ee5b d1bd c0d6 8abf
000001e0: 0096 593e 9b75 8c3f f5db d33f 3498 a9bf
000001f0: 8684 273e 725e 11bf 0bf4 143f 20d1 733f
00000200: af42 55be b6a4 6fbf b380 cebd 89ac db3e
00000210: dda2 6c3f a77d 2f3d ff01 4d3f cfd4 cf3f
00000220: f298 343e d321 b6bf 625d 94bf e41c 013f
00000230: 16ac acbe 7283 403f 6822 dfbf 78fb 84be
00000240: cbd5 493f 230c 523f af9e 9bbf 7646 c9bf
00000250: 78ab dcbd 820f d63d 4a84 363f 4f57 89bf
00000260: 56cb 4bbf d7f1 29bf 25ae 3dbf b596 9b3e
00000270: 01f8 983f 8989 02c0 3e3d 2c3e 7c33 dcbe
00000280: 4da2 843d 0786 a2bf 254d 0ec0 297c aebe
00000290: e0da 2d3f e252 b7be fded 033e 93ae 603f
000002a0: dd1e f13f b7d9 d1bd 5363 f8bf 3645 bcbe
000002b0: 0110 8c3e 58d8 6a3f ac61 893c 800c a03f
000002c0: 4646 04bf 5036 99bf 8978 9c3f 624b 473f
000002d0: beab 8f3e 8570 5abf 593a 7c3f 4bd0 553f
000002e0: a029 4cbd 2a4d 8f3e 38b2 a73d d495 1fbf
000002f0: 65a4 48bf eff7 cfbf ab4d e43f bf25 29bf
00000300: b368 9a3e 83c3 debd 629e 1ac0 63bf 78bf
00000310: 2a7d 84bf 21ef 8fbf 0fcd 483f 5066 b73e
00000320: 3225 003f fb1c 1b3f dbdf a13e cefa 14bf
00000330: cb40 3f3e 1f9c 03bf bae9 5a3f fbd5 8fbf
00000340: 5cfc 9d3f e029 d03f 8da2 a1be 2823 743e
00000350: 91a5 293f f844 8fbc 8cab d7bf 300f 1ebe
00000360: 2df5 9bbe 9e11 3abf d6c0 813f 73c2 e6be
00000370: f04a 07bf dc90 94bf 7731 2f3f e860 653f
00000380: 5d99 df3e 5b87 5b3f 8c8c bcbf 6bfb ccbd
00000390: 9a85 1bbf cc05 5e3e 1cd7 18bf c74d 05bf
000003a0: a151 8abe 440c a8bf ad81 d5be 8063 7bbd
000003b0: f156 e3bc de94 803e 2fef c5be e88d d1bf
000003c0: 33a0 d9bf 8360 b4bf 3ff8 873f 51d4 93bf
000003d0: 8408 9e3e 7b5f c1be f34d 693f c8c2 b4bf
000003e0: 265e 3cc0 271d 483f 5936 813f 32a5 4a3f
000003f0: 8a9d 0440 96e0 a43e 86be b5bf f076 a2be
-0.08436007 -1.7470993 0.4682435 0.00091220066 -0.6093038 1.0719314 0.8906605 -1.0179386
0.28345224 0.04801157 -0.26305223 -0.2572295 0.14187281 0.39429185 -2.6132457 0.64967614
1.7973436 1.3675331 -1.0559518 -0.64780945 0.88463557 -0.85200524 0.56221503 0.7593497
-0.47519132 -0.8408839 0.9297704 0.15387498 1.356757 -2.139288 -0.78302246 0.55565804
-0.059886307 0.632071 0.7655598 -1.4954053 -0.057448383 -0.4712301 -0.23273845 1.007542
-0.36424688 0.19209254 -2.6084101 -0.12299241 -0.8729107 3.5415611 0.48137912 -0.58821684
0.28096992 -0.43489677 -0.8221714 2.5019066 0.2229375 -0.44189277 -1.1757694 -1.1353431
0.5494443 1.345428 -0.5342788 1.4643247 -1.8878442 0.8932302 -0.6581468 -0.80946696
0.81703275 0.8030932 0.06067827 0.26042545 -0.14154306 1.4706442 0.69747216 1.6300427
-0.334446 1.0119425 0.49720207 -3.0458264 1.4141644 -1.0103606 -2.141336 2.1128886
-0.9357975 1.4347367 1.2504009 -1.2028393 -0.22900832 0.049231116 0.33116144 -0.6672958
-2.6207402 0.14808734 -0.7295846 -1.6729885 -1.9455272 -1.1800252 -0.10430321 -1.709055
0.17249964 -0.045573525 -0.5708469 -0.009171186 0.73407024 0.09986662 0.6798454 0.22769454
0.9706934 1.2625246 -0.98044586 0.332024 1.3025796 -0.18081103 0.41721195 0.37164143
1.261299 1.5232942 0.49129686 -0.27878195 -1.1056153 -0.57879084 -0.10222612 -1.0846786
0.21248627 1.097339 1.65515 -1.3249574 0.16359147 -0.5678474 0.5818488 0.95240974
-0.20826219 -0.93610704 -0.10083141 0.4290507 0.9243601 0.04284444 0.8008117 1.6236819
0.17636469 -1.4229072 -1.1590998 0.5043471 -0.3372504 0.7520057 -1.7432375 -0.25973105
0.7884185 0.8204977 -1.2157801 -1.5724628 -0.107748926 0.10452177 0.7129561 -1.072977
-0.7960714 -0.66384643 -0.7409385 0.30388418 1.1950685 -2.0396445 0.16820237 -0.4300803
0.06476269 -1.2697152 -2.2234585 -0.34079102 0.679121 -0.35805422 0.12883754 0.8776638
1.8837544 -0.10246604 -1.9405311 -0.36771554 0.2735596 0.91736364 0.016770206 1.2503815
-0.5166973 -1.19697 1.2224284 0.778494 0.28060716 -0.8532794 0.9852653 0.83520955
-0.049844384 0.2798856 0.081882894 -0.62337995 -0.78375846 -1.6247538 1.7836202 -0.6607322
0.30158004 -0.10877135 -2.415917 -0.9716703 -1.0350697 -1.1244851 0.78437895 0.35820246
0.50056756 0.60591096 0.316161 -0.581952 0.1867706 -0.51410097 0.8551289 -1.1237177
1.2342639 1.6262779 -0.3156933 0.23841536 0.6626826 -0.017488942 -1.6849227 -0.15435481
-0.30460492 -0.7268313 1.0136974 -0.45070228 -0.5284872 -1.1606708 0.6843485 0.8960099
0.43671694 0.8575341 -1.4730392 -0.10008892 -0.60750735 0.21681899 -0.5970323 -0.52071804
-0.27015403 -1.3128743 -0.41700497 -0.061374187 -0.027751418 0.25113577 -0.38659045 -1.6371431
-1.7002014 -1.4091953 1.0622634 -1.1549169 0.30865872 -0.37768158 0.91134566 -1.4121943
-2.9432464 0.7816948 1.009471 0.7915832 2.0721154 0.32202595 -1.4198768 -0.31731367

weight f4 [32, 3, 9]
00000000: 7ded 113d 4c3d 8abb e4de 12be 675e 51be
00000010: d9d5 a23e 5782 913e 2e2b 163e d037 bbbe
00000020: 7529 72bc 2247 b13d 1458 023e bf22 0bbe
00000030: 1c24 84be 6a1b 803e 502b 433e 3165 963e
00000040: 74f0 e9bd 7bbf 693e b181 6dbe 2dd9 57be
00000050: bd38 27bc ca2e e43d 7767 67bf 6391 a6be
00000060: 2bd5 cebe be18 313f aff5 b2be df6e d03c
00000070: 9ae8 8d3d 9ee8 bf3e 5934 d4bc 0979 a9bc
00000080: 4da6 b1bd a993 88bd 24b4 813c 9759 e33c
00000090: 93c2 823d c602 55b8 ee93 203f 42bf 35bd
000000a0: 2077 3d3e d155 373e e992 d03a 6097 5d3d
000000b0: 2129 df3d fb3d 2cbe 1680 9bbe a98e d3bf
000000c0: f667 613e a6ec b6be 2c56 813e 9936 043e
000000d0: 3344 a2bd 44a1 67be 793c 963d bbe5 603e
000000e0: 512f 963e 6dd8 743e cd21 45be d19e 04bf
000000f0: df14 b0bd fc19 05bd 4615 993d a03e c83d
00000100: f973 d53d 5cca aa3e 064a 323e 0db4 c1bc
00000110: c646 0abe ba8f 313d 5eec f53d 26d5 b13d
00000120: b4cc e6be 6ed2 5dbe c91a 3cbf a44e d3be
00000130: 32e7 053e 6357 293e b12a 7d3d ffbe 46be
00000140: 3f9e cc3c eb39 783e c4ff c33d da42 59bd
00000150: 914d 78bd 2c17 85bc f379 a5bd dc6e 983c
00000160: e75a 3b3d 0db7 b63d 330a e2be 892b 8bbe
00000170: 6a77 e93d 8597 b63d 9643 61be 4b0b 413e
00000180: d795 bf3e 5f40 e63e 2169 963e eb2c 383f
00000190: ab5b a43e 7e5a 6cbe 8e77 3b3d af28 933e
000001a0: 9c5d a7bc c06f 2abe 4eb9 8abf ed24 7cbf
000001b0: ce96 103e 2eed 0c3d ec07 593d 825b d43e
000001c0: 9ed9 883e 7b32 91be f9fa 683e 3cf2 5e3d
000001d0: 511a 953d 8002 313e 008f 80be 8b64 873d
000001e0: 8577 8e3d f8a7 e23d cc77 e03e c283 4f3e
000001f0: bb8b 583d dc19 6ebc 1760 713e 697f b6be
00000200: fccf aebc 34b4 d1be 3d79 e1be 0e36 cc3e
00000210: 184d f2be 568f 5c3d 75c6 5e3e af11 c33d
00000220: 5aac a4be 460c afbe a8cb b53e 3012 d33e
00000230: f00a d2bc 8a91 a9bd eca1 623d f28c 403b
00000240: 6f94 4c3e 506a 92bd de4e 8cbe 09b9 ab3e
00000250: 9030 b73e 5028 3e3d f2fe a0bd 1c87 863d
00000260: 7ab6 9a3d 2c44 f3be 524b 08bd efd6 203f
00000270: 71b8 2bbf 5b39 7abf fc66 5fbc 0c4e f43e
00000280: 7e4c 71be 00a2 82bd ad63 4a3f 938c 933e
00000290: 9a47 bbbd 2fb7 f0bd b04d 85bd bb9b 8dbd
000002a0: fd42 953b 9a95 b1bd a6f6 863e c988 ac3d
000002b0: 235b e5bc 8fba 9d3d ce38 d7be d368 82be
000002c0: 02f9 9dbd 60cf 3b3e b147 2dbd 0136 cdbd
000002d0: 7361 19be fdbc 2a3e a0c3 e0be abd6 ca3d
000002e0: 7442 f43d e065 8f3c 6034 1cbd 1976 fe3d
000002f0: 6222 353e b6a9 11be 7313 483e 8267 1e3d
00000300: f026 fb3d 1ba5 843e 8917 203e 87f7 1a3b
00000310: bf62 9fbd 2940 4f3c 5b23 0abd 1ea2 7abe
00000320: 11b0 92be 8e83 ffbe 99bd 203b 0dbd 49bf
00000330: 07a9 e8be 05c1 1fbe d89b 92bd 8c94 22be
00000340: accc 3abd bff7 e7bd de3a 4b3e 86ce f8be
00000350: 66ff 213f f3b5 27be 7291 9ebd 4242 153c
00000360: 30d5 0e3d 58ed 983d 629f cf3d 5d7c 843e
00000370: 0319 fb3e 110c 9e3e e029 78bb df6d 44bc
00000380: 1a8d 523e 65f4 35bc 0184 17be 5a5e 6abd
00000390: ff6e ea3d 6ad7 2d3f 6eda 94be 2e9f 513e
000003a0: 8ff1 b93c 9b67 363e ca97 06bf d291 6d3d
000003b0: 685e 45be 6904 99be 5997 a73e 7af8 8fbe
000003c0: 0b06 3fbe 043e d13d 9ed6 393e 9e6c b43d
000003d0: c1d4 ac3d 59fa e03e bbfd bd3d 6e5e 523f
000003e0: 4043 183e 79d2 4c3e 68f3 433e b8c7 c53e
000003f0: ebc6 bb3d c95c 1a3d cf75 06be e632 303d
0.035626877 -0.004218733 -0.14342839 -0.20446168 0.31803778 0.28419754 0.14664909 -0.3656602
-0.014780392 0.08656146 0.12728912 -0.13587473 -0.258088 0.25020915 0.19059491 0.29374078
-0.11422816 0.2282695 -0.23194005 -0.2107894 -0.010206399 0.11141737 -0.9039225 -0.32532796
-0.4039701 0.6917838 -0.34953067 0.025443492 0.06929131 0.3748216 -0.025903868 -0.020687597
-0.086742975 -0.06668789 0.015832968 0.02775268 0.06384768 -5.078574e-05 0.6272572 -0.04437185
0.18502474 0.1790383 0.0015912923 0.05409944 0.108965166 -0.16820519 -0.3037116 -1.6527911
0.22012314 -0.35727423 0.25261056 0.12911452 -0.07923164 -0.22620112 0.07335753 0.21962635
0.29332975 0.23910685 -0.19251175 -0.51804835 -0.08597731 -0.032495484 0.07474761 0.0977757
0.10422511 0.33357513 0.1741105 -0.023645425 -0.1350356 0.04334996 0.12007974 0.08683233
-0.4507805 -0.21662304 -0.7347837 -0.41270936 0.13076475 0.16537242 0.06180829 -0.19408797
0.024977801 0.24240844 0.09570268 -0.05304227 -0.060620848 -0.0162464 -0.080799006 0.01860755
0.045740988 0.08921633 -0.44148406 -0.27181652 0.113997295 0.08915619 -0.21998438 0.18851964
0.37419006 0.44970986 0.29377082 0.7194354 0.32101187 -0.23081395 0.045768313 0.28741977
-0.020430379 -0.16644192 -1.08378 -0.98493844 0.14120027 0.03440588 0.05298607 0.41476065
0.2672853 -0.28358826 0.22751988 0.05443023 0.0728041 0.1728611 -0.251091 0.06610974
0.0695639 0.11067194 0.43841398 0.20265105 0.052867632 -0.014532533 0.23571812 -0.3564408
-0.021339409 -0.40957797 -0.4403781 0.3988499 -0.47324443 0.053847633 0.21755393 0.09524857
-0.32162744 -0.3418905 0.3550694 0.41224813 -0.025639981 -0.082797125 0.055330202 0.0029380885
0.19978498 -0.07149184 -0.2740392 0.33539608 0.35779238 0.046425164 -0.07861127 0.06568739
0.07554336 -0.4751295 -0.033274956 0.6282796 -0.6707831 -0.9774377 -0.013635393 0.47715795
-0.23564336 -0.06378555 0.79058343 0.28818187 -0.09144516 -0.117536895 -0.06508958 -0.06914469
0.0045551048 -0.08671112 0.26360053 0.08424527 -0.027997559 0.07701599 -0.42035526 -0.254706
-0.0771351 0.18340826 -0.0423047 -0.10020066 -0.1497858 0.16673656 -0.4389925 0.09904226
0.119267374 0.017504632 -0.038135886 0.12424869 0.17688897 -0.14224896 0.1953867 0.03867293
0.12263286 0.25907215 0.15633978 0.0023646073 -0.07782506 0.012649574 -0.033725124 -0.24475905
-0.28649953 -0.49905056 0.0024527072 -0.78804094 -0.45441458 -0.15600975 -0.07158631 -0.15876979
-0.045605347 -0.11326551 0.19846675 -0.48595065 0.6328033 -0.16378002 -0.07742585 0.009110035
0.03487128 0.07467145 0.10137822 0.25876132 0.4904252 0.3086858 -0.0037866756 -0.011989086
0.20561638 -0.0111056315 -0.14796449 -0.057218887 0.11446952 0.6790682 -0.290729 0.20470878
0.022698192 0.1781296 -0.5257536 0.058000393 -0.19274294 -0.29886177 0.32732657 -0.2811926
-0.18654649 0.10216907 0.18148276 0.088097796 0.08439017 0.43941 0.09276911 0.8217534
0.14869404 0.20002164 0.19135821 0.38628936 0.091688 0.037686143 -0.13130878 0.04301729

bias f4 [32]
00000000: c257 26be d862 fbbd 6cf6 26be 2c0b 84be
00000010: ed49 1dbc c55b 2fbe 6555 08bf 47fb 3dbe
00000020: f34f ddbb afc6 cbbe 57ab faba ed15 eabc
00000030: 6be5 c3ba 2867 1abe 7634 74bd ca4a 3bbb
00000040: 79cf afbe e575 85be 84b4 d7bb 8309 56be
00000050: 06ac 82be ecc8 1dbd 4dbd 65be 5e18 3abe
00000060: acf8 c9bc a387 94be beb7 7cbe f915 97be
00000070: b640 87bd cdd2 66bf 5df5 bdbe 29bd 05bf
-0.16244414 -0.12274712 -0.1630494 -0.25789773 -0.009600145 -0.17124851 -0.532553 -0.18552886
-0.0067539155 -0.3980002 -0.001912455 -0.028574908 -0.0014945691 -0.15078413 -0.059620343 -0.0028578513
-0.34337977 -0.2606651 -0.0065827984 -0.20902066 -0.25521868 -0.038521692 -0.22435494 -0.18173358
-0.024654709 -0.29009733 -0.24679467 -0.2950895 -0.066041395 -0.90165406 -0.3710126 -0.5224176

weight f4 [32, 32, 9]
00000000: d258 28bf 73b1 60bf b200 44bf ded5 46be
00000010: a391 febb 1a1f a5bd 1e6b 0ebd 0b54 053e
00000020: eca4 8a3d c860 09bf 89d2 36bf b60a 47bf
00000030: 83d3 94bc c734 7cbe fe4c e9be 49c9 d9be
00000040: bc6b a9be 08c6 423e 4889 2fbf 128d c1be
00000050: f680 efbe 5904 41bf 0373 1abe 5449 d73d
00000060: f52a cabb 8586 a03d 0f34 ee3c 1e71 2ebf
00000070: 2776 18bf 95f7 af3d aa14 b93e 0057 0d3e
00000080: 8530 17bf e16d c5be 91b9 fabe 02e2 ecbe
00000090: 42f3 69bd e989 fb3d 5791 be3d 76b0 8dbe
000000a0: 0888 8cbe 9379 afbe 09c7 2ebe 0697 813d
000000b0: eef7 b63d e841 17bf 7fa6 18bf 17f0 2bbf
000000c0: 2b00 82bf 60c9 f1be 5fac 61be f3e2 bc3d
000000d0: 60fd 8d3d 5f3a 483e f900 20bf 2492 0dbf
000000e0: cc93 88be c61f 07bf e98b 15bf 8c58 2dbe
000000f0: 2a6b a73d 9433 c5bc bfda 2a3e 6d66 5dbe
00000100: 1dd9 c1be 83c7 7ebd 20d0 22bd 534e 1c3e
00000110: 4909 dd3d f8a4 bcbd 9286 80bd 6c75 8f3d
00000120: 3164 1ebd e9e7 a1bd 0e86 e9ba c0ef 98be
00000130: ea52 353c e770 f93d 72da e4bd 5d16 edbe
00000140: f7bb 3d3d cbd0 813e 77c1 c73e 9544 b23e
00000150: 4bc2 0d3e c063 3a3e e2fc dd3d bfdb b6be
00000160: 1da7 7fbe 01ec 6cbe bc3a 00be 351b e6bd
00000170: 098f 853d 27d8 8b3d 5483 6a3d 31dd 81be
00000180: 2183 65be b60c 25bd 58fa e13c b373 afbe
00000190: 6e7d dcbe 6b63 51be 9cdc 98bd faa0 1dbb
000001a0: d679 953d fc56 ab3d bc19 f43d 47d2 44bd
000001b0: bf94 5e3e 39f2 783e c45e 5f3c 1e6d 393d
000001c0: 1d00 23be 2bbb e73d 2d75 a13d 8af7 8d3d
000001d0: 46bc 74bd 6ab2 bfbe 983a a2be d5c1 1b3e
000001e0: 7d8c a23d 725b a93c 1e89 a8be e1f7 0ebf
000001f0: 4543 b7be ed7b 3dbe c5d5 9cbe 88fb 6bbe
00000200: e645 6ebe 277d d4bd 0fa5 2cbe 2681 e4bd
00000210: 97b4 8ebd e615 be3d fbe2 fe3d b17f 033e
00000220: c901 be3d aaa4 50be bf6c aabd 4e81 0cbe
00000230: 2994 1cbf f3b6 0cbd 0366 cdbd b188 063e
00000240: 580d a1be b025 7a3d c33b 1bbe de6e 55be
00000250: eb22 cfbd e378 4cbd d502 d7bc 20cc 1d3e
00000260: 58b8 1d3e 2381 edbe e5f0 91be c8f0 0a3e
00000270: ce12 9d3d 1152 f43b 0939 463d d8ff 88bd
00000280: d85d 34be 76f4 90bd e28b d93d 2a10 aabc
00000290: 44fb a4bc 492c cf3d 1563 763d a4ac 2bbe
000002a0: e7ee 9f38 4312 f73d c668 42be e789 c0be
000002b0: b9b2 f7bd 05a8 6dbe d6a7 59be 71cb 61be
000002c0: 3a85 73bd bc44 d03d 7172 bfbb b160 0dbe
000002d0: e59c 0ebf 387a 08bf be95 6fbe 5f36 76ba
000002e0: 5f25 e03d b0e2 5b3d b756 493c 1900 043d
000002f0: fe24 efbd e901 13bc 0658 bbbc 9dfa cebd
00000300: 5e44 a2bc 6c74 09bd b0b9 8cbe 52d1 6abd
00000310: 576b 37be 0c28 37bf 973e 0bbf 3765 b8be
00000320: e2b2 65be a2df 103e fabd 653e df36 033d
00000330: 7dfd 70bd 13c2 963d 8fdb d93b 17de 35bf
00000340: 8c7f 0fbf bd59 11bf 356d acbe 8381 ef3d
00000350: 5fc9 cabb 065d 9b3d 053c 75bc a1e5 4a3c
00000360: 080f 01be ebb9 98bd 8b32 c6be e2d6 2dbf
00000370: 9777 e3be ca25 02bf 82ea 87be 4c4b 073e
00000380: 630f c73d b10d 14be 5dfd 56be 7867 f63c
00000390: 04bf 923d 4f5e 613d 5e83 d1be 47d1 87bd
000003a0: 1adb 98bd 0843 2bbf df9c 25bf 4669 fdbe
000003b0: fefa 0fbf 11ad b7bd 77b3 d63c d894 133e
000003c0: 39d2 453e 3e00 00bf 9fd7 a9be fc46 5bbd
000003d0: 9e72 babe 3813 963d c37e 3fbd 0a9b 183d
000003e0: 83c6 3a3e 5a18 503c 627a 87bd ac9b 6cbe
000003f0: 5c6b 17bd 6905 953c b91f 96bd 2bb0 dabd
-0.6576053 -0.87770766 -0.7656356 -0.19417521 -0.007768826 -0.08062573 -0.034770124 0.13020341
0.067697376 -0.536633 -0.71415 -0.7775072 -0.018167263 -0.24629508 -0.45566553 -0.4253638
-0.33090007 0.19020855 -0.6856885 -0.3780294 -0.46778077 -0.7539726 -0.15082936 0.10512033
-0.0061696717 0.078381576 0.029077558 -0.68141353 -0.59555286 0.085921444 0.36148578 0.13802719
-0.5905841 -0.38560393 -0.489697 -0.4626618 -0.057116754 0.12282164 0.09305065 -0.27673692
-0.27447534 -0.3427244 -0.17068113 0.063276336 0.089340076 -0.5908494 -0.5962905 -0.67163223
-1.0156301 -0.4722395 -0.2203841 0.09222975 0.06933093 0.19553517 -0.62501484 -0.5530112
-0.2667526 -0.5278286 -0.5841661 -0.16928309 0.08174737 -0.024072446 0.16685008 -0.21621104
-0.37860957 -0.062201988 -0.039749265 0.15264253 0.10792787 -0.09211153 -0.06275667 0.07004818
-0.03866977 -0.079055615 -0.0017816441 -0.29870415 0.0110671315 0.121797375 -0.11174478 -0.46306124
0.046321835 0.2535461 0.3901479 0.3481795 0.13843648 0.18202114 0.10839249 -0.35714528
-0.24966092 -0.23136903 -0.12522405 -0.11235658 0.065214224 0.06828337 0.05725415 -0.25364068
-0.22413303 -0.040295325 0.027585194 -0.3426796 -0.43064445 -0.20448081 -0.07463953 -0.0024052248
0.07298629 0.083662 0.11918971 -0.0480521 0.2173643 0.2431115 0.013633434 0.045270078
-0.15918012 0.11314996 0.07883678 0.0693198 -0.059749864 -0.37440807 -0.31685328 0.1521066
0.07936952 0.020673487 -0.32917112 -0.55846983 -0.3579351 -0.18504305 -0.30631843 -0.2304517
-0.23268852 -0.103754334 -0.1685984 -0.111574456 -0.069680385 0.092815205 0.12445637 0.12841679
0.09277684 -0.20375314 -0.08321523 -0.13721201 -0.61163574 -0.03435416 -0.10029223 0.13138081
-0.31455493 0.061071098 -0.15159516 -0.20843074 -0.10114082 -0.049919974 -0.026246468 0.15409899
0.15402353 -0.46387586 -0.285041 0.13568413 0.07669602 0.007456072 0.048394237 -0.06689423
-0.17613924 -0.07077877 0.10622384 -0.02075966 -0.020139344 0.101158686 0.060153086 -0.16765076
7.62621e-05 0.1206403 -0.1898528 -0.3760521 -0.120946355 -0.23208626 -0.2125543 -0.22050263
-0.059453227 0.1016936 -0.0058425 -0.13806416 -0.5570815 -0.5331149 -0.23396966 -0.0009392257
0.10944628 0.053682983 0.012288741 0.032226656 -0.116769776 -0.008972623 -0.022869121 -0.101063944
-0.01980799 -0.033558294 -0.27485418 -0.05732853 -0.1791204 -0.7154548 -0.5439238 -0.3601472
-0.2243152 0.14147809 0.22435752 0.03203475 -0.058835495 0.073612355 0.006648488 -0.7104201
-0.56053996 -0.56777555 -0.33677068 0.11694624 -0.006188556 0.07586102 -0.014967923 0.012383849
-0.1260339 -0.07457336 -0.38710436 -0.6790601 -0.44427177 -0.5083891 -0.26546103 0.13212317
0.09719732 -0.14458348 -0.20995088 0.030078635 0.071653396 0.05502158 -0.40920538 -0.06631713
-0.07463665 -0.66899157 -0.6469249 -0.4949438 -0.5624236 -0.08968557 0.026208622 0.14412248
0.19318475 -0.5000037 -0.33172318 -0.053534493 -0.3641557 0.073278844 -0.04675175 0.03725723
0.18239789 0.012701118 -0.066151395 -0.23106259 -0.03696762 0.018191056 -0.07330269 -0.106781326

bias f4 [32]
00000000: 7d28 09be b50c 7abf f40f 01bb c4f0 48bf
00000010: d1bc 5dbd 3885 65bf 3dc7 f0bd 815f f6be
00000020: e313 9ebb 7e13 e0ba 5110 9fbc 1f3b 4dbf
00000030: 5d44 0fbf eb45 8cbb 97ac d2bd 07b1 9ebc
00000040: 25e0 2ebf c97e 303d e013 16bf 4de0 f2ba
00000050: 2048 62bd 0524 c6bc ed70 56be 5f19 96bd
00000060: dcae 86bd 22b7 51bf 9da5 cb3d a0b5 abbd
00000070: 0250 0cbb a99f 93be b233 00bf 1d6b 293d
-0.13394351 -0.9767564 -0.0019693347 -0.7849238 -0.054135147 -0.896564 -0.11756752 -0.4811974
-0.004824148 -0.0017095653 -0.01941696 -0.80168337 -0.5596369 -0.004280796 -0.10286825 -0.019371523
-0.6831077 0.04308966 -0.58624077 -0.0018529982 -0.055244565 -0.024187097 -0.20941515 -0.07329058
-0.065763205 -0.81920063 0.099436976 -0.083842516 -0.0021409993 -0.2883275 -0.5007888 0.041361917

weight f4 [32, 32, 9]
00000000: 529c 03be fe9a 97bd 92ea 82bb 3318 84bd
00000010: 128d 38be 3349 02bf d6c8 73bf 96bd 90bf
00000020: ecf1 20bf 37e9 11bd b39a 03be fc23 b5bd
00000030: e2dc 843d 32ba 6a3d 3606 c03d d727 0b3d
00000040: 39fb 94be 430a 18bf 4e35 103d 6734 2b3d
00000050: d0a5 843b 166d e7bd 7c1c 9abe 6172 1cbe
00000060: e81b 3ebd a895 0dbe cbc1 6cbc b073 1bbd
00000070: 2825 aebe 8e77 6dbe 927f eb3a b37f 0cbc
00000080: cb9e bdbe 5f47 b6be 44e2 a7be dda1 f9be
00000090: 3135 0fbf 30d8 7ebf f1cb 34bf 7c9a 82be
000000a0: 0bf8 90bc a57e aa3d e30d d33d e529 093c
000000b0: 05b4 be3d 5743 bfbe 4611 07bf 7906 05bf
000000c0: db84 f1bd b6e3 81bd 9c43 efbd ecf5 09be
000000d0: b8cd 47bd c063 f6bc 9b01 42bf c877 2bbf
000000e0: f831 97be 96ac 18be 6506 4cbd faf8 1b3c
000000f0: 4660 e1bd d188 e2bc 0ba1 d1bd 16f0 d63e
00000100: 7d2b a63e 333d ba3e f5cf bd3e ea1e 383e
00000110: cce6 153d 642a 263d 98d2 ae3d 705a 54bd
00000120: 90a5 68bd b990 d8bd 45b7 81be e1bd 09bf
00000130: 229d 19bf 3978 9abf 0245 96bf b373 99bf
00000140: 9e2f 92bf 94ee 843d 0231 223e d6d0 ff3d
00000150: 34a0 88bd c52d 0dbe 729a d0be 27f7 b3be
00000160: ee20 64bd 5b06 12be 2ff1 573e 1020 af3e
00000170: 5e17 0c3f eaf3 1f3f 60dd 173f 54c3 013f
00000180: 53b8 703e 1ecc a03e 1af8 843e fc81 e5be
00000190: 38b1 e0bd b90a 85be 7e22 2abe d8fd 36bd
000001a0: b6cd f5bc 8ac9 0dbc 9491 00bd 907f b83d
000001b0: 9c2c 3dbe c546 a5bc 1d36 003c adfd 4d3d
000001c0: 90a1 33be 8240 d2be 29b1 15bf 0858 ddbe
000001d0: 0e1d 1ebf 83e0 ecbe bf52 73bf 6d42 4abf
000001e0: 8fe7 84bf 9df3 53bf 8bfd 70bf 7458 61bf
000001f0: 7fb4 97bf 657f 2bbf 0acc 303f dcd1 fe3e
00000200: 8895 2b3f f4b6 453f 14af 323f 5e0e 343f
00000210: d4ae 123f 0231 193f 1ac8 753f 24a2 90be
00000220: d031 40bf b237 20bf 01e1 53bf eba7 5fbf
00000230: 3132 0abf da7b 2fbf 1d3d 48bf c305 1cbf
00000240: 5e11 1bbe 1ec7 8bbd ee6d bd3d 4a87 cd3d
00000250: 43b4 ae3c 7b51 88bd 90ab 33be d6a8 5bbe
00000260: 23a8 d0be 8981 ec3d 787b dd3c 0ebe bebd
00000270: e37e 9ebe 38c0 c5be 0d21 ebbe 69ec f3bd
00000280: 13c1 343d 6be9 913c 639b 78be 935d 8dbe
00000290: 215b 5ebd 3672 89bd 38c0 f93c 32b5 a93d
000002a0: e042 d53d 4455 523e a6d9 893d 97af 993e
000002b0: b6f9 f93d 485b 46be 8c24 bebe a98d 91be
000002c0: 7e0e 06bf 85a5 07be 89b9 853d 1963 d13c
000002d0: ea1b fe3e 130e ea3e d0aa 983e 294c c03e
000002e0: 59ff c93e 6961 cb3e d329 d13e e8e0 e93e
000002f0: c26a 673f 03cc cfbe aab8 11bf 5475 35bf
00000300: 0dd0 49bf 38ba 33bf 488f 7abf 92e8 a0bf
00000310: 48c5 b1bf 37bb 8cbf 6ce6 2ebf 79d3 78be
00000320: 6184 b5bb a978 273c 7d06 2cbe 2ffe cbbe
00000330: a64e fdbe 87bf 63bf cdc3 6ebf 5d62 d03e
00000340: b816 2f3f a7df 633f 520b 7f3f 6606 5e3f
00000350: d858 073f bd0c f33e c21e 523e 8fa6 0c3f
00000360: a943 1f3f 8c40 0a3f 4e8c 183f c19a 273f
00000370: c02c 3e3f 62e8 173f 40f6 093f 3c56 083f
00000380: 7226 3b3f 2ac7 fdbe bbb5 00bf 05b0 6fbe
00000390: 42f3 c8be 7773 d3be 54ff a3be bd59 d1be
000003a0: 6a76 dcbe 5b77 f7be 094d 663e 957f a2bd
000003b0: 2c40 c4bd 8c53 c3be c624 1dbf b681 76bf
000003c0: eb23 83bf e5d2 a9bf f8aa cbbf 23be 36bf
000003d0: 7510 08bf 0350 6fbe 20c2 f2bd 2eec 74bb
000003e0: e555 fd3c 93ab b3bd 3611 163d e6c8 e4bd
000003f0: 17e4 af3e f359 683e 08c6 69bc 1568 8ebe
-0.128526 -0.07402609 -0.003995248 -0.06449928 -0.18022564 -0.50892943 -0.95228326 -1.1307857
-0.62869143 -0.0356228 -0.12851982 -0.08844754 0.064874426 0.057306476 0.09376185 0.03397354
-0.29097918 -0.5939066 0.035207085 0.04179802 0.0040480867 -0.11300103 -0.30099857 -0.15278007
-0.046413332 -0.1382662 -0.014450501 -0.037952125 -0.34012723 -0.23190138 0.0017967096 -0.008575368
-0.37035212 -0.35601327 -0.32789814 -0.48756304 -0.5594054 -0.99548626 -0.7062369 -0.25508487
-0.017696401 0.08324937 0.10305383 0.008371805 0.0931168 -0.37356064 -0.5276073 -0.51963
-0.11792918 -0.063422605 -0.11682817 -0.13472718 -0.048780173 -0.030076861 -0.757837 -0.66979647
-0.2953031 -0.14909586 -0.049810786 0.00951981 -0.11004691 -0.02765313 -0.10235795 0.41980046
0.32455054 0.36374816 0.3707272 0.17980543 0.03659706 0.04056777 0.08536261 -0.05184406
-0.056798518 -0.10574479 -0.25335136 -0.5380536 -0.6000539 -1.2067939 -1.173981 -1.1988434
-1.1420782 0.06490818 0.15839007 0.12491004 -0.06671181 -0.13786991 -0.40742832 -0.351495
-0.055695467 -0.14260237 0.21088098 0.3420415 0.54723155 0.6248156 0.59322166 0.5068867
0.23507814 0.3140573 0.25970536 -0.44825733 -0.10971302 -0.25984743 -0.1661472 -0.044675678
-0.030005317 -0.008654008 -0.031388834 0.090087056 -0.18474048 -0.020175347 0.007825402 0.050290752
-0.175421 -0.4106484 -0.5847345 -0.43231225 -0.61763084 -0.4626504 -0.95048136 -0.7900761
-1.0383166 -0.827936 -0.94136876 -0.88025594 -1.1851958 -0.66991264 0.6906134 0.49769485
0.6702504 0.7723229 0.697984 0.7033442 0.57298017 0.59840405 0.96008456 -0.28248703
-0.7507601 -0.62584984 -0.82765204 -0.873656 -0.53982836 -0.6854836 -0.7821825 -0.6094629
-0.15143344 -0.06825088 0.09249483 0.1003557 0.02132619 -0.06656166 -0.17545915 -0.21451125
-0.40753278 0.11548144 0.027036414 -0.09313594 -0.30956182 -0.38623214 -0.45923653 -0.11910326
0.044129442 0.017811498 -0.24278025 -0.27610454 -0.054286126 -0.06711237 0.030487165 0.082865134
0.10413146 0.20540339 0.06730966 0.30016777 0.12205832 -0.19370759 -0.37137258 -0.2842839
-0.52365863 -0.13246734 0.06529529 0.025559949 0.49630672 0.45713863 0.2981782 0.37558106
0.39452627 0.39722756 0.40852222 0.45679402 0.90397274 -0.40585336 -0.569224 -0.70882154
-0.78833085 -0.7020602 -0.9787488 -1.2570975 -1.388833 -1.0994633 -0.68320346 -0.2429942
-0.0055394624 0.010221639 -0.1679935 -0.39842364 -0.49474066 -0.8896412 -0.9326752 0.40700045
0.6839404 0.8901314 0.9962665 0.86728513 0.5286994 0.47470656 0.20519546 0.5494165
0.62212616 0.5400474 0.5958909 0.6547051 0.74287033 0.59338963 0.5389137 0.53256583
0.7310554 -0.49566013 -0.502773 -0.2340699 -0.3924809 -0.4129903 -0.32030737 -0.40888777
-0.43059093 -0.48333248 0.22490324 -0.079344906 -0.09582552 -0.3814968 -0.61384237 -0.96291673
-1.0245336 -1.3267485 -1.591155 -0.71383876 -0.5315011 -0.23370366 -0.11853433 -0.003737222
0.030924747 -0.087729596 0.036637507 -0.11171131 0.34353706 0.22690563 -0.014268406 -0.27813783

bias f4 [32]
00000000: e8d7 c9bc 84fd 3fbe 40cb 40bc d5d9 f3bc
00000010: aa36 41be bdad 39bd 6564 8cbb 1644 acbd
00000020: 7a3c 363d 34eb a4bc 7165 3dbe 4af5 d1bd
00000030: 9472 32bd 4986 01bd 7ef2 c33c 1869 1ebe
00000040: 2749 d8bd 2b59 26be ad8b 88bd d6e5 d1bd
00000050: a49a 4a3b 94b8 8fbc e276 0cbd 2d8c 94bd
00000060: 0bef 03bd d0ba 04be 0eb8 16bd 8f69 4abe
00000070: 130c 2ebd ba1f 0abd 5481 49bd 0bc8 aebd
-0.024639085 -0.18749052 -0.011767209 -0.029766956 -0.18868509 -0.045331705 -0.004284429 -0.08411424
0.04449127 -0.020131685 -0.18495728 -0.10251863 -0.0435663 -0.031622205 0.02391934 -0.15469778
-0.10560828 -0.16244952 -0.06667266 -0.10248916 0.0030914927 -0.017544068 -0.034293063 -0.07253299
-0.03221039 -0.12961888 -0.036796622 -0.1976683 -0.042491984 -0.033721663 -0.049195603 -0.08534249

weight f4 [32, 6, 9]
00000000: 1467 433e bd3a 3f3e 8360 22bc 28db a1bb
00000010: 140d 743d 908a b2bc b7da c0bd eb00 dbbd
00000020: 6898 63be 06a3 fd3d 8677 063e a271 39bd
00000030: 56d6 633d 39ee 303d e7f0 9ebd 918f af3d
00000040: 671e 17be efba ecbd 30fb fdbe 4a6d febe
00000050: d042 5ebe d079 853b 94c6 123e 4959 463e
00000060: 2e9c 7c3e 5d9d 873e bb69 8f3d 3ee4 54be
00000070: 3509 51be 4da8 78be bc96 4abe 98b1 98be
00000080: f3ba 92bc 364e 193e d4c3 9b3e 1539 bd3d
00000090: fcd6 21bf d551 0dbf e5fd e8be 5d71 1fbe
000000a0: 5f3d a23c 971a 283e 0e5a d43d f5bf 373e
000000b0: 8fca 9b3e ff8d 8ebd 1df2 9d3b 44c0 3a3e
000000c0: a1e5 ff3c aa09 74be bb84 a8be 1485 51be
000000d0: dafb d0be 0e19 cdbe 018d 16bd 331c b13d
000000e0: 3685 94bd 6699 b3bc 1228 073c 2bc9 5dbd
000000f0: 2908 ef3c 5910 ab3d 8a1a fc3c 91a8 fbbb
00000100: 3f0f 893d e5b9 203e 946f e33d bfcf 193c
00000110: 7407 38bd cee5 f2bd 528e 74bd 5a0e 2bbe
00000120: e53b 333f 2bf3 3b3f 8e4d 583f 343f 1c3f
00000130: e135 1e3f d651 943e e1ff 5b3e d20e a6bd
00000140: 14c6 d63c 53fa 023e 7e58 c53d 674e eb3b
00000150: de3c d2bc bf3f d33d 42e4 323d a1f2 993d
00000160: 98a9 8e3d e1c3 9c3d 40d3 003f 7c10 9e3d
00000170: 7a6e a9bc 1144 76bd cbf0 8d3e 6c4c c63e
00000180: 3f90 fc3d 6fdc 64be 531f ffbe e8c8 a43e
00000190: 7792 4a3d 5c5e aa3d 42b5 f13d b1f6 d6bc
000001a0: fd93 0f3e 35ca 00be d31b 4dbe b50a 20bf
000001b0: cb3d d33d cd6d 8dbd cc36 0a3b 500f 7cbc
000001c0: 3ceb 373d e609 b6bd 5c53 403d 132c 153c
000001d0: 392a ffbd f492 73bd 1398 b2bd fdd9 e1bd
000001e0: cfa5 8dbd bf1e 9b3d 6687 d33c 6e2c a83d
000001f0: d981 57bd 0710 0f3e 97ba fc3e e5a8 713f
00000200: 5a4d 863f e64f 8f3f 49ed 943f f36e 893f
00000210: 1e4b 7f3f 47b3 883f 435d ad3f 5550 563e
00000220: e1a2 0e3e 0ae1 4cbc c01a 073d 058d c0bd
00000230: 9617 3fbe 67ff 72bd 63f8 b63d adc3 b6bd
00000240: 6be8 503e 02b4 f93d 6d3f a63d f38c 053e
00000250: c21f 6f3e 97c2 2b3c e19d 833d f8b2 173e
00000260: b72a 713e 3cb7 c5bc e660 80ba c738 d1bd
00000270: c7cb ea3d 1374 193e 1c7c 2d3d 45b1 ea3d
00000280: e094 e33d b8a3 5ebe cffc 7bbc 6fa8 1fbe
00000290: 7074 f6bd ae81 ad3c 5048 6abd c5f6 e43d
000002a0: ead1 3b3e 4c05 143e ba25 ab3c 7701 93bd
000002b0: 5350 0f3e e89e cdbd afe0 afbd d12c 013e
000002c0: c7b0 9c3c bf35 b73c 02fc 9a3d a192 f7bc
000002d0: 4fc8 0abe ea87 21be 3333 82be 0461 81be
000002e0: cc8a aabe a73c 91be 04ad 64be f2c2 92be
000002f0: dda7 3fbe 0b7a 223f 131d 343e 5a67 8ebe
00000300: 0ed2 acbe 68ed 84be 297d dabe 7585 a2be
00000310: 5d92 a5be 21d4 79bd f9ac c2bd 6d5e 4bbe
00000320: b275 893d 046b e93c fb4a 07be c64c 02bf
00000330: 14c8 28be a51e 26bd 07e2 33bd b1b9 67bb
00000340: e72c 953e db92 05be d62d 46be eaec 563c
00000350: 4684 0c3f 379e 813e 9c9d 61bd 3806 4bbd
00000360: 2bdc 31be a0ba fbbd e925 16bd d30b 6fbd
00000370: 5f2d 933d dc41 f73c 5523 073e ed0f 3f3e
00000380: 620f e83d e049 893c 4880 b43d 6246 f83d
00000390: ec1d 453e 3146 d03c dcd2 3bbe b193 e4bd
000003a0: 1061 8dbd d3ac 86bd 3a92 b0be fefb a83e
000003b0: 3d5c 543f 6fc3 793f 5c30 9f3f 642e 943f
000003c0: 7305 733f d267 013f b371 0d3f 7636 323e
000003d0: 02d4 a03d 6001 37bc 0ebd 163e 72d2 613e
000003e0: dd30 9a3e 95ec 3c3e 56a7 5c3e f488 133e
000003f0: e112 b53c acfc dc3d 4d79 f23c 5638 58bd
0.1908229 0.1867475 -0.0099107055 -0.0049394555 0.059582785 -0.021794587 -0.094167165 -0.106935345
-0.22226107 0.1238461 0.13131532 -0.045274384 0.05562433 0.043195937 -0.07760792 0.08572305
-0.14757691 -0.11559092 -0.49605703 -0.49692756 -0.21705174 0.004073359 0.14333564 0.19369997
0.24668953 0.26487246 0.07002588 -0.20790192 -0.20413668 -0.24282952 -0.19784063 -0.29822993
-0.01791141 0.14971241 0.30422843 0.09239403 -0.63218665 -0.5520299 -0.45506206 -0.15570588
0.019804655 0.16416393 0.10368739 0.1794432 0.30427977 -0.06960677 0.004820122 0.18237406
0.031237425 -0.23831812 -0.32913765 -0.20460922 -0.40817147 -0.40058178 -0.036755566 0.08647957
-0.072519705 -0.021923732 0.0082493 -0.054146927 0.029178696 0.083527274 0.030774374 -0.007680007
0.06692361 0.15695913 0.11105266 0.009387909 -0.044928983 -0.11860238 -0.05970604 -0.16704693
0.70013267 0.7341792 0.8449334 0.6103394 0.6180096 0.28968686 0.21484329 -0.081082955
0.026217498 0.12790804 0.09636019 0.007180977 -0.02566379 0.10314893 0.043674715 0.07516981
0.06965941 0.076545484 0.5032234 0.07717988 -0.020682562 -0.060123507 0.27722773 0.3873018
0.123322 -0.22349714 -0.49828586 0.3218453 0.049456086 0.08318779 0.1180215 -0.026240679
0.14021297 -0.12577136 -0.20030145 -0.6251634 0.103145204 -0.069057085 0.002108979 -0.01538451
0.04490207 -0.08888607 0.046954498 0.009104746 -0.12459225 -0.059466317 -0.08720412 -0.11027906
-0.06916391 0.07574224 0.025821399 0.08211599 -0.052614067 0.13970958 0.49361107 0.9439834
1.0492356 1.1196258 1.1634914 1.0736984 0.99723995 1.0679711 1.3544086 0.20929082
0.13929321 -0.012504825 0.032984495 -0.09401897 -0.18661341 -0.059325602 0.08934095 -0.08924041
0.2040116 0.12192537 0.08117566 0.13042049 0.23351958 0.010483406 0.064265974 0.14814365
0.2355145 -0.024135225 -0.0009794503 -0.102159075 0.11464649 0.14985685 0.042354688 0.11459593
0.1111238 -0.21742141 -0.0153800985 -0.15591596 -0.120339274 0.02118 -0.05719787 0.1117988
0.18341795 0.14455146 0.020892013 -0.07178014 0.13995485 -0.100400746 -0.08587777 0.12614752
0.019127263 0.022364495 0.07567598 -0.030221285 -0.13552974 -0.15774503 -0.25429687 -0.2526933
-0.3330902 -0.28366587 -0.22331625 -0.28664356 -0.18716379 0.6346747 0.17589216 -0.27813226
-0.3375401 -0.25962377 -0.42673615 -0.31742445 -0.3233823 -0.060993318 -0.09505648 -0.1986024
0.06711902 0.028493412 -0.13212197 -0.50898397 -0.16482574 -0.04055657 -0.04391673 -0.0035358483
0.2913582 -0.13044302 -0.19353423 0.013118008 0.54889333 0.2531602 -0.05508195 -0.049566478
-0.17369144 -0.12291455 -0.036657248 -0.058360886 0.07186388 0.030182771 0.13197072 0.18658419
0.11331059 0.01675886 0.0881353 0.121227995 0.19249696 0.025424095 -0.18342155 -0.111609824
-0.06903279 -0.06575932 -0.34486562 0.33004755 0.82953244 0.97563833 1.2436633 1.1576657
0.9493019 0.5054904 0.55251616 0.17403588 0.07852937 -0.011169761 0.14720556 0.22052935
0.30115405 0.18449624 0.21548209 0.14407712 0.022103729 0.10790381 0.029598856 -0.0527881

bias f4 [32]
00000000: 3893 87bd b3fd bfbe 47a3 cabd c00f 1bbd
00000010: 092c 9ebd 6a99 2dbd 7e1b 82bc 939c 8dbe
00000020: f9b5 cdbe 5fec 30be 414c 1fbd 2889 b5be
00000030: a7ad e2bc 0891 24be b222 0fbd 2152 41bc
00000040: 3a92 c3bc 6d1c 45bd bb95 8cbc 78c2 1bbd
00000050: d32c efbc b8e6 51bc ec97 e2bb 54d5 95be
00000060: bbb5 95bd da2e 3bbc c58d 63be 3588 e9bd
00000070: ee41 48bd e819 fabc 90e9 c2be 1c3d 10be
-0.066198766 -0.37498245 -0.09894424 -0.037856817 -0.07723243 -0.042382635 -0.01588225 -0.2765852
-0.40177897 -0.17277668 -0.03889108 -0.35456204 -0.027670695 -0.1607095 -0.034945197 -0.011799366
-0.023873437 -0.048122812 -0.01716124 -0.038027257 -0.029196179 -0.012811355 -0.006915083 -0.2926432
-0.07310053 -0.0114247445 -0.2222205 -0.114029326 -0.048891 -0.030529931 -0.3806882 -0.14085811
