models/v1_1s.pt (torch, 568848 bytes, 57 tensors)

cls f4 [1, 1, 32]
0.15293482 -0.75165373 -0.3690027 -1.2857972 -0.31421033 0.9165837 0.07633156 -1.5048169
-1.4773068 0.32818863 0.42298704 0.5868784 -1.248668 -0.39558172 -0.5028514 0.6032071
0.35943636 0.07133717 0.5863687 -0.012495487 1.4727582 -2.6866753 1.0210855 0.30059573
0.60712326 0.098375455 1.2277763 0.7108503 0.6489915 0.006486914 -0.50274485 0.25795963
00000000: f29a 1c3e 616c 40bf eced bcbe 0195 a4bf
00000010: 2de0 a0be 3ba5 6a3f b953 9c3d d79d c0bf
00000020: 6418 bdbf 5708 a83e c291 d83e aa3d 163f
00000030: 5ad4 9fbf b089 cabe dfba 00bf c86b 1a3f
00000040: 0b08 b83e 3919 923d 421c 163f dfb9 4cbc
00000050: 5783 bc3f 7df2 2bc0 eeb2 823f afe7 993e
00000060: 6e6c 1b3f 1279 c93d c627 9d3f 49fa 353f
00000070: 4f24 263f 2e90 d43b e3b3 00bf 4913 843e

gaze_pe f4 [1, 60, 32]
0.48558348 0.65271103 -0.2625641 -0.1781136 1.208575 0.07679991 -0.59486246 0.84823877
-0.11575784 -1.2259107 -0.034782175 0.39979443 0.14500475 0.7427131 0.4362048 2.371305
0.8321847 -0.08991728 -0.63111925 -1.4733597 0.9439809 1.42419 -0.09333081 -1.2516104
0.27601194 0.58627015 0.5020332 -0.34076914 1.054398 -0.02995448 -0.9292168 -0.36603564
0.5409415 1.6873541 0.87031704 -1.8488679 1.4902986 -0.37757635 1.1623076 1.5843487
-2.0074725 -0.615865 1.6335721 2.056689 1.1961324 -1.2434937 -0.07083679 -0.7564656
0.36906767 -0.31649008 -0.32296282 0.99439937 1.6798944 -1.1188804 0.67773104 1.0111063
-0.4466752 0.3556385 -1.0577182 -0.44341004 -0.02094532 -0.59748805 0.6303418 -0.10305325
-0.78861636 -1.3517498 -0.09124506 -0.9591081 -0.57377577 0.5938788 -0.32482067 1.2537708
1.6128589 -0.5333014 -1.3997971 -0.27538657 -1.8822789 -0.31322712 -1.1458898 -0.41243762
1.2101262 -1.1126174 0.21549527 -0.32312727 -0.8523769 -1.0507346 0.44097024 0.38634935
-0.58407116 0.23447588 -0.34116587 -2.3313694 -1.0361888 0.80120087 -1.317604 -0.5376687
-0.116578646 1.3247204 -1.5884854 -0.46547392 0.63162625 0.51377636 -0.756416 -2.144383
-1.0414226 -0.14714469 0.6922577 0.6152846 1.835404 0.060530774 -0.64597034 0.25968277
0.016910339 -0.29931462 -0.8260305 1.2173525 -0.57759 -0.74991465 -0.09980658 -0.0803783
0.938383 1.1238564 0.33263198 -0.1381212 -1.226251 1.7282993 0.5392833 -1.6167023
-1.1936066 -0.0029179212 0.48191738 0.5740237 1.2147247 -0.974664 -0.46818665 0.42907032
-0.4741528 -2.6120114 0.14551666 -0.11364127 -0.27095416 -0.4066558 -1.3044373 -0.8458967
1.3132247 -0.36754233 0.7796641 -1.0448922 -0.6721251 -0.659231 0.009869537 0.32329836
0.3684347 -1.0224504 -1.35521 -1.46978 -1.3675323 -0.110708386 -0.49937648 0.057057023
1.0575475 -0.94744253 0.19595009 0.13929003 -1.3855313 0.95276797 0.94977045 0.89577335
-0.8766107 -0.29373333 -0.7950294 -0.6205599 -0.73598534 0.2270595 -0.33979398 0.23687306
1.1774133 -1.4234735 -0.05044729 -0.53398836 -1.3238151 0.059949905 0.02059931 -1.3482227
0.1909344 1.0264119 -0.43938938 -2.22976 -0.1289955 1.2155002 -0.004349325 -0.09047919
0.6596901 0.8273768 -0.3541548 0.8624044 0.5328455 -0.55220956 0.29851687 -0.63526094
-0.04120958 0.032548804 -0.85434663 0.62203115 -0.58867043 -1.1113786 -0.573768 -0.2970054
-0.023674872 -0.5143696 -0.6862926 -1.7876112 -0.79881185 -0.32661265 -1.1696548 -0.61518353
0.00021384913 0.5859648 0.57259965 -0.5980723 0.91796356 -1.3078762 -0.72852033 -0.45715976
-0.35386878 0.1525633 -0.55562085 1.3262464 -1.6442403 0.6455035 -0.60727435 1.1809196
1.5585033 2.669091 1.427162 -0.44451484 0.256137 0.14778616 -0.8471213 -1.2642354
1.0375571 -1.042897 0.10568656 -0.70992154 -0.20595698 0.08333661 -0.2033405 -1.4620153
-0.17394765 1.7775553 0.15384951 1.22869 0.56488997 0.120859005 -0.08057392 -0.23356976
00000000: 669e f83e 1218 273f cd6e 86be 6963 36be
00000010: 96b2 9a3f 4549 9d3d e848 18bf 2d26 593f
00000020: 7212 edbd a4ea 9cbf c177 0ebd dbb1 cc3e
00000030: 207c 143e 7222 3e3f 3c56 df3e 76c3 1740
00000040: 0e0a 553f 8d26 b8bd 0891 21bf 0d97 bcbf
00000050: bba8 713f dc4b b63f 3924 bfbd c534 a0bf
00000060: 7051 8d3e cd15 163f 3f85 003f 4b79 aebe
00000070: 83f6 863f 1963 f5bc 27e1 6dbf 0669 bbbe
00000080: 247b 0a3f 38fb d73f 19cd 5e3f b4a7 ecbf
00000090: 1bc2 be3f b051 c1be 7fc6 943f f0cb ca3f
000000a0: 6e7a 00c0 54a9 1dbf e418 d13f cba0 0340
000000b0: de1a 993f cd2a 9fbf e112 91bd bba7 41bf
000000c0: 70f6 bc3e fd0a a2be 625b a5be f590 7e3f
000000d0: c806 d73f 7937 8fbf c87f 2d3f ee6b 813f
000000e0: 9db2 e4be 4016 b63e 4f63 87bf a406 e3be
000000f0: 8595 abbc faf4 18bf 155e 213f 950d d3bd
00000100: c3e2 49bf 2306 adbf b1de babd 1c88 75bf
00000110: f8e2 12bf 7108 183f e54e a6be 907b a03f
00000120: 2972 ce3f 7186 08bf 8d2c b3bf 78ff 8cbe
00000130: 84ee f0bf 4e5f a0be 84ac 92bf 062b d3be
00000140: 6ae5 9a3f 3f6a 8ebf cbaa 5c3e f070 a5be
00000150: 5f35 5abf 797e 86bf dac6 e13e 95cf c53e
00000160: b085 15bf 721a 703e 4bad aebe 2835 15c0
00000170: d6a1 84bf 801b 4d3f 3fa7 a8bf a8a4 09bf
00000180: c9c0 eebd 7090 a93f 7d53 cbbf 9952 eebe
00000190: 42b2 213f d986 033f 7ba4 41bf 923d 09c0
000001a0: 564d 85bf 19ad 16be cd37 313f 4b83 1d3f
000001b0: 85ee ea3f 1eef 773d 505e 25bf 24f5 843e
000001c0: 8d87 8a3c c43f 99be bc76 53bf 35d2 9b3f
000001d0: f0dc 13bf 68fa 3fbf 6467 ccbd 619d a4bd
000001e0: de39 703f 87da 8f3f bd4e aa3e a56f 0dbe
000001f0: cbf5 9cbf e938 dd3f 780e 0a3f 1af0 cebf
00000200: 1ac8 98bf 983a 3fbb e0bd f63e 38f3 123f
00000210: 197c 9b3f 9483 79bf 29b6 efbe 1baf db3e
00000220: 28c4 f2be 322b 27c0 5202 153e c1bc e8bd
00000230: 81ba 8abe 3035 d0be cdf7 a6bf b08c 58bf
00000240: bf17 a83f 822e bcbe 1198 473f 07bf 85bf
00000250: 6410 2cbf 5dc3 28bf d7b3 213c 5d87 a53e
00000260: 79a3 bc3e a8df 82bf 8577 adbf c021 bcbf
00000270: 4c0b afbf 14bb e2bd 46ae ffbe a0b4 693d
00000280: b75d 873f 988b 72bf 24a7 483e 0ca2 0e3e
00000290: 1759 b1bf 9ae8 733f 2824 733f 6751 653f
000002a0: 8f69 60bf 3764 96be 0c87 4bbf 03dd 1ebf
000002b0: 8969 3cbf 4982 683e 7af9 adbe da8e 723e
000002c0: 7bb5 963f 6134 b6bf d1a1 4ebd 76b3 08bf
000002d0: c672 a9bf 088e 753d e2bf a83c 9092 acbf
000002e0: 4f84 433e 7761 833f a5f7 e0be 63b4 0ec0
000002f0: 6517 04be 8395 9b3f c884 8ebb 274d b9bd
00000300: 73e1 283f f7ce 533f c753 b5be 89c6 5c3f
00000310: 9068 083f 9b5d 0dbf 34d7 983e 76a0 22bf
00000320: 60cb 28bd e551 053d 76b6 5abf 6f3d 1f3f
00000330: 1bb3 16bf a741 8ebf 76e2 12bf 1711 98be
00000340: cef1 c1bc baad 03bf dfb0 2fbf 72d0 e4bf
00000350: ef7e 4cbf c639 a7be 40b7 95bf ab7c 1dbf
00000360: b03c 6039 ca01 163f e495 123f 441b 19bf
00000370: a9ff 6a3f 7d68 a7bf 4f80 3abf d810 eabe
00000380: 4a2e b5be 8e39 1c3e 2b3d 0ebf 71c2 a93f
00000390: 7776 d2bf b83f 253f 5576 1bbf 6028 973f
000003a0: 097d c73f 63d2 2a40 3fad b63f 7397 e3be
000003b0: 6424 833e 4155 173e f1dc 58bf 77d2 a1bf
000003c0: acce 843f a67d 85bf 3272 d83d 6bbd 35bf
000003d0: 63e6 52be 62ac aa3d 7e38 50be 5123 bbbf
000003e0: 551f 32be ef86 e33f ba8a 1d3e b745 9d3f
000003f0: a19c 103f ed84 f73d f003 a5bd e92c 6fbe

imu_pe f4 [1, 60, 32]
-1.5691466 0.35423568 -0.5288521 0.12058083 0.5384094 0.10741715 -0.56763655 -0.057023972
-1.6691723 1.0975928 0.5117242 -0.6734736 0.3123056 0.3832876 0.081206135 -1.006963
0.9185547 0.18688485 0.9107709 1.6063765 -1.658514 -0.1702145 0.31202576 -1.3509912
-0.9800178 0.2180256 -0.36058334 1.5042006 -0.5043383 0.716162 0.6884461 0.9032283
-1.1911501 0.71759945 1.1253136 -0.29534292 -0.95810884 -0.016222082 -1.8275479 0.90803033
-0.6603033 0.504814 -0.19892305 0.10371169 -0.19400123 0.22427154 -0.85114276 1.0922697
-0.6139957 -0.6854328 -0.70107067 -0.04055627 1.0538236 -1.1318233 -0.15729202 -0.8631394
-1.2075801 0.70184433 0.37035987 -0.4284596 -1.6009973 -0.40044746 -0.12359858 0.43081105
-0.05455064 0.4848906 -0.2698081 1.1412104 -0.09831461 0.6769043 -0.008955074 -0.64505994
-0.27536526 -0.3745447 -0.82331145 1.0684961 -0.12887424 0.07369178 0.75589806 0.3607212
-2.0455801 0.84774256 -0.26197588 -0.8482211 -0.8480968 -0.061248276 1.3576901 -0.16661099
-1.0312754 -0.7041174 1.833882 -0.4672403 -0.8973268 -1.1510689 -0.40233597 -0.38972694
1.1382669 -1.0032266 0.32887393 -0.3190033 -0.44729882 2.1604476 -1.3414797 -1.2927158
-1.3236544 -1.6224179 -0.37117723 -0.27570394 0.44069165 0.7300683 -0.3519064 1.1175815
-0.009196124 0.82311225 -0.81744355 -0.7382963 -0.08522022 0.9591246 1.8797245 -0.8707703
-0.7315986 -1.394621 -0.720939 -1.6735631 0.5236686 0.67539686 -0.47039628 2.287286
1.1615322 -0.67115605 -0.88220805 -0.16399552 -0.11529821 1.467867 -0.47874025 0.75691557
0.5170271 -0.98962474 -0.02302078 -2.3073382 -0.3129047 0.6440192 -0.88536054 -0.6173035
-0.3715832 -1.3810837 -0.7828991 -0.1924414 0.68819433 0.98268276 1.1903177 0.47118112
-0.4408496 -0.24379662 0.6125503 -0.69717723 -1.1684414 -0.23628926 -1.0406578 3.5831594
1.5894706 0.6496499 0.032446194 1.0976098 -1.4711711 1.1828758 0.8940773 -0.98728156
1.0737251 1.199352 1.5673101 0.90243584 -1.5360613 -0.27723157 -2.6075978 -1.8067647
-0.42532822 -1.5519181 -0.954374 0.16043359 0.5381786 -1.1465226 -0.052652232 0.21090733
0.47896904 0.3316559 -0.98770267 0.45347455 -0.5900256 -0.020807644 0.34685266 -0.19925441
-1.5552849 0.14719613 0.10176565 0.15144195 -0.39452484 0.020167958 -0.34734434 0.031073501
-0.9404083 1.0159078 -0.40185177 1.8483723 -1.0199554 -0.016147172 0.7033281 0.029282195
1.4052444 -1.9797323 -1.3543177 0.4545471 1.4496943 1.840935 -1.2053837 -0.8913783
-0.59213233 0.3338106 0.6136737 -0.26271147 -0.4342189 0.096400484 1.1429112 1.2286273
0.3310361 0.97589684 0.8568059 0.14364523 -0.7176169 -0.35326922 -0.6134039 0.54864687
0.4137837 0.60842526 -0.19962302 0.076227464 0.2204635 0.4216788 -2.3428822 0.2361174
-0.04519344 1.5097191 1.8337921 -1.3248727 1.3071194 -0.23424765 -0.86230373 0.08498518
-1.4016967 0.25401926 0.079570286 0.6500398 0.62949026 1.7931755 -1.6467754 -0.7064123
00000000: ccd9 c8bf 615e b53e da62 07bf 15f3 f63d
00000010: 33d5 093f 86fd db3d a150 11bf f891 69bd
00000020: 70a7 d5bf ec7d 8c3f 5b00 033f c468 2cbf
00000030: 85e6 9f3e 463e c43e 674f a63d 2ae4 80bf
00000040: 6726 6b3f be5e 3f3e 4828 693f bf9d cd3f
00000050: 304a d4bf b64c 2ebe d7c1 9f3e 48ed acbf
00000060: 72e2 7abf 1a42 5f3e 619e b8be a589 c03f
00000070: 511c 01bf 6556 373f 013e 303f f839 673f
00000080: 9b77 98bf 99b4 373f 470a 903f 3037 97be
00000090: 9f46 75bf 2ce4 84bc 17ed e9bf ad74 683f
000000a0: a309 29bf 7e3b 013f 7cb2 4bbe cb66 d43d
000000b0: 42a8 46be 70a7 653e 7ee4 59bf 7ecf 8b3f
000000c0: d22e 1dbf 8678 2fbf 5e79 33bf 551e 26bd
000000d0: b1e3 863f 96df 90bf 2911 21be b4f6 5cbf
000000e0: fc91 9abf 12ac 333f cf9f bd3e 0f5f dbbe
000000f0: 7bed ccbf 7307 cdbe 4121 fdbd 4493 dc3e
00000100: 7e70 5fbd 9543 f83e 4a24 8abe 2f13 923f
00000110: 2c59 c9bd 9a49 2d3f 4db8 12bc a622 25bf
00000120: adfc 8cbe 53c4 bfbe 8ac4 52bf 7bc4 883f
00000130: 9cf7 03be b7eb 963d 8982 413f 73b0 b83e
00000140: c9ea 02c0 a805 593f b421 86be 0525 59bf
00000150: df1c 59bf 79df 7abd cac8 ad3f 129c 2abe
00000160: d500 84bf 0a41 34bf a5bc ea3f 1f3a efbe
00000170: 36b7 65bf 3a56 93bf fbfe cdbe 4a8a c7be
00000180: bbb2 913f bb69 80bf 2a62 a83e 6754 a3be
00000190: 5a04 e5be c644 0a40 9bb5 abbf b677 a5bf
000001a0: 826d a9bf 64ab cfbf f10a bebe 1129 8dbe
000001b0: 56a2 e13e c2e5 3a3f 132d b4be e90c 8f3f
000001c0: 57ab 16bc 7cb7 523f fb43 51bf fc00 3dbf
000001d0: f087 aebd 3189 753f d09a f03f cdea 5ebf
000001e0: 0c4a 3bbf f182 b2bf 758f 38bf 5137 d6bf
000001f0: 250f 063f cfe6 2c3f c8d7 f0be e562 1240
00000200: 16ad 943f e2d0 2bbf 63d8 61bf 71ee 27be
00000210: 7821 ecbd 11e3 bb3f 711d f5be 38c5 413f
00000220: e35b 043f 0c58 7dbf 1396 bcbc 6eab 13c0
00000230: 0b35 a0be 71de 243f fda6 62bf 9a07 1ebf
00000240: 2740 bebe 5ac7 b0bf 136c 48bf 5c0f 45be
00000250: 812d 303f 1991 7b3f 555c 983f a73e f13e
00000260: 0ab7 e1be d2a5 79be 19d0 1c3f 357a 32bf
00000270: 7d8f 95bf d0f5 71be 4634 85bf 7c52 6540
00000280: c673 cb3f 754f 263f 4de6 043d 7a7e 8c3f
00000290: 564f bcbf 7968 973f 40e2 643f 7cbe 7cbf
000002a0: d36f 893f 5e84 993f 9e9d c83f 0906 673f
000002b0: a89d c4bf 4cf1 8dbe e2e2 26c0 1144 e7bf
000002c0: 9fc4 d9be 41a5 c6bf db51 74bf b448 243e
000002d0: 13c6 093f 41c1 92bf dea9 57bd 17f8 573e
000002e0: 6e3b f53e cdce a93e 15da 7cbf d12d e83e
000002f0: eb0b 17bf cb74 aabc ac96 b13e 5909 4cbe
00000300: 9313 c7bf 95ba 163e 826a d03d 9913 1b3e
00000310: 29ff c9be 4637 a53c 1ed7 b1be db8d fe3c
00000320: 99be 70bf 4409 823f 84bf cdbe 7797 ec3f
00000330: e68d 82bf 1347 84bc 4f0d 343f 37e1 ef3c
00000340: 0cdf b33f de67 fdbf 485a adbf 66ba e83e
00000350: 958f b93f c2a3 eb3f 034a 9abf 5e31 64bf
00000360: fc95 17bf 39e9 aa3e b819 1d3f 1e82 86be
00000370: f151 debe 9e6d c53d ea4a 923f a943 9d3f
00000380: 907d a93e 60d4 793f a257 5b3f bc17 133e
00000390: beb5 37bf b4df b4be 0a08 1dbf 1f74 0c3f
000003a0: 75db d33e c2c1 1b3f fa69 4cbe 251d 9c3d
000003b0: 2fc1 613e 49e6 d73e c8f1 15c0 c2c8 713e
000003c0: c21c 39bd 7a3e c13f b3b9 ea3f 6e95 a9bf
000003d0: b04f a73f 9ede 6fbe f0bf 5cbf b60c ae3d
000003e0: cc6a b3bf d00e 823e bff5 a23d 0269 263f
000003f0: 4626 213f c686 e53f 89c9 d2bf 70d7 34bf

rgb_pe f4 [1, 49, 32]
0.6361309 -0.54861 -1.5429288 -1.0736237 0.94809496 -0.37469512 -1.080064 -0.44874066
0.16290548 -0.58339614 0.6360174 -1.8930061 -1.0284255 1.0518361 -0.05693046 -0.44117844
1.3835716 -0.39280012 1.2032164 0.28697187 -0.9459208 -1.5346565 -1.0054592 0.3420461
-0.6148598 0.15230623 1.1466099 0.95095813 -0.14434648 -0.2062762 -0.596161 0.0031645072
1.3969517 0.2890072 -0.15450907 0.4966597 -1.2676772 0.7717184 0.7964821 -0.044482797
-0.8838019 0.35014528 -0.015109267 -0.8167602 -1.5602329 2.0355983 0.19494453 -1.0926604
1.4730471 -0.49057665 0.8084521 1.2337238 -0.2564455 0.8189462 -0.37339363 -0.7752662
0.46721438 0.78844213 0.7421822 0.5159922 0.8839856 -0.08278166 -1.3281314 -0.50658864
0.10619882 0.6271738 -1.0849328 -0.8967914 -0.53556347 1.5745254 -1.0462213 0.47976714
1.5257729 -1.0089539 2.326481 0.47635192 -0.23963116 0.18231882 0.437104 -0.24990594
-0.687855 -0.183455 -0.34468678 -1.3040192 -1.34188 -0.0526382 -1.1686229 -0.76606977
1.008918 0.064166166 1.7387795 0.8645743 -0.3856284 1.4456878 1.1936544 -0.28502473
-0.011317995 -0.03198763 -0.021675881 -0.11305161 0.5213911 1.543285 -0.9730378 0.8518153
-0.5705818 -0.17128679 -0.4975747 -0.24822628 0.24276316 0.82902616 -0.87573683 0.531393
0.84241796 0.55046886 1.0584952 -0.6716031 2.07754 0.29060146 0.25816163 -1.5594232
-0.06785345 -1.8710481 -0.011522902 -0.5824756 -1.201291 -0.74042237 1.783624 -0.39183772
1.0815345 -0.97606206 1.1649363 0.3284704 -1.4128828 0.027067285 0.28967723 -0.1617727
-0.13781182 -0.30351812 1.904351 -2.6050177 1.3117446 -0.10286893 0.6346531 -0.73576134
0.25228453 -0.2653981 -0.11314841 0.3861252 1.3062094 -0.14609857 0.41045207 1.4984072
0.638256 -1.2038286 -0.115449354 0.26205286 -1.8699274 0.44581556 -0.17259295 -0.22923978
-1.4047185 -0.43208507 1.0309116 0.42466605 -0.4763231 -0.34619817 0.026025688 -0.5976469
-0.7129595 0.06745405 0.66984355 1.3238044 0.24018174 0.73774284 0.85145384 1.5601318
-1.6243194 0.6120779 0.20807242 0.48648492 -0.98863524 -0.95577455 1.2156482 0.84688294
0.23175876 -0.35086763 0.43129608 -0.11719623 -0.112261355 0.42228368 -0.56333536 0.20283833
-0.19296977 -0.5267868 -2.6924014 0.96167225 0.55752635 1.0279182 0.96664655 0.5199635
0.2900593 -0.40955213 0.34584466 -0.23438549 -0.6967093 0.1939952 -0.37981743 -0.23988596
-0.12936962 0.0052160546 1.5651484 -0.5801767 -0.4856516 0.317086 1.1443677 -0.55700314
-0.29926303 -0.27084583 1.0447707 1.0432569 -0.67530745 -0.036392357 0.28115574 -0.36828148
-1.0521743 -0.48043177 -0.22726916 0.79256225 -0.0428425 -0.17378002 -1.095821 -0.22951522
-0.3382541 1.0651335 0.24935359 1.1750485 1.2436256 0.8629124 0.8427896 0.37861747
-0.6932399 0.7553758 -1.143199 0.5558706 -0.2916118 0.32514983 -0.7986579 0.7218149
1.8064117 -0.33580643 1.7307109 1.7387757 1.8725456 -1.1340208 1.9405221 0.39810008
00000000: 7ad9 223f b471 0cbf b17e c5bf 806c 89bf
00000010: 5ab6 723f 0ad8 bfbe 8a3f 8abf 56c1 e5be
00000020: b2d0 263e 7359 15bf 09d2 223f 064e f2bf
00000030: 72a3 83bf 91a2 863f ea2f 69bd 24e2 e1be
00000040: e018 b13f 191d c9be ff02 9a3f faed 923e
00000050: de27 72bf a06f c4bf e3b2 80bf ab20 af3e
00000060: 7467 1dbf 2af6 1b3e 1dc4 923f fe71 733f
00000070: 90cf 13be 113a 53be 029e 18bf 9f63 4f3b
00000080: 50cf b23f c0f8 933e a037 1ebe 2e4a fe3e
00000090: 3f43 a2bf 568f 453f 40e6 4b3f 9833 36bd
000000a0: d740 62bf 3e46 b33e dc8c 77bc 3217 51bf
000000b0: b6b5 c7bf 3e47 0240 8a9f 473e 4cdc 8bbf
000000c0: cf8c bc3f dd2c fbbe b8f6 4e3f a9ea 9d3f
000000d0: d34c 83be 75a6 513f 732d bfbe d877 46bf
000000e0: b936 ef3e 58d7 493f a7ff 3d3f 1118 043f
000000f0: e14c 623f 6e89 a9bd 3600 aabf cbaf 01bf
00000100: c47e d93d 768e 203f 14df 8abf 1f94 65bf
00000110: b01a 09bf 0c8a c93f 94ea 85bf 0aa4 f53e
00000120: 874c c33f 6725 81bf 11e5 1440 66e4 f33e
00000130: df61 75be c9b1 3a3e 18cc df3e 58e7 7fbe
00000140: 4417 30bf a1db 3bbe c97a b0be 1aea a6bf
00000150: b9c2 abbf 279b 57bd 6f95 95bf 261d 44bf
00000160: 3a24 813f 8d69 833d 5490 de3f be54 5d3f
00000170: 1671 c5be 4c0c b93f abc9 983f c3ee 91be
00000180: 1d6f 39bc 7605 03bd 9e91 b1bc 9a87 e7bd
00000190: e379 053f 5d8a c53f 0119 79bf 9110 5a3f
000001a0: a611 12bf ce65 2fbe 1cc2 febe 082f 7ebe
000001b0: e896 783e 0f3b 543f 4a30 60bf 5f09 083f
000001c0: b4a8 573f 87eb 0c3f c57c 873f 2eee 2bbf
000001d0: 6af6 0440 b7c9 943e c32d 843e 2e9b c7bf
000001e0: c0f6 8abd 817e efbf 8eca 3cbc 1f1d 15bf
000001f0: e7c3 99bf 528c 3dbf cb4d e43f f49e c8be
00000200: b96f 8a3f 34df 79bf a21c 953f 462d a83e
00000210: 58d9 b4bf 36bc dd3c 9350 943e bea7 25be
00000220: 8b1e 0dbe ba66 9bbe c6c1 f33f 9cb8 26c0
00000230: 3fe7 a73f f2ac d2bd a078 223f db5a 3cbf
00000240: 702b 813e 42e2 87be 5bba e7bd 34b2 c53e
00000250: df31 a73f dd9a 15be c626 d23e cfcb bf3f
00000260: bf64 233f 0e17 9abf b670 ecbd cb2b 863e
00000270: c859 efbf f041 e43e 35bc 30be d5bd 6abe
00000280: d1cd b3bf 413a ddbe e9f4 833f d46d d93e
00000290: 9fe0 f3be e340 b1be d333 d53c 63ff 18bf
000002a0: 8484 36bf 5925 8a3d de7a 2b3f 6c72 a93f
000002b0: 34f2 753e b7dc 3c3f e1f8 593f 66b2 c73f
000002c0: b3e9 cfbf 23b1 1c3f f010 553e 8d14 f93e
000002d0: 3317 7dbf a4ad 74bf 5c9a 9b3f 52cd 583f
000002e0: 2b52 6d3e eca4 b3be d7d2 dc3e 9404 f0bd
000002f0: 48e9 e5bd 9135 d83e bf36 10bf dab4 4f3e
00000300: de99 45be 80db 06bf 4e50 2cc0 2730 763f
00000310: 0cba 0e3f d392 833f 2676 773f 541c 053f
00000320: a782 943e d1b0 d1be 8d12 b13e c002 70be
00000330: 8a5b 32bf ada6 463e 6e77 c2be aaa4 75be
00000340: 7879 04be 70eb aa3b c856 c83f 7686 14bf
00000350: 54a7 f8be 1959 a23e a47a 923f c297 0ebf
00000360: 0139 99be 4eac 8abe 0cbb 853f 7189 853f
00000370: f3e0 2cbf 2710 15bd a5f3 8f3e 648f bcbe
00000380: a6ad 86bf 27fb f5be 3fb9 68be 5ce5 4a3f
00000390: 9e7b 2fbd 64f3 31be dd43 8cbf 0a06 6bbe
000003a0: a42f adbe 4b56 883f 8c56 7f3e fd67 963f
000003b0: 202f 9f3f d4e7 5c3f 0fc1 573f 26da c13e
000003c0: 2c78 31bf 4f60 413f 5854 92bf 894d 0e3f
000003d0: 244e 95be 0a7a a63e d874 4cbf dcc8 383f
000003e0: 8038 e73f d2ee abbe ef87 dd3f 3490 de3f
000003f0: 93af ef3f 9827 91bf 0763 f83f c6d3 cb3e

weight f4 [32, 3, 9]
-0.044135917 -0.071920276 0.056312025 0.03588875 0.013396518 0.00097053667 -0.117985986 -0.28269118
-0.20320693 0.11975663 0.23943792 0.2789175 0.37828475 0.4309508 0.35470885 0.16874325
0.25923046 0.017987525 -0.13713081 -0.27040178 -0.33873 -0.08602567 -0.031651985 -0.13822268
-0.11417764 -0.30994844 -0.15681893 0.016049664 0.15101303 0.10051748 0.16771825 -0.0075335475
-0.110873066 0.66593856 -0.018745428 0.16566825 0.04453193 0.14827089 0.20294994 0.3069568
0.11387981 -0.18753657 0.15168189 0.0031705934 -0.14130142 -0.4812285 -0.37090403 -0.58295834
0.12246667 0.054644983 -0.19685021 0.36795747 0.2391234 0.13815756 -0.212673 0.10410976
0.17825934 -0.2904977 -0.075121455 0.4179923 -0.007571277 0.021514254 0.036721043 0.11578407
0.25629914 0.26227745 -0.24261211 -0.1882456 0.39871204 0.01640134 -0.050043702 -0.0095462315
0.1345439 -0.34650695 -0.9676915 0.24351883 0.37905502 -1.2177569 0.38768035 0.1700091
0.10117045 0.0067001195 -0.2759061 -0.10589667 0.49600333 -0.05712059 0.039719258 0.30988857
0.16756336 0.13708086 0.09807695 0.18532076 0.16843656 0.20509651 0.3029486 -0.057355277
-0.261605 0.07680608 0.079748414 -0.32690343 -0.43521267 -0.4383762 0.37209842 -0.4075427
0.15812725 0.16201076 0.11948093 0.23621736 0.005902474 -0.03022483 -0.29247814 -0.5391833
-0.11511577 -0.063708544 -0.01891002 0.027925745 0.068285756 -0.159538 -0.076716796 -0.021942232
-0.04701363 -0.07073336 -0.14056252 -0.22456405 -0.0071525234 0.02108781 0.31515953 0.123040825
0.023377893 -0.024921658 -0.15462203 -0.084856875 0.1376165 -0.16009596 -0.10471993 -0.041823063
0.07643107 0.14316331 -0.18761346 -0.29982796 0.1152396 0.24137549 0.19663255 -0.15876396
-0.012177162 0.006842684 0.26272613 0.0026052042 -0.16511351 0.057327084 0.16801727 0.15910433
-0.20443271 0.10696185 -0.06197189 -0.7388537 -0.19963995 0.3805993 -0.42307562 -0.34429267
-0.38014355 0.9075872 -0.21698979 -0.27670228 -0.3510689 -0.008462092 -0.003346218 0.06931189
-0.02984806 -0.0034734993 -0.010230086 0.037681043 0.042039283 0.036172897 -0.16024128 -0.09978724
0.016868925 0.023812601 0.04577456 0.05681711 -0.021364687 -0.1808722 -0.35373366 0.34955338
0.23160851 -0.034466457 -0.16210106 -0.022123437 -0.049575467 0.025209056 0.0710018 -0.13589685
-0.3009031 -0.33064842 0.37129295 0.26761955 0.18976453 -0.12715895 -0.013439788 0.2301099
0.14650992 0.002688323 -0.16999683 0.05120405 0.020881431 0.22668822 -0.20044766 -0.10252164
-0.38406375 -0.16233213 0.25031537 0.3983436 -0.67097837 -0.47696307 -0.49156815 0.6619093
-0.08863244 0.33000126 0.103188775 0.17252277 0.43977532 0.05175567 0.281855 0.10886779
-0.059416894 -0.06171536 -0.10039054 -0.075781874 0.06683261 0.04001395 -0.18668392 -0.061652653
-0.21323478 0.2754401 -0.04125169 0.58703095 0.5716892 0.6955037 0.79945594 0.3717461
0.6329904 0.25797844 0.029408243 -0.037693933 -0.097819895 0.016791338 -0.034024414 0.012673623
0.035259236 -0.06638716 -0.022357648 0.05004841 0.011123978 -0.014243258 -0.05808239 -0.13153501
00000000: ddc7 34bd f04a 93bd 70a7 663d 1500 133d
00000010: 127d 5b3c 9d6b 7e3a a3a2 f1bd e6bc 90be
00000020: 7a15 50be f742 f53d 372f 753e 46ce 8e3e
00000030: 8aae c13e 95a5 dc3e 669c b53e 08cb 2c3e
00000040: dbb9 843e 935a 933c 056c 0cbe 1a72 8abe
00000050: 056e adbe 3a2e b0bd 83a5 01bd 3f8a 0dbe
00000060: f7d5 e9bd 90b1 9ebe 2495 20be 967a 833c
00000070: 29a3 1a3e 1cdc cd3d 55be 2b3e fadb f6bb
00000080: 6b11 e3bd f37a 2a3f 0390 99bc f0a4 293e
00000090: 1d67 363d 53d4 173e 1cd2 4f3e 7129 9d3e
000000a0: d139 e93d 9609 40be 7f52 1b3e bbc9 4f3b
000000b0: 52b1 10be 9563 f6be 22e7 bdbe c23c 15bf
000000c0: cecf fa3d 6bd3 5f3d 1a93 49be ec64 bc3e
000000d0: c4dc 743e 2d79 0d3e f3c6 59be 7f37 d53d
000000e0: 9e89 363e 1dbc 94be 47d9 99bd 1603 d63e
000000f0: 7a18 f8bb a93e b03c ce68 163d 3320 ed3d
00000100: a439 833e 3b49 863e 4f6f 78be 74c3 40be
00000110: fc23 cc3e 1a5c 863c a0fa 4cbd cc67 1cbc
00000120: e0c5 093e 5c69 b1be a1ba 77bf 005d 793e
00000130: 8013 c23e 75df 9bbf 0a7e c63e de16 2e3e
00000140: 7432 cf3d ad8c db3b 9043 8dbe 5ae0 d8bd
00000150: 26f4 fd3e 48f7 69bd a9b0 223d b7a9 9e3e
00000160: bb95 2b3e ed5e 0c3e 91dc c83d bac4 3d3e
00000170: a27a 2c3e d204 523e 141c 9b3e 5eed 6abd
00000180: 17f1 85be 824c 9d3d 2353 a33d e35f a7be
00000190: 32d4 debe d872 e0be af83 be3e 70a9 d0be
000001a0: 1cec 213e 26e6 253e 6bb2 f43d f7e2 713e
000001b0: 8a69 c13b 109a f7bc b2bf 95be eb07 0abf
000001c0: d1c1 ebbd a079 82bd 30e9 9abc 88c4 e43c
000001d0: 67d9 8b3d ee5d 23be b21d 9dbd 32c0 b3bc
000001e0: 5d91 40bd a7dc 90bd 9fef 0fbe 1ef4 65be
000001f0: b75f eabb 58c0 ac3c 975c a13e d4fc fb3d
00000200: ff82 bf3c 8128 ccbc 3d55 1ebe 71c9 adbd
00000210: 57eb 0c3e 32f0 23be 6777 d6bd a94e 2bbd
00000220: e587 9c3d 6799 123e be1d 40be 0d83 99be
00000230: bd02 ec3d 232b 773e 0b5a 493e 0593 22be
00000240: b882 47bc 9838 e03b 0a84 863e 13bc 2a3b
00000250: 8413 29be cecf 6a3d b80c 2c3e 3fec 223e
00000260: cf56 51be d00e db3d 3dd6 7dbd 8425 3dbf
00000270: 6a6e 4cbe e9dd c23e 5e9d d8be 2147 b0be
00000280: 2da2 c2be a257 683f 9232 5ebe ecab 8dbe
00000290: 4ebf b3be 96a4 0abc 394c 5bbb 64f3 8d3d
000002a0: eb83 f4bc a6a3 63bb 179c 27bc 7057 1a3d
000002b0: 6231 2c3d 082a 143d 4a16 24be 415d ccbd
000002c0: b330 8a3c a512 c33c 1b7e 3b3d 0fb9 683d
000002d0: ff04 afbc 9036 39be 941c b5be a9f8 b23e
000002e0: c82a 6d3e b32c 0dbd d2fd 25be 363c b5bc
000002f0: a50f 4bbd 3983 ce3c 6469 913d 8b28 0bbe
00000300: f90f 9abe c04a a9be 1c1a be3e 6e05 893e
00000310: a251 423e f535 02be 8e32 5cbc eea1 6b3e
00000320: b206 163e 932e 303b a613 2ebe 57bb 513d
00000330: 890f ab3c f520 683e 2742 4dbe def6 d1bd
00000340: 01a4 c4be 653a 26be 5629 803e b1f3 cb3e
00000350: 3dc5 2bbf 8134 f4be d2ae fbbe e372 293f
00000360: ed84 b5bd edf5 a83e a354 d33d cfa9 303e
00000370: 3b2a e13e c1fd 533d 4c4f 903e 13f6 de3d
00000380: 215f 73bd 3fc9 7cbd 8e99 cdbd 8733 9bbd
00000390: 89df 883d abe5 233d 122a 3fbe 7e87 7cbd
000003a0: 385a 5abe 7c06 8d3e 88f7 28bd a947 163f
000003b0: 395a 123f 880c 323f 25a9 4c3f 8155 be3e
000003c0: a90b 223f c015 843e 8ee9 f03c f464 1abd
000003d0: cc55 c8bd fd8d 893c 2f5d 0bbd 07a5 4f3c
000003e0: fd6b 103d fef5 87bd 6327 b7bc 90ff 4c3d
000003f0: 5841 363c 8e5c 69bc cde7 6dbd 1db1 06be

bias f4 [32]
-0.12644431 -0.0065004723 -0.14521794 -0.011928101 -0.22767954 -0.12156641 -0.010056376 -0.17932397
-0.4043459 -0.37859818 -0.20616254 -0.3026551 -0.0007400941 -0.29577556 -0.24844614 -0.35958448
-0.006891108 -0.21850994 -0.8166464 -0.17017518 -0.15791619 -0.18982948 -0.19673847 -0.21295063
-0.2027671 -0.3522875 -0.3079299 -0.24240032 -0.008581945 -0.21241619 -0.13636018 -0.7491746
00000000: 9e7a 01be ea01 d5bb 03b4 14be 156e 43bc
00000010: d324 69be cff7 f8bd 80c3 24bc b4a0 37be
00000020: 6d06 cfbe 9fd7 c1be 461c 53be 9cf5 9abe
00000030: e002 42ba e56f 97be aa68 7ebe 751b b8be
00000040: cece e1bb 12c1 5fbe bd0f 51bf 6742 2ebe
00000050: c8b4 21be a962 42be cf75 49be bb0f 5abe
00000060: 2ea2 4fbe 075f b4be fda8 9dbe ca37 78be
00000070: 499b 0cbc a183 59be 01a2 0bbe e8c9 3fbf

weight f4 [32, 32, 9]
-0.16369325 0.15921882 0.22797094 -0.09935649 -0.3945457 -0.6591679 -0.5753343 0.16654089
0.17410135 -0.068238236 -0.08439579 -0.019862339 0.13620888 0.0851856 -0.016353045 -0.1242049
-0.07707364 -0.03489698 -0.066874474 -0.3092806 -0.2701717 0.008582452 0.074383155 0.033706546
-0.09411026 0.06568464 -0.007756267 -0.1192641 -0.23332411 -0.20550512 -0.15623118 -0.08787516
-0.040080387 0.08385294 0.087411925 0.031517167 -0.18774918 0.19358625 -0.19314118 -0.5440465
-0.25556123 0.12961991 0.092188634 -0.05023497 -0.11995287 -0.05741969 -0.056040034 0.118349284
0.07981568 0.06936093 0.011517077 0.106503196 -0.28246048 -0.18667991 -0.12278028 -0.026345847
-0.045363758 -0.07998075 -0.2977806 -0.2698892 0.07423662 0.13029733 0.21176937 -0.32400557
-0.1895544 0.014872051 0.2589707 0.23076993 0.09262898 0.01614784 -0.30589297 -0.47407386
-0.37190402 -0.22475575 -0.29293248 -0.273027 -0.48251706 -0.91024894 -0.7658203 -0.07864856
0.04195297 -0.11329265 -0.22547477 -0.4053994 -0.56702566 -0.6472106 -0.8757075 -0.8013298
-0.4176972 0.30306152 0.0626619 -0.0035596096 -0.3015137 -1.0657953 -1.0250995 -0.49104577
-0.56049794 -0.23919713 0.0997558 0.11337188 -0.10300479 -0.62880176 -0.4652689 -0.12413311
-0.3214647 0.26171532 0.37591654 -0.3508233 0.03575142 0.050687052 -0.006821733 -0.091480665
-0.0077841585 0.009959419 0.024258057 -0.004843984 0.05168203 -0.038349733 0.18912129 0.02129031
-0.15601435 -0.0057100095 -0.4390056 -0.48397985 0.013997756 0.00696754 0.06461817 -0.080058426
-0.15030767 -0.06940162 -0.048595298 -0.21625476 -0.42946184 -0.040617462 -0.00819203 -0.06750385
-0.100824885 -0.77873904 -0.802615 -0.4138502 -0.13230981 -0.16000398 -0.051653046 0.065211445
0.030180903 0.010766226 -0.020346941 0.02606179 0.03178305 -0.048260238 -0.106546015 -0.11798282
-0.0309243 -0.04083906 -0.20138639 -0.05571941 0.20276068 0.137785 -0.113585144 -0.31862023
-0.0034206545 0.14607501 0.086385585 -0.11962933 -1.041623 -0.7631557 -0.5007945 -0.4130405
-0.34391215 -0.07632696 -0.32473013 -0.10161001 0.0407612 0.12874217 0.14257208 -0.26157928
-0.08737006 -0.3302995 -0.15255846 -0.2309005 -0.036268957 -0.14423165 -0.40854612 -0.29517892
-0.5425937 -0.6813991 -0.5624797 0.020020034 0.13241212 -0.16498628 -0.12401927 0.13916038
0.18202372 0.27025408 -0.08843664 -0.37040994 -0.11048489 -0.071925595 0.14559379 0.12751074
0.076247595 -0.30233762 -0.20949809 -0.3400127 -0.059031624 -0.26647177 -0.38833323 -0.24754038
0.055817403 0.10658063 0.2463408 -0.071198374 -0.63586026 -0.60800457 -0.22094053 -0.19379929
-0.47871673 -0.32755166 -0.16111487 -0.10576839 0.06817486 0.1204457 0.13590825 0.02471001
-0.3585638 0.037143506 0.27343747 -0.2635639 -0.47856045 -0.68669695 -0.9621408 0.041217685
-0.14624402 -0.118956864 -0.16280046 -0.16598381 -0.12866978 -0.47152615 -0.4101818 -0.2733163
0.037609372 0.22855878 0.060185928 -0.43929413 -0.04173711 -0.36806056 -0.5306875 -0.38905308
-0.7879658 -0.50071424 -0.72483903 -0.215978 0.041522194 -0.036882706 -0.03195737 -0.072927766
00000000: 349f 27be 420a 233e 3771 693e 6a7b cbbd
00000010: e501 cabe 3abf 28bf 1c49 13bf b289 2a3e
00000020: a047 323e 7dc0 8bbd b3d7 acbd 58b6 a2bc
00000030: 577a 0b3e ca75 ae3d d2f6 85bc 235f febd
00000040: c9d8 9dbd 23f0 0ebd 7cf5 88bd 075a 9ebe
00000050: f253 8abe 6a9d 0c3c 3256 983d e00f 0a3d
00000060: e1bc c0bd ab85 863d 4928 febb bd40 f4bd
00000070: 84ec 6ebe ef6f 52be 11fb 1fbe e4f7 b3bd
00000080: 552b 24bd 17bb ab3d 0605 b33d 2518 013d
00000090: 5241 40be 793b 463e cdc6 45be a246 0bbf
000000a0: ecd8 82be 15bb 043e 65cd bc3d 2fc3 4dbd
000000b0: daa9 f5bd e930 6bbd 3c8a 65bd 1c61 f23d
000000c0: 6776 a33d 1a0d 8e3d 1fb2 3c3c 591e da3d
000000d0: a99e 90be 0529 3fbe 3a74 fbbd 3fd3 d7bc
000000e0: 59cf 39bd f3cc a3bd b376 98be eb2e 8abe
000000f0: 5e09 983d aa6c 053e 12da 583e 0fe4 a5be
00000100: 8c1a 42be e7a9 733c cf97 843e f44e 6c3e
00000110: 43b4 bd3d 7a48 843c 019e 9cbe cfb9 f2be
00000120: 346a bebe 5f26 66be 3ffb 95be 32ca 8bbe
00000130: 7a0c f7be 1306 69bf cd0c 44bf 7f12 a1bd
00000140: e1d6 2b3d fa05 e8bd dce2 66be 8390 cfbe
00000150: 9828 11bf 98af 25bf 5e2e 60bf f323 4dbf
00000160: 68dc d5be e12a 9b3e e254 803d 5748 69bb
00000170: 0160 9abe fb6b 88bf 7636 83bf 5a6a fbbe
00000180: cb7c 0fbf 18f0 74be c54c cc3d 842f e83d
00000190: 2df4 d2bd 27f9 20bf ba37 eebe 8039 febd
000001a0: 0597 a4be 8dff 853e 2278 c03e 1d9f b3be
000001b0: 1570 123d 3a9d 4f3d d888 dfbb 375a bbbd
000001c0: 4112 ffbb d52c 233c d5b8 c63c 48ba 9ebb
000001d0: 89b0 533d 9c14 1dbd 03a9 413e 0469 ae3c
000001e0: 3ac2 1fbe 081b bbbb 58c5 e0be 35cc f7be
000001f0: d856 653c f64f e43b 8856 843d acf5 a3bd
00000200: 41ea 19be 7022 8ebd dd0b 47bd e371 5dbe
00000210: 6ce2 dbbe 7f5e 26bd dd37 06bc 753f 8abd
00000220: 477d cebd 715b 47bf 2d78 4dbf 2ce4 d3be
00000230: 397c 07be 15d8 23be 2592 53bd 948d 853d
00000240: f13d f73c d364 303c a1ae a6bc 897f d53c
00000250: f22e 023d 87ac 45bd cc34 dabd faa0 f1bd
00000260: f554 fdbc dc46 27bd 3c38 4ebe 093a 64bd
00000270: 7fa0 4f3e 8317 0d3e 549f e8bd 3122 a3be
00000280: 0f2d 60bb b094 153e edea b03d 3900 f5bd
00000290: e753 85bf 2c5e 43bf 1134 00bf 0b7a d3be
000002a0: 4115 b0be 4f51 9cbd 0743 a6be e918 d0bd
000002b0: 37f5 263d fdd4 033e 6afe 113e b8ed 85be
000002c0: 13ef b2bd 041d a9be 4938 1cbe 2e71 6cbe
000002d0: c28e 14bd 76b1 13be f52c d1be b121 97be
000002e0: 6ce7 0abf 2c70 2ebf abfe 0fbf 0e01 a43c
000002f0: 0b97 073e 2af2 28be d1fd fdbd 0f80 0e3e
00000300: 6d64 3a3e be5e 8a3e 451e b5bd 5fa6 bdbe
00000310: e745 e2bd ba4d 93bd 8a16 153e 2d92 023e
00000320: b327 9c3d ffcb 9abe ab86 56be 2516 aebe
00000330: 25cb 71bd fd6e 88be 9dd3 c6be 3a7b 7dbe
00000340: caa0 643d f246 da3d c340 7c3e 74d0 91bd
00000350: bdc7 22bf 30a6 1bbf 3c3e 62be 5273 46be
00000360: 5c1a f5be dab4 a7be 4cfb 24be 199d d8bd
00000370: 439f 8b3d 3cac f63d 882b 0b3e a66c ca3c
00000380: ad95 b7be ca23 183d ffff 8b3e d9f1 86be
00000390: e005 f5be 5fcb 2fbf dc4e 76bf e0d3 283d
000003a0: fec0 15be a89f f3bd 2ab5 26be a9f7 29be
000003b0: 03c2 03be e06b f1be 5903 d2be 1df0 8bbe
000003c0: 490c 1a3d 500b 6a3e 8585 763d 29eb e0be
000003d0: 88f4 2abd 6f72 bcbe 23db 07bf f731 c7be
000003e0: 20b8 49bf cf2e 00bf 0d8f 39bf 5629 5dbe
000003f0: 2d13 2a3d 5212 17bd bbe5 02bd 275b 95bd

bias f4 [32]
-0.06785789 -0.5261534 0.046572912 -0.069873765 -0.0018752469 -0.006597721 -0.085869886 -0.977866
-0.09286279 -0.092465825 -0.87699443 0.013998507 -0.005382067 -0.8662683 -0.09858557 -0.005770892
-0.6504715 0.049850427 0.022205299 -0.15746297 -0.09507275 0.07954067 0.09242321 -0.8588439
0.030399915 -0.74926966 -0.76547086 -1.0847378 -0.003226789 0.003920202 -0.05843126 -0.4908889
00000000: 14f9 8abd fdb1 06bf 3dc3 3e3d fa19 8fbd
00000010: d8ca f5ba b231 d8bb 8ddc afbd 6d55 7abf
00000020: d92e bebd b95e bdbd b582 60bf fe59 653c
00000030: 0d5c b0bb c2c3 5dbf 3be7 c9bd c019 bdbb
00000040: 4d85 26bf f62f 4c3d e3e7 b53c f93d 21be
00000050: 80b5 c2bd 38e6 a23d 6148 bd3d 32dd 5bbf
00000060: 3e09 f93c 23d0 3fbf e6f5 43bf b0d8 8abf
00000070: 8978 53bb 0a75 803b 9e55 6fbd ca55 fbbe

weight f4 [32, 32, 9]
-0.56462044 -0.8963469 -0.7131389 -0.55302995 -0.5877722 -0.4583557 -0.12956108 -0.25319633
-0.03703643 0.048893806 0.102216564 0.1375954 0.20516178 0.4599991 0.22854513 0.07567751
-0.18113065 -0.44894546 -0.075353354 -0.054360185 -0.17878118 -0.07092331 0.1186236 0.14694844
0.017219394 -0.06811633 -0.19186075 -0.15673813 -0.054146536 -0.23291208 -0.36310917 -0.58505267
-0.48924282 -0.47032836 -0.06607641 0.08352563 0.16744949 0.2898118 0.26858708 0.3379772
0.34102643 0.27002558 0.110666916 0.030705875 0.027503125 0.13191013 0.20481445 0.34282508
0.45783305 0.7353527 0.609428 0.4781689 0.36030948 0.49968618 -0.03017253 0.22903915
0.45176864 0.52736056 0.34180307 0.23255995 0.16704279 0.14269768 0.0053671193 0.018112564
0.00011912397 -0.009719303 -0.0393306 0.00085849303 -0.0020445203 0.0033154276 0.014747563 0.087213986
-0.08906255 -0.59518105 -0.82080543 -0.69143 -0.45008844 -0.22512503 -0.32368764 -0.3135413
-0.2372284 -0.16432464 0.19574617 -0.35797238 -0.45279875 -0.45733374 -0.39946467 -0.20797132
-0.17116134 -0.10596932 -0.27984563 -0.11112219 -0.018058239 0.0754273 0.23301819 0.11628555
-0.0022303886 0.045746017 0.048299804 -0.053766586 -0.16629861 -0.18671846 -0.15410973 -0.14970624
-0.0070487172 0.13702258 0.13570091 0.18900456 0.058468692 0.008086822 -0.051783103 -0.12820347
-0.14722286 -0.116842315 -0.029354766 0.020800885 0.03479142 0.06722137 0.0033874984 0.084256746
0.23658739 0.25168467 0.22801648 0.11053247 -0.12770088 -0.19560866 0.045863308 0.31330758
0.4272267 0.51461995 0.5378358 0.5820843 0.5174138 0.43838537 0.16957417 -0.11570522
0.07263695 0.22911179 0.3341944 0.5870402 0.5787174 0.4748846 0.15783896 -0.21324897
-0.033889942 0.06998215 -0.13441324 -0.04272757 -0.20767547 -0.15333544 -0.04075151 0.008261546
-0.009835662 0.42002386 0.37302488 0.33040673 0.37161693 0.41728956 0.37683234 0.33742106
0.3321758 0.3087998 0.15051554 -0.021237183 -0.12999915 -0.1624735 -0.19365023 -0.13492087
-0.13442186 -0.0107627725 0.09075549 0.18388727 0.2864416 0.34641978 0.3647344 0.33311754
0.07357215 -0.08936013 -0.044903442 -0.097263 0.07735552 -0.47292992 -0.37119475 -0.5375638
-0.29815406 -0.07475732 -0.11676493 -0.16575673 0.10728432 -0.46924397 -0.22335804 -0.09760999
0.1750831 0.3268611 0.38391235 0.11632455 -0.10520579 -0.12677847 -0.28773084 -0.18217155
-0.058961105 0.06577686 0.18692209 0.1898523 0.12665258 -0.06735897 -0.10492324 -0.16931455
-0.06293525 0.0069766436 0.15127301 0.2813528 0.2859992 0.25383538 0.057853878 0.052102473
0.07652025 -0.014465464 -0.058634993 -0.12006833 -0.09819769 -0.07100429 -0.051407866 0.031255767
0.08698854 -0.0030249497 -0.0024557898 -0.054897394 0.012795876 0.0024692062 0.04402304 0.04225284
0.0020147809 -0.061814025 -0.020073555 0.050705403 -0.012499812 -0.12943342 -0.02134586 0.10413717
0.06480789 0.065913245 -0.0060739806 0.016418498 -0.0282822 0.00045832302 0.021979034 0.07637063
0.02493261 -0.008188165 -0.024375198 -0.06464114 0.14097719 0.22853301 0.3049227 0.6188527
00000000: f78a 10bf fe76 65bf 4590 36bf 5f93 0dbf
00000010: 3d78 16bf 99ad eabe a9ab 04be f3a2 81be
00000020: 83b3 17bd df44 483d eb56 d13d cfe5 0c3e
00000030: ee15 523e 0185 eb3e bc07 6a3e cffc 9a3d
00000040: 507a 39be 2edc e5be dc52 9abd c9a8 5ebd
00000050: 6a12 37be 3e40 91bd eef0 f23d a779 163e
00000060: b00f 8d3c 9380 8bbd 2577 44be f67f 20be
00000070: c2c8 5dbd 8180 6ebe 72e9 b9be 03c6 15bf
00000080: 097e fabe e1ce f0be 1253 87bd 7c0f ab3d
00000090: e177 2b3e 3662 943e 3f84 893e 590b ad3e
000000a0: 049b ae3e cb40 8a3e 56a5 e23d e38a fb3c
000000b0: 3c4e e13c 7313 073e e1ba 513e c586 af3e
000000c0: 1869 ea3e 1340 3c3f 7903 1c3f 8ed2 f43e
000000d0: 7c7a b83e ded6 ff3e 622c f7bc 3d89 6a3e
000000e0: 384e e73e 1a01 073f d000 af3e 3224 6e3e
000000f0: 440d 2b3e 571f 123e a9de af3b cd60 943c
00000100: 32d2 f938 b63d 1fbc 2019 21bd 7e0c 613a
00000110: 5cfd 05bb a547 593b c39f 713c 3f9d b23d
00000120: 6d66 b6bd c95d 18bf 4e20 52bf 8e01 31bf
00000130: fe71 e6be 2d87 66be 63ba a5be 7c88 a0be
00000140: 00ec 72be b844 28be af71 483e 2848 b7be
00000150: 3dd5 e7be a627 eabe a286 ccbe 6ff6 54be
00000160: eb44 2fbe 7106 d9bd ed47 8fbe 0894 e3bd
00000170: dfee 93bc a179 9a3d 529c 6e3e 1e27 ee3d
00000180: b62b 12bb 2d60 3b3d 04d6 453d 5a3a 5cbd
00000190: 2f4a 2abe 2033 3fbe f1ce 1dbe 984c 19be
000001a0: edf8 e6bb a64f 0c3e 2ef5 0a3e 698a 413e
000001b0: de7c 6f3d 977e 043c 851a 54bd c547 03be
000001c0: 97c1 16be 064b efbd 6879 f0bc 9e66 aa3c
000001d0: 7381 0e3d 5cab 893d cb00 5e3b cd8e ac3d
000001e0: f743 723e d0dc 803e 277d 693e d95e e23d
000001f0: 05c4 02be a34d 48be 2adb 3b3d da69 a03e
00000200: 75bd da3e 22be 033f 9baf 093f 7a03 153f
00000210: 3b75 043f 0c74 e03e daa4 2d3e dcf6 ecbd
00000220: aec2 943d 489c 6a3e 871b ab3e 4448 163f
00000230: d326 143f 1324 f33e 89a0 213e f05d 5abe
00000240: 2ed0 0abd cd52 8f3d a0a3 09be 1b03 2fbd
00000250: e1a8 54be f703 1dbe 0eeb 26bd 6f5b 073c
00000260: c225 21bc 5e0d d73e 1efd be3e 122b a93e
00000270: 9344 be3e faa6 d53e 2bf0 c03e 74c2 ac3e
00000280: f212 aa3e 021b 9e3e bf20 1a3e 9af9 adbc
00000290: 7f1e 05be 745f 26be 3f4c 46be b228 0abe
000002a0: e2a5 09be 5756 30bc 04de b93d f24c 3c3e
000002b0: 79a8 923e ef5d b13e 78be ba3e 628e aa3e
000002c0: ffac 963d 7202 b7bd acec 37bd d331 c7bd
000002d0: 926c 9e3d df23 f2be 3d0d bebe c89d 09bf
000002e0: a6a7 98be 5e1a 99bd 7422 efbd 22bc 29be
000002f0: e2b7 db3d bf40 f0be f8b7 64be bfe7 c7bd
00000300: fc48 333e 575a a73e 2990 c43e 913b ee3d
00000310: 2276 d7bd 37d2 01be 7551 93be 2e8b 3abe
00000320: 3381 71bd 05b6 863d 8168 3f3e a468 423e
00000330: 37b1 013e 80f3 89bd ffe1 d6bd cb60 2dbe
00000340: 32e4 80bd 549c e43b 50e7 1a3e 790d 903e
00000350: 7d6e 923e b6f6 813e 30f8 6c3d 6769 553d
00000360: a6b6 9c3d 8e00 6dbc 3f2b 70bd 62e6 f5bd
00000370: df1b c9bd b26a 91bd 0e91 52bd 0c06 003d
00000380: 0c27 b23d 3c3e 46bb 51f1 20bb 17dc 60bd
00000390: cba5 513c 68d2 213b 8151 343d 5011 2d3d
000003a0: 6a0a 043b b430 7dbd 4c71 a4bc 78b0 4f3d
000003b0: 03cc 4cbc 328a 04be 83dd aebc de45 d53d
000003c0: 00ba 843d 86fd 863d 3e08 c7bb 1680 863c
000003d0: 13b0 e7bc 134b f039 600d b43c 3468 9c3d
000003e0: 793f cc3c a727 06bc 7fae c7bc 9362 84bd
000003f0: 535c 103e 8f04 6a3e d41e 9c3e 216d 1e3f

bias f4 [32]
-0.2515164 -0.034113403 -0.24331495 -0.20082654 0.063084595 -0.014832764 0.021186166 0.01828521
-0.21874411 0.00036362527 -0.13339941 0.03820862 0.112078 -0.07657604 -0.11526556 0.018479047
0.14310288 -0.017366216 -0.04054862 -0.33184487 -0.14288303 -0.6634272 -0.23736642 0.6321188
0.005511381 -0.62937397 -0.023895724 0.024373265 -0.17726277 -0.14073464 -0.111529976 0.072829686
00000000: c2c6 80be 7fba 0bbd 8e27 79be 79a5 4dbe
00000010: 7f32 813d 1f05 73bc 9c8e ad3c ddca 953c
00000020: 75fe 5fbe f5a4 be39 db99 08be a480 1c3d
00000030: 2789 e53d e6d3 9cbd 5a10 ecbd 5f61 973c
00000040: 9089 123e 9843 8ebc 4f16 26bd 92e7 a9be
00000050: ee4f 12be 5dd6 29bf 2f10 73be 8ad2 213f
00000060: d198 b43b a71e 21bf f7c0 c3bc 71aa c73c
00000070: 5f84 35be be1c 10be d469 e4bd bb27 953d

weight f4 [32, 6, 9]
-0.19875135 0.1082831 0.036215402 -0.005727271 -0.041220047 0.0056643933 0.13370101 0.021687973
0.06440281 -0.024694057 -0.20746629 -0.07470069 0.08050304 0.08957723 0.10819553 -0.058172822
-0.085988 0.20501254 0.59321314 0.56267303 -0.7351803 -1.0642663 -0.3833201 -1.2979714
-0.4191626 -0.7597679 0.65505224 0.3450167 0.037397206 0.20043518 0.18526658 -0.14216237
-0.07977946 -0.32770735 -0.14747512 0.036326557 -0.39160085 -0.14953268 0.25134614 0.485485
0.6058828 0.45781618 0.028650139 -0.060400095 -0.39371583 -0.06558646 -0.313995 0.008438898
-0.510664 -0.4288238 0.06339156 0.20681329 0.20021078 0.53292924 0.08636414 0.017299213
0.014403409 -0.09401886 0.07658222 -0.04252398 4.2470117e-05 -0.030540956 -0.039931104 0.09914187
-0.058911745 -0.11732086 -0.05824742 -0.114384115 0.02590411 0.13136615 0.0076042465 0.11287736
0.039319173 0.31370074 0.3398158 0.38030592 0.22469366 0.2528001 0.1985568 0.06022315
0.12241524 0.019641325 -0.17669289 -0.1470892 -0.21622978 -0.18449044 -0.3136449 -0.23029512
-0.15984087 -0.21251516 -0.1278571 0.07519795 0.04101993 -0.15700817 -0.09356057 -0.0959347
-0.32710025 -0.3951586 -0.4017042 0.22673742 0.1173159 -0.048832227 0.1471828 0.14171106
0.3236266 0.1891505 0.3998452 0.13845547 -0.1225689 0.024759341 0.19459352 0.30029193
-0.008595414 0.07014362 -0.124364614 -0.24801897 -0.08464643 0.008216619 0.03829591 0.067640334
-0.20596229 -0.008023326 -0.017535148 0.012975773 0.08433667 0.16879019 -1.512701 -1.2060144
-0.24888523 0.49104092 0.37281847 1.5676001 1.1342885 0.30752784 0.22721583 0.11951484
0.14403684 0.17446613 0.13004538 0.152191 0.09735506 -0.10616914 -0.22106218 -0.25081676
0.09032449 0.12579173 -0.0017141905 -0.2175354 -0.028996352 -0.5202179 0.075723164 0.554811
0.73858047 0.42999598 0.03288433 0.029133542 0.0027056092 0.30990553 0.000578086 0.09011873
0.4611481 0.12822622 0.0012768862 -0.1265381 0.059088115 -0.0012870667 0.012242463 0.0006698033
-0.0083280355 0.03834171 0.03631416 0.06864409 0.11136032 0.21142751 0.12093973 0.013369472
0.0573388 -0.07876794 -0.042679656 -0.16235818 -0.018003622 0.0970697 0.27509788 0.40954295
0.57058316 0.625054 0.77359253 0.71595967 0.63167816 0.043746404 0.1841837 0.066531114
-0.045297462 0.005170398 -0.25147703 -0.2098065 -0.4283789 -0.22732434 0.06549172 0.011219507
-0.056451518 -0.14144374 -0.2634579 -0.33054405 -0.35003173 -0.051703975 0.061592925 -0.2521307
0.089806125 0.17678653 0.2231091 0.35373133 0.35971493 0.3071348 0.12730485 -0.16493134
-0.17737864 -0.0020119075 -0.036873855 0.14280245 -0.027167285 0.03926008 -0.009561927 0.02814675
-0.1656407 0.023986472 0.020817727 0.16287248 -0.15320832 -0.1022187 0.0043299743 0.045110065
-0.10326191 -0.2364285 -0.77713054 0.5447863 1.2240049 0.9275115 0.9193823 0.078889355
-0.50972927 -0.52306885 0.10729177 -0.19468221 -0.05630305 0.22732241 -0.012660651 0.1178084
0.078801736 -0.03346407 -0.08338598 0.0033972564 0.49371055 -0.09295667 -0.11693907 -0.17099634
00000000: 7985 4bbe 88c3 dd3d 9a56 143d d5ab bbbb
00000010: 5ad6 28bd 609c b93b ebe8 083e faaa b13c
00000020: 9fe5 833d 314b cabc 0b72 54be adfc 98bd
00000030: c7de a43d 4474 b73d 9e95 dd3d a046 6ebd
00000040: 7a1a b0bd cfee 513e d1dc 173f 570b 103f
00000050: c734 3cbf e139 88bf 8842 c4be ed23 a6bf
00000060: 7b9c d6be 2680 42bf 81b1 273f 07a6 b03e
00000070: d02d 193d e13e 4d3e 86b6 3d3e 0393 11be
00000080: 6a63 a3bd 42c9 a7be b803 17be 28cb 143d
00000090: e87f c8be 181f 19be 71b0 803e 7d91 f83e
000000a0: 231b 1b3f e266 ea3e b2b3 ea3c 1766 77bd
000000b0: 1f95 c9be 3252 86bd f4c3 a0be 4e43 0a3c
000000c0: e0ba 02bf cb8e dbbe 6fd3 813d ddc6 533e
000000d0: 0e04 4d3e 0d6e 083f afdf b03d 14b7 8d3c
000000e0: 47fc 6b3c f68c c0bd 24d7 9c3d a02d 2ebd
000000f0: f121 3238 0731 fabc cc8e 23bd e50a cb3d
00000100: 714d 71bd eb45 f0bd d994 6ebd 3842 eabd
00000110: db34 d43c d984 063e 0b2d f93b 3f2c e73d
00000120: 240d 213d 629d a03e 56fc ad3e 75b7 c23e
00000130: 1816 663e 046f 813e 7952 4b3e 8dac 763d
00000140: d7b4 fa3d d8e6 a03c fbee 34be 8d9e 16be
00000150: 576b 5dbe 10eb 3cbe 1096 a0be 7cd2 6bbe
00000160: 53ad 23be 939d 59be f9ec 02be 6201 9a3d
00000170: 8404 283d c0c6 20be af9c bfbd 6979 c4bd
00000180: af79 a7be 3a52 cabe 2cac cdbe db2d 683e
00000190: 5243 f03d 4d04 48bd 17b7 163e b41c 113e
000001a0: 63b2 a53e abb0 413e 83b8 cc3e 45c7 0d3e
000001b0: 6705 fbbd 1ad4 ca3c 8643 473e ddbf 993e
000001c0: c8d3 0cbc 75a7 8f3d e0b2 febd aff8 7dbe
000001d0: 1c5b adbd ff9e 063c 2cdc 1c3d 0487 8a3d
000001e0: c7e7 52be 4574 03bc dfa5 8fbc 5698 543c
000001f0: b4b8 ac3d 56d7 2c3e 30a0 c1bf ae5e 9abf
00000200: c5db 7ebe b769 fb3e 10e2 be3e 1fa7 c83f
00000210: 5e30 913f 4a74 9d3e 44ab 683e 32c4 f43d
00000220: 657e 133e 40a7 323e 9e2a 053e f5d7 1b3e
00000230: 1762 c73d 356f d9bd 205e 62be 0e6b 80be
00000240: 0cfc b83d 8ccf 003e b0ae e0ba 9ac1 5ebe
00000250: c289 edbc 002d 05bf bf14 9b3d 1808 0e3f
00000260: 9c13 3d3f 6f28 dc3e b8b1 063d 77a9 ee3c
00000270: 9750 313b f0ab 9e3e b28a 173a 2b90 b83d
00000280: 9b1b ec3e bc4d 033e 315d a73a 3493 01be
00000290: 6106 723d cbb2 a8ba 9d94 483c bd95 2f3a
000002a0: 5072 08bc 320c 1d3d 28be 143d 4695 8c3d
000002b0: e110 e43d 7480 583e 40af f73d a10b 5b3c
000002c0: 17dc 6a3d 1651 a1bd ddd0 2ebd 3941 26be
000002d0: 557c 93bc 7bcc c63d a1d9 8c3e 9daf d13e
000002e0: bd11 123f 8a03 203f 290a 463f 2249 373f
000002f0: a9b5 213f 6e2f 333d a79a 3c3e 7741 883d
00000300: d589 39bd 716c a93b 99c1 80be 84d7 56be
00000310: 7b54 dbbe b6c7 68be 8620 863d 06d2 373c
00000320: b539 67bd a1d6 10be f4e3 86be 123d a9be
00000330: 5c37 b3be 8cc7 53bd dd48 7c3d 4617 81be
00000340: 46ec b73d 8707 353e b676 643e 461c b53e
00000350: 8e2c b83e c640 9d3e 345c 023e c3e3 28be
00000360: bfa2 35be 35da 03bb 0a09 17bd ce3a 123e
00000370: ed8d debc 2dcf 203d a1a9 1cbc 0394 e63c
00000380: b79d 29be 477f c43c f089 aa3c 0bc8 263e
00000390: a4e2 1cbe 0a58 d1bd 75e2 8d3b 55c5 383d
000003a0: fb7a d3bd 501a 72be 07f2 46bf 1d77 0b3f
000003b0: 31ac 9c3f 6571 6d3f a35c 6b3f be90 a13d
000003c0: 9e7d 02bf d7e7 05bf cabb db3d c65a 47be
000003d0: 079e 66bd 35c7 683e 9e6e 4fbc 8845 f13d
000003e0: ce62 a13d 9f11 09bd 45c6 aabd 81a4 5e3b
000003f0: a1c7 fc3e 1160 bebd c07d efbd aa19 2fbe

bias f4 [32]
-0.006718541 -0.24051292 -0.001534714 -0.031488072 -0.033821866 -0.08019119 -0.33225983 -0.2876844
-0.37719306 -0.6537776 -0.038440026 -0.039863214 -0.01322958 -0.056799795 -0.03673088 -0.35235873
-0.03813805 -0.030388178 -0.39844903 -0.06767586 -0.49532217 -0.018016035 -0.40734288 -0.05177613
-0.0056986115 -0.009155168 -0.12341498 -0.039600518 -0.0074895723 -0.07537912 -0.009167399 -0.032878272
00000000: 3527 dcbb 0549 76be 7528 c9ba a3f9 00bd
00000010: cc88 0abd 473b a4bd f61d aabe 5f4b 93be
00000020: 731f c1be f85d 27bf 4a73 1dbd 9c47 23bd
00000030: e1c0 58bc e7a6 68bd 1f73 16bd 5d68 b4be
00000040: a536 1cbd a1f0 f8bc 8301 ccbe a499 8abd
00000050: de9a fdbe 5d96 93bc 3f8f d0be 3513 54bd
00000060: 6bbb babb 8fff 15bc fec0 fcbd 2734 22bd
00000070: 166b f5bb 5e60 9abd dc32 16bc 5eab 06bd
