models/v1_15Hz.pt (torch, 564372 bytes, 57 tensors)

cls f4 [1, 1, 32]
2.4995859 0.14343527 0.30992556 1.6162015 0.32897174 -1.3198854 1.7455935 0.27327928
-0.57271004 1.3404926 -1.035664 -1.1885946 0.4557632 -0.2359961 0.11420768 0.040815663
-1.8169988 -1.559249 0.3328229 -0.2546402 -0.9403551 0.18772787 0.6206712 -1.0136663
-0.59695274 -0.5564424 0.40594912 -0.59360766 0.0034975458 -0.096721485 -1.6458099 0.9530609
00000000: 37f9 1f40 b2e0 123e 90ae 9e3e b1df ce3f
00000010: fc6e a83e 01f2 a8bf 9c6f df3f 43eb 8b3e
00000020: 209d 12bf 4395 ab3f a390 84bf de23 98bf
00000030: cb59 e93e f6a8 71be b7e5 e93d 532e 273d
00000040: 6b93 e8bf 7995 c7bf c367 aa3e 3360 82be
00000050: 1dbb 70bf bc3b 403e 4fe4 1e3f d1bf 81bf
00000060: e5d1 18bf 0273 0ebf 90d8 cf3e acf6 17bf
00000070: 1537 653b ea15 c6bd e6a9 d2bf cdfb 733f

gaze_pe f4 [1, 30, 32]
-0.5892462 2.493036 2.8439064 -1.0635883 1.2367606 -0.6897575 0.30685553 0.5612518
0.3225375 -1.9830364 -0.28924412 1.2094042 0.12654811 0.72177434 -0.7862802 -0.84824467
-0.72087914 -0.94019204 -0.49539828 -2.829274 1.5445193 -0.23133287 -1.2325944 0.35082555
-0.88749725 0.75807375 0.90314734 -0.5418884 -1.587727 -0.4789999 -1.1292135 -1.7457435
-1.7461935 0.42957595 0.3929617 1.0089298 -0.38296235 -0.26117507 1.0564103 -0.48008266
-0.14138946 0.966559 0.15970336 0.9109095 0.05223206 0.33697113 0.03549066 1.1103114
2.8556628 0.19909365 0.12606627 -0.08483652 0.43392494 -0.41938505 -0.041067086 0.41969937
-0.19705836 -1.2068381 0.35688487 0.61027604 -1.8613374 1.3835781 -1.1884863 -0.042184155
-1.5054225 0.8669674 0.26817143 0.9973392 -0.82248986 -0.41744882 0.92178684 0.9876744
-1.0124563 0.4345208 -1.8163425 -0.326672 0.825916 -0.97712773 0.48509783 1.3533156
-0.80245817 -1.8346589 -0.012194177 0.68249124 -2.3543177 -0.1055571 1.6779228 0.67100763
0.5493464 1.3347175 -0.7698649 0.67806005 0.93512297 -0.502807 -0.10763363 -0.25990358
1.3854618 0.61894155 0.7640094 1.1685857 0.76029617 -1.0108358 0.36089626 -1.0066146
-0.056457527 1.2724403 -0.19349355 -0.3607895 0.030244894 -1.3938115 0.94701874 -1.1917585
-0.81945443 1.0289917 -0.11534808 -0.3876367 -0.1607046 -0.14361183 0.12450059 0.10781291
2.0360725 -0.3776809 0.6172904 0.08673719 1.8054574 -0.7849988 -0.28482607 0.7299522
-0.31129813 1.9037197 -1.1095276 0.3316506 0.20722781 -1.2690138 1.0650374 0.22125208
0.14157096 0.36691573 -2.0815785 1.1831244 -1.9320587 0.15428849 0.39768684 0.27101636
0.8375898 -1.6351807 1.085229 0.08961227 -1.6206831 1.232797 0.6637504 -0.49557644
-0.2355837 1.3739086 0.42562306 -2.2117527 2.0159667 1.9463367 -0.57714576 -1.9591819
1.2060517 0.46771702 0.8390117 1.6264467 0.60036194 -0.60815054 -0.34127182 0.96816546
-0.7899296 0.7622409 -0.44603974 0.43637124 0.94433445 -0.47122747 -0.18976016 0.34969842
0.7032687 -0.25323698 -0.5413165 -0.37656218 1.6146195 0.15174267 1.0334771 0.068117246
0.43643448 -1.3156681 1.6740019 0.10221361 -1.7431303 -0.12691818 2.1775432 1.3135103
-0.774916 -0.17185412 1.2946662 0.87668574 -0.7657887 -1.3675764 0.8295355 0.92784876
3.1577454 0.16714133 -0.789063 -0.73994327 -0.9055602 -1.1142077 -1.263727 -1.2178608
-1.3097401 -0.69092476 0.2895369 -0.5526605 1.0889902 -0.22797914 1.1171429 -1.7205285
1.5272812 1.1960942 1.3869929 0.46029225 1.2735459 0.4745483 0.5748622 -0.7366649
-0.19821265 -0.86779964 -1.354318 -0.9478341 -0.0454801 -0.45260462 -1.4673798 0.9898146
-1.006852 1.4693305 0.77322274 0.8464789 0.6896055 -1.8217683 0.25192648 1.1543267
-0.4581169 0.47829825 0.3190602 -0.531919 1.00916 -0.006732082 -0.075601876 -1.6104438
0.57215565 -0.5549738 0.22118306 -0.007958403 0.6936745 -0.33654267 0.7170521 -0.7358639
00000000: d7d8 16bf e78d 1f40 9002 3640 a923 88bf
00000010: 2c4e 9e3f f393 30bf 2b1c 9d3e 33ae 0f3f
00000020: a323 a53e 23d4 fdbf ce17 94be c2cd 9a3f
00000030: d495 013e 34c6 383f a949 49bf 9026 59bf
00000040: 898b 38bf 6db0 70bf d8a4 fdbe d312 35c0
00000050: cfb2 c53f 86e2 6cbe a7c5 9dbf 689f b33e
00000060: 0533 63bf 1f11 423f aa34 673f 33b9 0abf
00000070: a33a cbbf 7a3f f5be 118a 90bf 8674 dfbf
00000080: 4583 dfbf 61f1 db3e 4732 c93e 9d24 813f
00000090: a413 c4be bdb8 85be 7438 873f 65cd f5be
000000a0: 66c8 10be 6970 773f 4789 233e 5d31 693f
000000b0: 49f1 553d 7b87 ac3e a85e 113d af1e 8e3f
000000c0: 2ec3 3640 35df 4b3e 8417 013e c5be adbd
000000d0: 692b de3e a3b9 d6be f635 28bd d6e2 d63e
000000e0: abc9 49be ac79 9abf 9db9 b63e 0d3b 1c3f
000000f0: 4e40 eebf 1619 b13f 5220 98bf 4bc9 2cbd
00000100: afb1 c0bf 93f1 5d3f c44d 893e 9f51 7f3f
00000110: b28e 52bf dabb d5be 39fa 6b3f 3bd8 7c3f
00000120: 2b98 81bf 8379 de3e e97d e8bf 8d41 a7be
00000130: 3b6f 533f 0b25 7abf be5e f83e 7239 ad3f
00000140: e66d 4dbf 1ad6 eabf 16ca 47bc bfb7 2e3f
00000150: 24ad 16c0 522e d8bd 2dc6 d63f 28c7 2b3f
00000160: f7a1 0c3f 06d8 aa3f de15 45bf 5895 2d3f
00000170: 3864 6f3f f6b7 00bf 056f dcbd 1512 85be
00000180: d056 b13f f472 1e3f 1f96 433f 3794 953f
00000190: c5a2 423f 1163 81bf 65c7 b83e bfd8 80bf
000001a0: 0240 67bd 53df a23f 2c23 46be 67b9 b8be
000001b0: 24c4 f73c 6a68 b2bf d26f 723f 8b8b 98bf
000001c0: c4c7 51bf 00b6 833f 9d3b ecbd 5178 c6be
000001d0: bf8f 24be fb0e 13be 2afa fe3d 04cd dc3d
000001e0: 034f 0240 645f c1be be06 1e3f 45a3 b13d
000001f0: 3a19 e73f aef5 48bf b9d4 91be 26de 3a3f
00000200: 7862 9fbe 16ad f33f 0005 8ebf 1cce a93e
00000210: 8733 543e 0b6f a2bf 2553 883f e88f 623e
00000220: faf7 103e 61dc bb3e 9538 05c0 9f70 973f
00000230: b34d f7bf cdfd 1d3e 9c9d cb3e a8c2 8a3e
00000240: 496c 563f 9a4d d1bf c9e8 8a3f a386 b73d
00000250: 8b72 cfbf 4bcc 9d3f 8ceb 293f 32bc fdbe
00000260: da3c 71be 3ddc af3f 44eb d93e 5b8d 0dc0
00000270: 9905 0140 9021 f93f d3bf 13bf 79c6 fabf
00000280: e75f 9a3f 9b78 ef3e 79c9 563f 682f d03f
00000290: 52b1 193f c1af 1bbf 2ebb aebe b1d9 773f
000002a0: d438 4abf 3822 433f 525f e4be 0d6c df3e
000002b0: e7bf 713f ba44 f1be 7d50 42be ac0b b33e
000002c0: 6b09 343f 47a8 81be b893 0abf c2cc c0be
000002d0: daab ce3f 6e62 1b3e fa48 843f 0e81 8b3d
000002e0: 5774 df3e d067 a8bf b245 d63f 5f55 d13d
000002f0: e51e dfbf d7f6 01be de5c 0b40 1b21 a83f
00000300: e560 46bf 87fa 2fbe 9fb7 a53f 7a6e 603f
00000310: ba0a 44bf be0c afbf 705c 543f 7f87 6d3f
00000320: 8018 4a40 1927 2b3e 0800 4abf ec6c 3dbf
00000330: cbd2 67bf 5c9e 8ebf cec1 a1bf dde2 9bbf
00000340: 90a5 a7bf 72e0 30bf 2e3e 943e 297b 0dbf
00000350: 0864 8b3f 5d73 69be 8afe 8e3f 473a dcbf
00000360: f37d c33f 9d19 993f fc88 b13f 6dab eb3e
00000370: 8d03 a33f fff7 f23e 2b2a 133f 1296 3cbf
00000380: 42f8 4abe 1e28 5ebf 4b5a adbf 41a5 72bf
00000390: 5749 3abd cbbb e7be 1ad3 bbbf 7d64 7d3f
000003a0: 87e0 80bf 0613 bc3f edf1 453f d7b2 583f
000003b0: fc89 303f b42f e9bf 82fc 803e fac0 933f
000003c0: 4c8e eabe 82e3 f43e dc5b a33e d82b 08bf
000003d0: 282c 813f cc98 dcbb 28d5 9abd 0623 cebf
000003e0: cb78 123f c312 0ebf d07d 623e f663 02bc
000003f0: a794 313f 524f acbe ba90 373f 9461 3cbf

imu_pe f4 [1, 30, 32]
-1.6690336 -0.16367579 -0.5931943 -0.72304934 0.23780026 -0.35459968 -0.56459576 -0.8324409
-0.6494912 0.84087604 -0.45650634 -1.2483919 0.25573298 0.8789743 0.92301315 1.4890631
0.5646294 -0.4230283 0.326478 1.6449847 -1.0187826 -1.5166895 -1.0116082 -1.7205745
1.2019042 -0.95222026 -0.43655124 -0.96818334 -0.15368523 -0.6099916 0.89028543 1.5867051
-1.7185245 3.0769413 0.3879275 -0.029040936 1.3410618 1.2386385 0.51994896 -0.25618854
-2.0954707 -0.32111338 -0.15323065 -0.7460845 2.3026602 -0.030783204 0.24166577 0.45199674
0.6582013 -0.22742265 0.9245187 0.7291694 -0.4119445 0.9930096 0.040735196 0.39677888
0.74354994 -1.0105282 1.0227671 0.10701465 0.6732576 0.18328725 0.57586974 0.44551983
-1.5271785 1.1197689 0.2987884 0.6291345 -0.2660104 0.9445261 1.0367802 0.6609958
-1.5063589 2.71447 0.46958625 -0.57225704 -0.090087794 -0.45129094 -1.9608042 1.2656827
0.42095828 -0.7614574 2.3244479 0.25969207 0.35817704 0.23009129 0.9281931 -0.22177808
-0.013069119 1.463404 -0.650975 0.50646913 0.32014352 -0.8425353 -1.6511356 0.11951892
-0.19756941 1.3383257 -1.4958367 -0.61966115 -1.3432603 -1.6675122 -0.5494389 0.041450184
-1.2260062 -1.0950098 -1.7914212 -0.3490084 0.6245823 -0.017205665 1.094595 -1.0614691
0.95283747 0.7555394 0.6882404 -1.1429176 -0.83263385 0.8875721 1.0873507 -0.6361261
0.628942 -1.056273 -0.5012117 -0.83388114 0.4685614 1.0521371 0.79457724 1.0186388
-0.94288826 1.3182076 -0.3808254 0.028098626 -1.254267 -1.7754813 -0.6320628 -0.2979435
-0.13082999 0.33380863 -0.9609623 1.6299739 -0.18599616 0.14849104 0.7305666 -1.0518758
1.5714749 0.5441119 -0.8884092 1.3767107 1.4747055 0.06793556 -0.10344935 0.43018895
-0.122986406 -0.3189702 -0.43810937 -0.4339082 -0.566299 -0.694329 0.775078 0.97660387
0.5767024 -0.27769443 -0.843195 -2.5208066 -1.294121 0.1949709 -0.43743768 0.5641289
-0.7563866 -1.0098757 -1.3151689 1.3901492 -1.2435044 1.6965419 0.13647331 -0.14107302
-0.42991275 0.4765704 -3.0549943 -1.044593 -0.32567507 0.009981739 2.068906 -0.9723288
1.5562438 -1.0395807 1.4733709 1.2149212 0.41468638 -0.6308391 1.2988856 -0.08015199
-0.024859184 -0.8980828 0.965102 -1.0268083 -0.38216218 0.55367154 0.64211863 -0.30071548
3.1761413 -1.1554517 -0.25318936 0.34827513 0.7338312 -0.22635417 2.4958873 -0.5982948
0.751921 0.9084242 0.5864002 0.5584302 -0.050524306 -1.1693434 -0.060088553 -1.2172444
-0.33115533 0.087065734 -1.305082 -0.0990734 -0.76558673 1.5670921 -1.2906303 -0.950993
1.5754411 -0.3153447 -0.5498412 0.3127373 -0.3984887 2.392803 -1.7728504 -1.3943391
-0.752743 0.74402773 -1.5865288 0.50400966 0.2582469 0.35577655 0.45081854 -0.1311554
0.25182465 -0.06768151 0.54762936 -1.1515664 -1.1630322 -0.41180718 -0.9784316 0.9013865
-0.67440027 -0.4626507 0.46637607 -1.3881339 -0.6857895 -1.0441052 2.0144744 -0.62198377
00000000: e5a2 d5bf a09a 27be 95db 17bf c319 39bf
00000010: e981 733e 178e b5be 5989 10bf d91a 55bf
00000020: 0e45 26bf a743 573f 33bb e9be 4ecb 9fbf
00000030: 6fef 823e 7604 613f 974a 6c3f 9f99 be3f
00000040: 8d8b 103f 2a97 d8be 2028 a73e dc8e d23f
00000050: 7867 82bf e222 c2bf 617c 81bf c93b dcbf
00000060: ffd7 993f b5c4 73bf a583 dfbe ddda 77bf
00000070: a95f 1dbe 6928 1cbf bfe9 633f 2719 cb3f
00000080: 9cf8 dbbf 9bec 4440 6f9e c63e 42e7 edbc
00000090: eaa7 ab3f b58b 9e3f 601b 053f 252b 83be
000000a0: 311c 06c0 f968 a4be 7fe8 1cbe 65ff 3ebf
000000b0: c95e 1340 0f2d fcbc 3b77 773e 1e6c e73e
000000c0: e17f 283f 7ce1 68be 42ad 6c3f d9aa 3a3f
000000d0: 64ea d2be e135 7e3f f3d9 263d 9a26 cb3e
000000e0: 4a59 3e3f fd58 81bf 08ea 823f 7f2a db3d
000000f0: 9c5a 2c3f a7af 3b3e 336c 133f 2d1b e43e
00000100: 967a c3bf 9654 8f3f cbfa 983e f50e 213f
00000110: 8432 88be 76cc 713f 37b5 843f 0537 293f
00000120: 5ed0 c0bf e0b9 2d40 9c6d f03e 707f 12bf
00000130: f37f b8bd 9b0f e7be a2fb fabf e401 a23f
00000140: d887 d73e dfee 42bf c1c3 1440 5cf6 843e
00000150: fb62 b73e 0d9d 6b3e 109e 6d3f cb19 63be
00000160: dc1f 56bc d350 bb3f 4ca6 26bf f6a7 013f
00000170: dae9 a33e 65b0 57bf 6958 d3bf 56c6 f43d
00000180: a34f 4abe 424e ab3f 9477 bfbf 1da2 1ebf
00000190: f4ef abbf 0a71 d5bf 07a8 0cbf abc7 293d
000001a0: c5ed 9cbf 4829 8cbf 4a4d e5bf 3bb1 b2be
000001b0: a0e4 1f3f e5f2 8cbc b01b 8c3f 38de 87bf
000001c0: 28ed 733f 086b 413f 8630 303f 204b 92bf
000001d0: 7e27 55bf ed37 633f 4f2e 8b3f 29d9 22bf
000001e0: 5802 213f f433 87bf 694f 00bf 3c79 55bf
000001f0: 48e7 ef3e 6eac 863f 6a69 4b3f c262 823f
00000200: 2061 71bf 07bb a83f 8cfb c2be 172f e63c
00000210: d28b a0bf f942 e3bf dece 21bf 0d8c 98be
00000220: 4cf8 05be f7e8 aa3e a001 76bf fca2 d03f
00000230: c775 3ebe 090e 183e 6a06 3b3f dea3 86bf
00000240: 1726 c93f eb4a 0b3f c96e 63bf 0e38 b03f
00000250: 26c3 bc3f cd21 8b3d 41dd d3bd ba41 dc3e
00000260: 4ce0 fbbd 1050 a3be df4f e0be 3729 debe
00000270: f9f8 10bf 8cbf 31bf 836b 463f b602 7a3f
00000280: c5a2 133f f72d 8ebe a1db 57bf e554 21c0
00000290: c2a5 a5bf 74a6 473e d5f7 dfbe c06a 103f
000002a0: 8da2 41bf 9b43 81bf 7457 a8bf 69f0 b13f
000002b0: 272b 9fbf 4928 d93f a9bf 0b3e 7275 10be
000002c0: 861d dcbe 0901 f43e 0785 43c0 39b5 85bf
000002d0: e2be a6be 738a 233c f568 0440 8aea 78bf
000002e0: ff32 c73f fb10 85bf 6b97 bc3f 8a82 9b3f
000002f0: c651 d43e ac7e 21bf e241 a63f ba26 a4bd
00000300: 7da5 cbbc c1e8 65bf ed10 773f 746e 83bf
00000310: c3aa c3be 6bbd 0d3f e361 243f 61f7 99be
00000320: e645 4b40 d7e5 93bf 09a2 81be 1e51 b23e
00000330: 5ddc 3b3f 63c9 67be 9ebc 1f40 d929 19bf
00000340: e57d 403f 7d8e 683f 531e 163f 48f5 0e3f
00000350: 93f2 4ebd 0bad 95bf 6a1f 76bd aace 9bbf
00000360: 318d a9be 854f b23d ed0c a7bf ffe6 cabd
00000370: 7efd 43bf 7996 c83f 6033 a5bf 4774 73bf
00000380: 0ea8 c93f dc74 a1be 65c2 0cbf 1a1f a03e
00000390: b606 ccbe af23 1940 c3ec e2bf b479 b2bf
000003a0: c4b3 40bf 9a78 3e3f 6013 cbbf c706 013f
000003b0: f038 843e 5828 b63e b0d1 e63e 9a4d 06be
000003c0: 29ef 803e 9a9c 8abd 7031 0c3f 8766 93bf
000003d0: 3dde 94bf 64d8 d2be 7e7a 7abf 44c1 663f
000003e0: 7fa5 2cbf 8de0 ecbe d8c8 ee3e 5fae b1bf
000003f0: e78f 2fbf 3da5 85bf 26ed 0040 543a 1fbf

rgb_pe f4 [1, 49, 32]
-1.1214519 0.52257717 -1.3209119 -0.3560169 0.33335835 0.087296784 0.2635697 -0.20249526
-0.23083349 0.68019176 -0.89075595 -0.33369613 0.2660363 -1.4024351 -1.2561619 1.8851371
-0.6825122 2.3098028 0.24802898 -0.7504362 0.6503263 0.77049875 -0.42580643 -1.222567
-0.3078573 -0.94680345 0.3814151 0.5389826 -0.5513039 0.839487 -0.9359253 -1.5920861
-0.27027574 0.489518 -0.9669651 0.5622186 0.54955673 1.1338738 -2.286286 0.83940005
-1.509128 -0.11813541 -0.9437695 0.1899051 0.96303856 -1.7959211 -1.1570672 -1.6846472
-0.030567495 -0.20759436 0.25824562 1.5772213 -2.2533755 -1.2930245 0.45144823 -0.08171641
0.72210824 -0.55520433 0.034371052 -0.6814567 1.0805811 1.8282697 0.9879292 -0.8666589
0.7568042 -0.6236449 -0.7712397 0.78541857 0.4505321 -1.6190114 -0.6881484 -1.4678094
-0.11353468 0.061502203 0.6552375 1.9310254 1.4157264 -1.9315386 1.298357 0.24522471
-0.6802375 1.727499 -1.6839862 -1.3899289 0.62651587 -0.6722746 -0.08661939 1.0726845
-1.8690723 -0.028640877 -0.78553045 -0.67490375 -0.06923156 -0.120917276 -0.6383198 -0.9520645
0.021096094 -0.43757498 1.3010951 0.58047724 1.9168891 0.2195648 -1.4452852 0.81519806
0.45118883 -1.2585844 0.041893154 -0.5690552 -0.1904825 0.069000654 -0.098980926 0.6833273
-1.5880786 -0.35093516 1.8279531 0.110255875 -1.6305765 -1.2474098 -0.79554504 -2.1380887
0.7053093 1.1890944 0.744062 -0.03604651 -1.700991 -0.64605045 -0.19981214 -0.15748651
0.019989515 0.60525346 0.67679834 -0.7077393 -1.1236613 -0.6890884 -0.7453152 1.0711422
0.9341724 0.013952603 -0.3218212 -0.85500205 0.5565651 -0.048425168 0.4115002 -2.285761
-0.29467642 0.5727179 -1.9631922 0.16920234 0.81157255 0.9219676 1.3768331 -0.49050486
-0.3396639 1.6208318 0.08716735 -0.19785213 0.41634524 -0.87794447 -0.12919964 0.9570006
-1.1687322 1.4514143 -1.8094629 0.7525316 0.90445054 0.6498768 -1.6928158 0.54077613
1.6336703 -1.4351994 -0.8072715 0.33533058 -0.8359121 -0.9958793 1.8790848 0.15251143
-0.027461834 0.78166014 -1.2284704 -0.38155293 1.1434143 0.66172045 1.024183 -0.54362416
-0.38628602 -1.7173456 -1.2232783 0.23890455 -0.98910934 -0.8102371 0.2976655 -0.6428348
-1.5970215 0.11492743 -1.7253398 -0.7578988 -0.698525 0.2932335 0.2503707 0.16836023
0.3194084 1.6733681 -0.7469994 0.16903834 -1.9788312 -0.26437238 -2.718789 0.65878665
-0.14290385 0.3733934 0.20942982 0.2512031 0.40885308 0.4102735 0.38543993 0.5337573
-1.4628456 0.41864493 0.85255724 -0.89977026 0.4774285 0.6594872 -0.31683224 -0.5570556
0.14711244 -2.7766416 0.6199899 1.0446742 -0.008584278 -0.9111527 -0.52795565 0.28096962
0.34974673 -0.8068473 1.2577654 0.602915 -1.050068 -0.23119102 -1.0701427 -0.7110515
0.18581812 0.03912308 -0.026333505 0.04124888 -0.25072426 0.84461623 -1.759826 0.5788911
0.023117224 -0.5015475 0.31826577 -0.48294428 -0.22053094 1.6816957 -0.22333042 -0.572211
00000000: bc8b 8fbf 9ec7 053f a413 a9bf d947 b6be
00000010: f2ad aa3e a8c8 b23d 9cf2 863e eb5a 4fbe
00000020: 9d5f 6cbe 0c21 2e3f 9508 64bf 38da aabe
00000030: e935 883e fe82 b3bf eac9 a0bf 2c4c f13f
00000040: 1fb9 2ebf cfd3 1340 4ffb 7d3e 961c 40bf
00000050: c97b 263f 683f 453f 4d03 dabe 137d 9cbf
00000060: 799f 9dbe b661 72bf d748 c33e c4fa 093f
00000070: 4122 0dbf 9fe8 563f cd98 6fbf 7ac9 cbbf
00000080: 9561 8abe 1aa2 fa3e 068b 77bf 8fed 0f3f
00000090: c0af 0c3f c722 913f 8352 12c0 ece2 563f
000000a0: 1b2b c1bf faf0 f1bd e19a 71bf 7c76 423e
000000b0: b289 763f bee0 e5bf c71a 94bf 85a2 d7bf
000000c0: af68 fabc 9e93 54be c538 843e 63e2 c93f
000000d0: 4e37 10c0 d481 a5bf 3924 e73e ef5a a7bd
000000e0: 16dc 383f df21 0ebf a9c8 0c3d f273 2ebf
000000f0: 7b50 8a3f be04 ea3f eee8 7c3f 5cdd 5dbf
00000100: ecbd 413f 31a7 1fbf f76f 45bf 3111 493f
00000110: 25ac e63e c43b cfbf 7e2a 30bf 2ee1 bbbf
00000120: df84 e8bd bce9 7b3d a5bd 273f d72b f73f
00000130: 8636 b53f a83c f7bf 9030 a63f 301c 7b3e
00000140: 0b24 2ebf b01e dd3f dc8c d7bf 31e9 b1bf
00000150: 5863 203f 301a 2cbf 8265 b1bd ba4d 893f
00000160: c33d efbf 46a0 eabc 8618 49bf 7ec6 2cbf
00000170: 47c9 8dbd 7aa3 f7bd ed68 23bf 80ba 73bf
00000180: b7d1 ac3c d409 e0be 498a a63f 289a 143f
00000190: 9f5c f53f 98d5 603e 1bff b8bf d2b0 503f
000001a0: 3902 e73e 4b19 a1bf 2898 2b3d 9aad 11bf
000001b0: d80d 43be 3750 8d3d 83b6 cabd 8aee 2e3f
000001c0: 2946 cbbf c6ad b3be 5efa e93f d5cd e13d
000001d0: bbb6 d0bf 20ab 9fbf d7a8 4bbf 72d6 08c0
000001e0: 268f 343f 3f34 983f d97a 3e3f 81a5 13bd
000001f0: 13ba d9bf 9063 25bf 8e9b 4cbe 2544 21be
00000200: 0dc1 a33c e4f1 1a3f a842 2d3f 672e 35bf
00000210: 22d4 8fbf 1968 30bf facc 3ebf 301b 893f
00000220: ec25 6f3f 7599 643c c0c5 a4be 6ae1 5abf
00000230: 0d7b 0e3f 7859 46bd 27b0 d23e e949 12c0
00000240: d4df 96be a49d 123f e249 fbbf 6143 2d3e
00000250: 38c3 4f3f 1206 6c3f 113c b03f 7423 fbbe
00000260: 6de8 adbe 6b77 cf3f cc84 b23d c099 4abe
00000270: 342b d53e f8c0 60bf e94c 04be fefd 743f
00000280: 0499 95bf f2c7 b93f 7b9c e7bf e9a5 403f
00000290: 128a 673f 535e 263f 30ae d8bf 4e70 0a3f
000002a0: 1c1c d13f 9db4 b7bf 58a9 4ebf 73b0 ab3e
000002b0: 56fe 55bf f2f1 7ebf da85 f03f f52b 1c3e
000002c0: a4f7 e0bc e11a 483f 853e 9dbf e85a c3be
000002d0: 665b 923f 8366 293f 6e18 833f f42a 0bbf
000002e0: 48c7 c5be fbd1 dbbf 6294 9cbf 65a3 743e
000002f0: 4536 7dbf b36b 4fbf 9d67 983e d290 24bf
00000300: 336b ccbf 135f eb3d efd7 dcbf a805 42bf
00000310: 89d2 32bf b422 963e 9730 803e a066 2c3e
00000320: 7f89 a33e ed30 d63f 5a3b 3fbf 6318 2d3e
00000330: 574a fdbf d15b 87be a400 2ec0 3ea6 283f
00000340: 6355 12be 6b2d bf3e c574 563e b19d 803e
00000350: 3155 d13e 5e0f d23e 6258 c53e 52a4 083f
00000360: 863e bbbf a158 d63e 3141 5a3f 5857 66bf
00000370: 8271 f43e 27d4 283f d637 a2be 329b 0ebf
00000380: a5a4 163e 7fb4 31c0 a8b7 1e3f e2b7 853f
00000390: 12a5 0cbc 4e41 69bf 1a28 07bf 40db 8f3e
000003a0: 0112 b33e 8b8d 4ebf 75fe a03f a358 1a3f
000003b0: a168 86bf 57bd 6cbe 70fa 88bf 7907 36bf
000003c0: 1b47 3e3e 863f 203d 5db9 d7bc 96f4 283d
000003d0: ee5e 80be c538 583f fa41 e1bf 3532 143f
000003e0: 5560 bd3c 6b65 00bf bbf3 a23e 7944 f7be
000003f0: ddd2 61be ce41 d73f bbb0 64be 6c7c 12bf

weight f4 [32, 3, 9]
-0.013649999 -0.034178138 -0.059661817 0.07033151 0.25845692 -0.007880635 0.017990213 0.004533387
-0.029662888 -0.02178498 0.07440687 -0.48034507 -0.91743785 -0.4210781 0.005306502 0.120630465
0.037383456 -0.04089228 0.017676862 -0.10659149 0.16097985 1.0725727 0.69327104 0.06789537
-0.10626568 -0.116524376 0.08275559 0.06029139 0.03620802 0.13382614 0.035617847 0.27086145
0.2297075 0.29307902 0.21039331 0.04507349 0.011148042 0.11115309 -0.25593272 0.59423846
-0.2185295 -0.13253228 0.20762984 -0.09836226 -0.07116373 -0.03197995 -0.12300229 0.42128822
-0.3834371 0.9901337 0.3828959 0.7314834 0.32063052 0.18737066 -0.039765578 0.04145778
-0.015046866 -0.022152478 -0.10171881 0.0159004 0.010772771 0.0029057919 -0.011672088 0.10335893
-0.6044535 -0.13048953 -0.13146664 -0.8760362 0.05727897 0.11346556 -0.037205383 0.05525324
-0.18479073 1.2184403 0.4565021 0.29281762 -0.15798232 -0.18651842 -0.14499946 0.077132724
-0.084191516 0.029808175 0.14160335 0.28920332 0.22615106 0.5909905 -0.081575446 -0.456645
-0.17039289 -0.11864718 0.024069166 0.1933797 -0.019231334 0.3012155 0.34672728 -0.09040592
-0.20912586 -0.10890404 -0.02536564 -0.09071013 -0.3468547 -0.27833316 -0.47954905 -1.1180182
0.045378964 0.4522258 -0.22080354 0.21852487 0.061702605 0.097091876 0.09942447 -0.65484935
0.26623437 -0.18266226 -0.030585298 -0.06372732 -0.0037458139 0.026254082 -0.04214488 -0.11754619
0.33017728 0.28825325 -0.46052262 -0.03555155 -0.045442965 0.0038820838 -0.09688332 0.07948758
0.17124815 -0.409043 -0.8796474 1.3737028 0.0018056831 0.075886175 -0.08229101 0.2159018
-0.0006486332 0.27066937 0.1051245 0.09884854 -0.2515807 -0.26917583 -0.07205274 -0.0008258168
0.02051039 -0.36239517 -0.03384373 0.040664352 -0.47248998 -0.1990566 -0.7130399 -0.32149574
-0.14527263 -0.2461794 0.641249 -0.017269854 -0.04926517 0.40551454 0.062410697 -0.16217622
0.0985371 0.35014632 -0.036987025 -0.018380316 0.020487333 0.0023372148 -0.24958894 -0.49933982
-0.37944978 -0.037418526 -0.025351154 -0.03977694 -0.1917006 -0.33528385 -0.37415612 0.10116152
0.07696558 0.05207003 0.009821599 0.041147426 -0.26872063 -0.14815573 0.07780844 0.7758706
-0.07696828 -0.25862232 -0.049328543 0.209722 0.09096608 -0.048685666 -0.033248004 0.023241855
-0.0024405173 0.021713264 -0.106671005 0.011600707 0.02679763 -0.026809081 -0.065725 0.1488248
0.8109864 -0.6151664 -0.460605 0.0067297607 -0.020053511 -0.0070180427 0.030713545 0.06283715
-0.17051652 -0.66841465 -0.74074554 0.5863773 -0.025762301 -0.1985185 0.03907405 -0.06903895
0.20341195 -0.9958865 0.16316667 0.13042688 0.05098948 0.010965457 7.2717434e-05 -0.018308172
0.0037157885 -0.009243036 0.13982703 0.028216904 -0.06985723 -0.01927325 -0.009799728 -0.01965824
-0.009067789 -0.014055599 -0.10149346 -0.07117346 0.046924464 0.10138476 -0.014146164 -0.040479664
-0.075762086 -0.035130158 -0.032829836 0.11482569 0.15236394 -0.18478712 -0.26310408 0.086602904
-0.04025734 -0.1182004 -0.000771559 0.06978099 -0.024347588 -0.06763559 0.017815497 -0.17731756
00000000: 3fa4 5fbc 60fe 0bbd f35f 74bd f709 903d
00000010: 7754 843e c71d 01bc 3660 933c ce8c 943b
00000020: 96ff f2bc 6a76 b2bc a162 983d caef f5be
00000030: 35dd 6abf 8c97 d7be 2ae2 ad3b 1b0d f73d
00000040: 651f 193d aa7e 27bd 11cf 903c a44c dabd
00000050: e7d7 243e 104a 893f 367a 313f ba0c 8b3d
00000060: d2a1 d9bd 55a4 eebd c37b a93d 1bf4 763d
00000070: dc4e 143d b809 093e 05e4 113d 5aae 8a3e
00000080: 7138 6b3e 740e 963e 5871 573e fb9e 383d
00000090: 47a6 363c 3ba4 e33d 9d09 83be 0320 183f
000000a0: 32c6 5fbe 8bb6 07be eb9c 543e 2772 c9bd
000000b0: 4abe 91bd 68fd 02bd a0e8 fbbd 17b3 d73e
000000c0: de51 c4be 6779 7d3f ee0a c43e 7f42 3b3f
000000d0: af29 a43e 18de 3f3e 3be1 22bd a2cf 293d
000000e0: 2187 76bc 1d79 b5bc f451 d0bd 8e41 823c
000000f0: 4780 303c 196f 3e3b 493c 3fbc d9ad d33d
00000100: 77bd 1abf 0c9f 05be 319f 06be e943 60bf
00000110: 5a9d 6a3d a260 e83d ac64 18bd 3951 623d
00000120: c839 3dbe daf5 9b3f a5ba e93e 31ec 953e
00000130: 1ec6 21be affe 3ebe bd7a 14be c3f7 9d3d
00000140: 9a6c acbd 4630 f43c 7800 113e 7512 943e
00000150: 2594 673e 274b 173f 0711 a7bd 60cd e9be
00000160: 797b 2ebe 4bfd f2bd b32c c53c 5405 463e
00000170: 088b 9dbc eb38 9a3e 3d86 b13e bd26 b9bd
00000180: 1725 56be 1509 dfbd 9acb cfbc 3cc6 b9bd
00000190: f096 b1be af81 8ebe 7487 f5be 381b 8fbf
000001a0: 4bdf 393d 248a e73e 531a 62be fcc4 5f3e
000001b0: dfbb 7c3d 1bd8 c63d 0e9f cb3d 35a4 27bf
000001c0: df4f 883e d10b 3bbe 058e fabc 7883 82bd
000001d0: 547c 75bb cd12 d73c 1ca0 2cbd 0fbc f0bd
000001e0: ff0c a93e ee95 933e 9fc9 ebbe 819e 11bd
000001f0: 6722 3abd 8f6a 7e3b c36a c6bd 62ca a23d
00000200: ad5b 2f3e 166e d1be 9230 61bf 7ed5 af3f
00000210: acac ec3a 366a 9b3d 3088 a8bd 5d15 5d3e
00000220: 0a09 2aba 2d95 8a3e 844b d73d 1a71 ca3d
00000230: 2fcf 80be 6ad1 89be 6390 93bd a17b 58ba
00000240: 6805 a83c dc8b b9be b99f 0abd aa8f 263d
00000250: 35ea f1be 7ed5 4bbe c889 36bf 179b a4be
00000260: 59c2 14be 7416 7cbe e528 243f 8279 8dbc
00000270: 46ca 49bd 9a9f cf3e 5ca2 7f3d 8611 26be
00000280: d2cd c93d 6146 b33e b57f 17bd 5192 96bc
00000290: 0dd5 a73c f52b 193b 3e94 7fbe 78a9 ffbe
000002a0: 3e47 c2be 2b44 19bd 39ad cfbc 25ed 22bd
000002b0: 294d 44be 53aa abbe 6491 bfbe c52d cf3d
000002c0: 21a0 9d3d 6247 553d c6ea 203c 348a 283d
000002d0: c095 89be 23b6 17be 085a 9f3d 759f 463f
000002e0: 8ca1 9dbd 256a 84be ba0c 4abd 5dc1 563e
000002f0: 6d4c ba3d 9f6a 47bd 0f2f 08bd b465 be3c
00000300: 16f1 1fbb 04e0 b13c 5476 dabd e410 3e3c
00000310: b486 db3c b89e dbbc d49a 86bd 8765 183e
00000320: ce9c 4f3f 8c7b 1dbf 6bd4 ebbe 5385 dc3b
00000330: 4347 a4bc 9cf7 e5bb f99a fb3c c4b0 803d
00000340: e29b 2ebe 391d 2bbf 80a1 3dbf d31c 163f
00000350: 760b d3bc 6f48 4bbe 1c0c 203d 4b64 8dbd
00000360: 394b 503e 6bf2 7ebf 2a15 273e a08e 053e
00000370: 58da 503d 76a8 333c e07f 9838 05fb 95bc
00000380: 9684 733b 1a70 17bc d12e 0f3e 2327 e73c
00000390: 4f11 8fbd efe2 9dbc 0a8f 20bc 510a a1bc
000003a0: 1091 14bc 7549 66bc cedb cfbd 64c3 91bd
000003b0: de33 403d d0a2 cf3d 50c5 67bc 01ce 25bd
000003c0: 2729 9bbd a4e4 0fbd 9478 06bd bb29 eb3d
000003d0: 4b05 1c3e d638 3dbe 94b5 86be dd5c b13d
000003e0: e1e4 24bd 0d13 f2bd 7342 4aba 56e9 8e3d
000003f0: 9874 c7bc 8784 8abd cef1 913c bc92 35be

bias f4 [32]
-0.10057074 -0.0023950327 -0.18681535 -0.20676464 -0.10318872 -0.19163728 -0.5679332 -0.09112587
-0.20854601 -0.8060253 -0.4874007 -0.48711622 -0.13181563 -0.00028301394 -0.073863715 -0.1688066
-0.23599045 -0.5181533 -0.08004458 -0.15134197 -0.0022877862 -0.0051252143 -0.0015973878 -0.034702208
-0.16036016 -0.066846326 -0.07374481 -0.0011903144 -0.16508932 -0.0718923 -0.0017954014 -0.05702197
00000000: 08f8 cdbd fbf5 1cbb 864c 3fbe 1cba 53be
00000010: 9c54 d3bd 903c 44be 1264 11bf 33a0 babd
00000020: 168d 55be ad57 4ebf 968c f9be 4c67 f9be
00000030: adfa 06be 7d61 94b9 dc45 97bd a3db 2cbe
00000040: 7ba7 71be b2a5 04bf 6aee a3bd 64f9 1abe
00000050: afee 15bb 6af1 a7bb 715f d1ba e723 0ebd
00000060: 7435 24be bae6 88bd 8507 97bd 5304 9cba
00000070: 2d0d 29be 453c 93bd ad53 ebba df8f 69bd

weight f4 [32, 32, 9]
-0.007504458 -0.23953716 -0.57579404 -0.014629346 -0.013423856 0.0026371311 0.10607926 -0.010927245
-0.124311544 0.19117096 -0.32072735 0.0030549823 0.30640832 -0.08295601 0.0010840582 0.10466148
-0.14543264 0.05890963 -0.14960255 -1.0374646 -0.16163191 -0.30989894 -0.110108554 0.39315096
0.035820007 0.15647665 -0.17462364 -0.1470456 -0.07969555 0.08890256 -0.00937735 -0.017922001
-0.18371442 -0.25005665 0.1147962 -0.026180394 -0.2003042 -0.271065 0.12244615 0.077881165
0.009193845 0.0061576697 -0.10972221 0.016622657 -0.20246266 -0.5602955 -0.5533641 -0.03829335
0.06809962 0.19786082 -0.1527625 -0.0013693548 -0.009725513 -0.22889088 -0.143107 -0.18766463
0.124133885 -0.42544493 0.17647488 0.24389134 -0.06746471 0.13792855 0.6439512 -0.09075456
-0.09442114 -0.33061075 0.22769628 0.21809736 -0.2722909 -0.08803702 -0.17836688 0.0876338
-0.06817945 -0.051409703 -0.06921719 -0.1978933 -0.08798563 0.022256168 -0.14161499 -0.0033947963
0.023486828 0.29086974 0.18866795 0.4749851 0.39967954 0.5550867 0.14259557 0.1351112
-0.04005611 -0.9843867 0.12623225 -0.13464472 0.116324455 0.13602889 0.041572925 -0.15047841
0.106658295 0.01679558 -0.5557047 0.22909343 0.32982254 0.053630456 0.32908785 -0.27133635
-0.23124357 0.113201566 -0.54345715 -0.03691321 -0.070732415 -0.0071019703 0.08609729 0.016872142
0.07775574 0.031152992 -0.0689374 -0.045429233 -0.044113804 -0.053298548 0.21556427 -0.11843388
0.019653102 -0.193481 0.2696835 -0.3117883 0.15850219 -0.14184006 0.31981444 0.2390516
-0.5123949 0.058424357 -0.051467504 -0.41490605 -0.26431674 0.013380749 -0.30767697 -0.13159159
-0.06370745 0.077890135 0.029295456 -0.012966584 -0.065215915 -0.025961235 -0.15785335 -0.09339624
-0.024125645 0.12013883 -0.12068033 -0.45436388 -0.07205918 0.15955567 0.050433453 -0.07083962
-0.05417894 0.538082 0.1526855 0.16532962 0.35447928 0.28140292 -0.14011773 0.060179856
0.2668792 0.26797402 -0.11191378 0.16754526 0.043534998 -0.0136383055 -0.12535913 0.01859912
0.18535605 -0.1779959 -0.12269793 -0.089582175 -0.24439117 -0.12696545 -0.18587703 0.1665511
-0.17292374 0.37551236 0.18653849 0.038905155 0.015417645 -0.22884855 0.018450068 0.2901056
-0.37800106 0.14788182 -0.009086237 -0.15106073 -0.14154372 0.03413627 -0.07406477 0.14744948
0.039245185 -0.0736386 -0.025886273 -0.08052897 -0.06855916 -0.0071509345 0.09427639 -0.059591807
0.024928836 0.08236141 -0.31281638 -0.063692875 -0.266808 -0.025818102 -0.06358242 0.0027530184
-0.018609043 -0.0155758485 -0.20391604 0.074971996 0.26438174 -0.3651264 -0.013175706 0.10253522
-0.3336697 -0.003218551 -0.08785806 0.032748558 -0.05272351 0.18804483 -0.063122384 -0.126901
-0.1452703 -0.05805435 -0.24167691 -0.3848511 -0.5290174 -0.20551811 -0.55772895 -0.5255857
-0.03499975 0.11002857 0.12801176 0.13475612 -0.086033545 -0.38196975 0.29700267 0.18286148
-0.05340895 -0.17386498 0.0027288457 -0.05436109 -0.33602306 -0.24512944 -0.21416236 -0.13965134
0.13120158 0.04089431 0.13148342 0.029958732 -0.10023068 -0.33594656 -0.3533897 -0.41162777
00000000: f5e7 f5bb 3b49 75be 3d67 13bf edaf 6fbc
00000010: bcef 5bbc b8d3 2c3b 1540 d93d 3008 33bc
00000020: 0d97 febd 52c2 433e 6036 a4be 1936 483b
00000030: 8de1 9c3e d7e4 a9bd f516 8e3a c258 d63d
00000040: 4bec 14be 394b 713d 6931 19be a4cb 84bf
00000050: d682 25be 13ab 9ebe 9880 e1bd 154b c93e
00000060: 00b8 123d 6a3b 203e 8ad0 32be 1f93 16be
00000070: 6c37 a3bd 8c12 b63d 75a3 19bc 29d1 92bc
00000080: a21f 3cbe 6d07 80be 451a eb3d 4478 d6bc
00000090: 8b1c 4dbe 08c9 8abe 0cc5 fa3d 2980 9f3d
000000a0: c8a1 163c 47c6 c93b 0ab6 e0bd 3d2c 883c
000000b0: 5f52 4fbe 876f 0fbf 45a9 0dbf 7dd9 1cbd
000000c0: d077 8b3d 079c 4a3e c66d 1cbe ec7b b3ba
000000d0: c257 1fbc 5f62 6abe a48a 12be 282b 40be
000000e0: e839 fe3d ebd3 d9be d5b5 343e a7be 793e
000000f0: f02a 8abd 243d 0d3e fcd9 243f 87dd b9bd
00000100: df5f c1bd d045 a9be 3729 693e ea54 5f3e
00000110: b669 8bbe c14c b4bd cfa5 36be 5a79 b33d
00000120: aba1 8bbd fb92 52bd bec1 8dbd 8ba4 4abe
00000130: cf31 b4bd 9152 b63c 8503 11be 3b7b 5ebb
00000140: 7367 c03c e1ec 943e 2c32 413e 3f31 f33e
00000150: cca2 cc3e 291a 0e3f 9304 123e 975a 0a3e
00000160: e011 24bd c400 7cbf 0743 013e 4ee0 09be
00000170: 843b ee3d 284b 0b3e 5f48 2a3d 0317 1abe
00000180: aa6f da3d e296 893c aa42 0ebf 7897 6a3e
00000190: 80de a83e 9cab 5b3d 347e a83e 99ec 8abe
000001a0: 1dcb 6cbe 39d6 e73d 0220 0bbf 4e32 17bd
000001b0: 28dc 90bd a5b7 e8bb c753 b03d 7237 8a3c
000001c0: 673e 9f3d 8f34 ff3c 0d2f 8dbd 0114 3abd
000001d0: adb0 34bd 944f 5abd e1bc 5c3e 768d f2bd
000001e0: 8bff a03c e21f 46be f513 8a3e b7a2 9fbe
000001f0: 664e 223e 853e 11be b8be a33e f1c9 743e
00000200: 502c 03bf 614e 6f3d 97cf 52bd 916e d4be
00000210: 8654 87be ee3a 5b3c d687 9dbe f2bf 06be
00000220: 0d79 82bd dd84 9f3d 06fd ef3c cc71 54bc
00000230: ec8f 85bd a8ac d4bc 4fa4 21be 8746 bfbd
00000240: 25a3 c5bc 590b f63d 4027 f7bd 62a2 e8be
00000250: c393 93bd 9062 233e 4f93 4e3d 5d14 91bd
00000260: bcea 5dbd bebf 093f 9659 1c3e 2b4c 293e
00000270: 4f7e b53e 0b14 903e 067b 0fbe 277f 763d
00000280: 64a4 883e e433 893e 0d33 e5bd fc90 2b3e
00000290: c151 323d 3373 5fbc 255e 00be 2f5d 983c
000002a0: facd 3d3e 8f44 36be 0d49 fbbd dc76 b7bd
000002b0: ae41 7abe 3b03 02be 8c56 3ebe 5f8c 2a3e
000002c0: ec12 31be 2843 c03e f203 3f3e 035b 1f3d
000002d0: 4a9a 7c3c 4657 6abe 9924 973c b988 943e
000002e0: 5b89 c1be 556e 173e 71de 14bc aaaf 1abe
000002f0: d6f0 10be 79d2 0b3d 45af 97bd fffc 163e
00000300: 8fbf 203d d6cf 96bd 730f d4bc 5fec a4bd
00000310: bf68 8cbd 6352 eabb fb13 c13d 8a16 74bd
00000320: 8f37 cc3c 19ad a83d 7829 a0be 6971 82bd
00000330: 0f9b 88be 7c80 d3bc 8037 82bd fc6b 343b
00000340: fe71 98bc d831 7fbc 5ecf 50be eb8a 993d
00000350: 0b5d 873e d9f1 babe ebde 57bc fcfd d13d
00000360: c1d6 aabe 53ee 52bb edee b3bd 5a23 063d
00000370: 9bf4 57bd d38e 403e 4f46 81bd 56f2 01be
00000380: bdc1 14be 66ca 6dbd 277a 77be 340b c5be
00000390: af6d 07bf 5773 52be 53c7 0ebf c98c 06bf
000003a0: e65b 0fbd a956 e13d 8415 033e 82fd 093e
000003b0: 5b32 b0bd 8a91 c3be bc10 983e 0a40 3b3e
000003c0: 58c3 5abd a909 32be 6fd6 323b bca9 5ebd
000003d0: 370b acbe 3603 7bbe 614d 5bbe c300 0fbe
000003e0: b559 063e cb80 273d 97a3 063e 046c f53c
000003f0: be45 cdbd 3001 acbe 7fef b4be e0c0 d2be

bias f4 [32]
-0.00016639954 0.029016074 0.018841645 0.034164328 -0.045697566 -0.36404842 -0.040738635 0.09033859
-0.6029661 0.029978584 -0.39781708 -0.0011218535 -0.0048028473 -0.07264297 0.06320043 -0.0014470485
-0.25877324 0.060895488 0.050324574 -0.05645606 0.084867194 -0.065284155 -0.683937 0.058500886
-0.08503983 -0.4620553 0.074463844 -0.76205 -0.002820825 0.05900106 -0.2992253 -0.005185007
00000000: 897b 2eb9 1eb3 ed3c cb59 9a3c e5ef 0b3d
00000010: 5f2d 3bbd 8e64 babe 8edd 26bd 7003 b93d
00000020: fd5b 1abf a695 f53c aeae cbbe 280b 93ba
00000030: 3461 9dbb d6c5 94bd 3a6f 813d e4aa bdba
00000040: ed7d 84be 8c6d 793d 2421 4e3d 783e 67bd
00000050: dace ad3d b3b3 85bd 7f16 2fbf a09e 6f3d
00000060: 5d29 aebd 8392 ecbe 8080 983d b515 43bf
00000070: 97dd 38bb 18ab 713d 0f34 99be fee6 a9bb

weight f4 [32, 32, 9]
0.20827384 0.24394973 0.15092413 0.35971934 0.26036927 0.30251563 0.35406217 0.081084155
-0.116363436 -0.35690033 -0.009757999 0.13505916 -0.011626273 0.1385849 0.29779693 -0.06602226
-0.5102706 -0.4915485 -0.6633191 -0.7777746 -0.8126559 -0.66555285 -0.32088012 -0.26182315
-0.09788636 0.0063231024 0.1306028 -0.07887437 -0.17269006 0.11977091 0.25999045 0.44489104
0.13068 0.20785315 -0.2594818 -0.3891829 -0.13438995 -0.16857165 -0.29221573 -0.032277472
0.43722087 0.3625283 0.108255446 0.0003752054 -0.26514655 -0.088130884 0.03576151 0.13736331
0.16673861 0.05282194 -0.11966523 -0.37471935 -0.6262233 -0.25895268 -0.3921011 -0.53920466
-0.4941889 -0.35040206 -0.37109914 -0.41487774 -0.38636523 -0.26717362 0.26721483 -0.23235632
-0.09289038 -0.03857545 0.14643776 0.19315764 0.1842112 -0.025969844 -0.045023162 0.014363566
0.0013082552 0.18104981 0.051945604 -0.0925839 -0.11493042 -0.10801447 -0.2826567 -0.3155315
-0.55894786 -0.4769019 -0.8543516 -0.7800081 -0.37556285 -0.21732137 -0.14464623 -0.056467593
0.09654693 0.078366116 0.13763261 -0.30085716 0.012722965 0.45971975 0.2682086 0.08828657
-0.15972209 -0.58100134 -0.6937452 1.0361537 0.66863763 0.8785585 0.45360604 0.29983598
0.27339673 0.35947916 0.4321453 0.6349789 0.25194988 0.47584426 0.6040637 0.9430192
1.0340434 0.8145234 0.9620499 0.66401714 0.2828098 -0.6079945 -0.23153357 -0.06661242
-0.052563738 -0.30036432 -0.26445007 -0.42727587 -0.13855736 -0.19349325 -0.05385089 -0.025894301
-0.16004188 -0.3646205 -0.4540519 -0.051333893 0.33694488 0.16993111 0.338357 0.44055882
0.66993386 0.649086 0.8057434 0.72461873 0.77051854 1.0499402 0.8539262 0.75097936
-0.122360714 0.026280064 0.09154431 0.035695564 0.0052519664 -0.099943005 0.022885934 -0.03133655
-0.10661057 -0.056704715 -0.26890525 -0.10436404 0.073081605 0.19348572 -0.058016635 -0.091986686
-0.34995413 -0.47778392 -0.19277422 -0.08636712 0.07813683 0.16634582 0.17636731 0.09077581
7.0046706e-05 -0.05982729 -0.050158743 0.029698076 -0.060513258 0.032475054 -0.12487883 -0.3136347
-0.42328072 -0.20380807 -0.070077725 0.20269248 -0.053233597 -0.05723045 -0.09432843 -0.1048435
-0.10193852 -0.053997748 0.08373045 -0.05766307 -0.080006994 -0.105293505 -0.01983474 -0.18269369
-0.12219285 -0.2537229 -0.39101198 -0.63986063 -0.28622255 -0.10508398 -0.2764337 0.058918815
0.16711676 0.15056448 -0.10451809 -0.18006541 -0.062182777 -0.07866565 0.060564514 -0.120052
-0.25817785 -0.1472887 0.21632837 0.47563517 0.30436257 -0.037272036 0.056832395 -0.05563787
-0.059162967 0.11036971 -0.27793518 -0.08428354 -0.24997345 -0.35857126 -0.57128173 -0.4452576
-0.24941964 -0.058071658 -0.018086683 -0.0036130669 0.012994995 0.034813374 0.3038287 -0.046233177
-0.36978865 -0.57090664 -0.089892365 0.13979751 0.3444919 0.119468145 0.09649397 0.32068795
-0.5689969 -0.9101207 -0.07118222 -0.51989096 -0.2267795 0.22299454 0.20802236 0.07763915
-0.09271528 -0.19394566 -0.81231874 -0.7706587 -0.12321465 0.25627345 0.36204162 0.20944937
00000000: bd45 553e f5cd 793e db8b 1a3e 222d b83e
00000010: 1f4f 853e 54e3 9a3e a347 b53e 730f a63d
00000020: f44f eebd a4bb b6be 04e0 1fbc f34c 0a3e
00000030: 207c 3ebc 33e9 0d3e d778 983e ae36 87bd
00000040: 18a1 02bf 3fac fbbe 48cf 29bf 3c1c 47bf
00000050: 380a 50bf ac61 2abf 664a a4be af0d 86be
00000060: a578 c8bd 0732 cf3b bebc 053e e388 a1bd
00000070: aad5 30be 734a f53d 781d 853e c2c8 e33e
00000080: fad0 053e 75d7 543e ccda 84be fb42 c7be
00000090: 859d 09be 0c9e 2cbe 4d9d 95be 6235 04bd
000000a0: 6adb df3e 4f9d b93e 08b5 dd3d 37b7 c439
000000b0: 4ac1 87be f77d b4bd a97a 123d f8a8 0c3e
000000c0: 87bd 2a3e d25b 583d 0b13 f5bd 37db bfbe
000000d0: 2c50 20bf 7295 84be 7ac1 c8be 5109 0abf
000000e0: 5406 fdbe e667 b3be b500 bebe db6a d4be
000000f0: aad1 c5be fbca 88be 62d0 883e d1ee 6dbe
00000100: 503d bebd 4b01 1ebd c8f3 153e 1ecb 453e
00000110: dca1 3c3e b6be d4bc 356a 38bd 2a55 6b3c
00000120: c379 ab3a 1f65 393e eac4 543d a19c bdbd
00000130: a460 ebbd b136 ddbd 61b8 90be 588d a1be
00000140: 3517 0fbf 7c2c f4be c9b6 5abf 9cae 47bf
00000150: c649 c0be 7e89 5ebe 241e 14be 904a 67bd
00000160: 66ba c53d 6a7e a03d 90ef 0c3e f309 9abe
00000170: fc73 503c 6360 eb3e a352 893e 97cf b43d
00000180: 308e 23be 81bc 14bf 4999 31bf afa0 843f
00000190: d62b 2b3f 36e9 603f 0d3f e83e 1a84 993e
000001a0: a8fa 8b3e a70d b83e 2642 dd3e fa8d 223f
000001b0: 93ff 803e dca1 f33e eba3 1a3f b569 713f
000001c0: 895b 843f 9b84 503f e748 763f 07fd 293f
000001d0: 72cc 903e 87a5 1bbf 2317 6dbe 186c 88bd
000001e0: 134d 57bd 5ac9 99be 0066 87be e7c3 dabe
000001f0: fbe1 0dbe 1823 46be c092 5cbd 4920 d4bc
00000200: 05e2 23be 8aaf babe 7e79 e8be 7d43 52bd
00000210: 0a84 ac3e 6c02 2e3e 213d ad3e ed90 e13e
00000220: c980 2b3f 802a 263f 3345 4e3f 9d80 393f
00000230: b440 453f 7164 863f e89a 5a3f 2f40 403f
00000240: 4198 fabd 4a49 d73c 957b bb3d 8335 123d
00000250: b018 ac3b ebae ccbd 487b bb3c c15a 00bd
00000260: a456 dabd 3443 68bd f3ad 89be d0bc d5bd
00000270: cfab 953d 1f21 463e daa2 6dbd 8463 bcbd
00000280: 302d b3be 18a0 f4be 9b66 45be 3fe1 b0bd
00000290: 3406 a03d 8f56 2a3e a299 343e abe8 b93d
000002a0: 0ae6 9238 760d 75bd 4173 4dbd 6149 f33c
000002b0: c0dc 77bd 9004 053d 79c0 ffbd ba94 a0be
000002c0: 40b8 d8be 10b3 50be e984 8fbd 9e8e 4f3e
000002d0: 790b 5abd 7a6a 6abd 442f c1bd 30b8 d6bd
000002e0: 25c5 d0bd be2c 5dbd df7a ab3d 1c30 6cbd
000002f0: b5da a3bd 1fa4 d7bd 777c a2bc 0e14 3bbe
00000300: 3f40 fabd f8e7 81be b932 c8be e8cd 23bf
00000310: c38b 92be 4536 d7bd b888 8dbe db54 713d
00000320: a820 2b3e 932d 1a3e 950d d6bd 1163 38be
00000330: 5eb3 7ebd 751b a1bd 7f12 783d d3dd f5bd
00000340: e32f 84be d9d2 16be 2f85 5d3e 7486 f33e
00000350: 69d5 9b3e 90aa 18bd 16c9 683d 89e4 63bd
00000360: de54 72bd 8409 e23d 854d 8ebe d99c acbd
00000370: 0af9 7fbe a796 b7be 853f 12bf cef8 e3be
00000380: dd67 7fbe 8cdc 6dbd 862a 94bc 34c9 6cbb
00000390: f6e8 543c 7898 0e3d 6f8f 9b3e 005f 3dbd
000003a0: f054 bdbe f026 12bf 7d19 b8bd 1427 0f3e
000003b0: 3e61 b03e b7ab f43d a19e c53d 3631 a43e
000003c0: c8a9 11bf acfd 68bf fcc7 91bd 9317 05bf
000003d0: e338 68be ae58 643e d003 553e 4601 9f3d
000003e0: 82e1 bdbd b199 46be 1ff4 4fbf e349 45bf
000003f0: f657 fcbd 4636 833e 855d b93e e579 563e

bias f4 [32]
-0.043815557 0.06580662 -0.12443963 0.45697135 0.3480278 0.29777622 0.10257425 0.28747568
0.21630543 0.12343832 0.38301083 0.13498817 0.17893308 0.21983108 -0.102122076 -0.17539687
-0.25710237 0.41252044 -0.20492692 -0.08930525 -0.1863673 0.11954369 -0.20430055 -0.21164255
0.12626913 0.3122001 -0.21971756 -0.102393046 -0.15850782 0.33417493 0.34736732 0.36711732
00000000: f177 33bd 9fc5 863d 34da febd 26f8 e93e
00000010: b330 b23e 2076 983e 7312 d23d 0330 933e
00000020: 2c7f 5d3e 3bcd fc3d ff19 c43e 573a 0a3e
00000030: 3c3a 373e 661b 613e 6125 d1bd 3d9b 33be
00000040: eca2 83be e135 d33e 5dd8 51be ace5 b6bd
00000050: 12d7 3ebe 52d3 f43d 2a34 51be d3b8 58be
00000060: b24c 013e b1d8 9f3e a4fd 60be 72b3 d1bd
00000070: e04f 22be fa18 ab3e 21da b13e cdf6 bb3e

weight f4 [32, 6, 9]
-0.08321771 0.083041675 0.051000576 0.12668465 -0.0005315699 -0.16623022 -0.05912222 0.09464714
-0.09474339 0.059890702 0.010812655 -0.0065320227 -0.1548801 0.0631779 0.12296989 0.06826874
-0.001871669 -0.16776255 1.0151004 0.018334577 -1.3328326 -0.06360765 -1.2043555 1.2281561
0.75991136 0.697505 -0.5384802 0.10906426 -0.018808663 -0.120373406 -0.13627234 -0.20770346
-0.020894893 0.35984105 0.10988802 0.28377914 0.26304153 -0.21372047 0.31217563 -0.6217572
0.41474456 -0.4127463 0.3925315 -0.16303295 0.24632993 -0.10094786 0.06203664 0.21429117
-0.21108277 0.41523898 -0.39393243 0.04416058 -0.12650332 0.18867142 -0.055537596 -0.085764594
0.13173391 0.12640347 -0.034865234 0.07482533 0.105864525 -0.09798156 -0.17329021 -0.03442922
0.11321315 0.068591975 -0.0042320546 -0.15375054 -0.042581998 0.0042893626 -0.0467205 0.15235853
0.26779115 0.09330311 -0.031824704 -0.4239291 -0.38879973 0.0459799 0.29325706 -0.34756643
-0.6508543 0.24590774 0.23815534 0.18037519 0.13087614 0.10448642 0.08398191 0.1081766
0.06410019 0.18511716 0.16971856 0.05898381 0.05647119 0.16366939 0.09431838 0.027471827
0.15975016 -0.020615187 0.03587686 -0.31382984 -0.29595026 -0.1182219 -0.16367535 -0.49379885
-0.17306964 0.12077043 -0.29749855 -0.55211586 -0.016966363 0.10309879 -0.090850376 -0.13739347
-0.24306937 0.053755153 -0.04489547 0.17536046 0.21559146 -0.04573647 0.028301165 0.07728585
0.018400246 0.02022944 0.091683924 -0.11236155 0.021892475 -0.093321554 0.40875456 0.08086849
-0.24418136 0.25473458 -0.6090216 -1.2527928 -1.0201539 -0.44506904 -1.217251 -0.30537802
-0.050266203 0.032932438 0.1392682 0.42229885 0.2587122 0.35784295 0.10013152 -0.26052102
0.29832658 -0.25078207 0.20905401 -0.36354384 -0.016756656 -0.3154201 -0.12263308 -0.15748629
0.063017815 0.078796566 -0.05663829 0.0906721 -0.19663931 -0.11486052 -0.009026704 -0.04042828
0.1356929 0.37793356 0.027788717 -0.08846379 0.06867263 -0.01904834 0.07983145 0.04467453
0.10352889 -0.04568131 -0.20610464 0.09617214 0.06814488 -0.13151725 -0.004040187 0.09490528
-5.964098e-05 -0.07597845 -0.04384271 0.12684385 -1.8902622 -0.40992284 1.1209817 -0.37754175
1.9832588 1.0410211 -0.4293528 0.48618922 -0.05989673 -0.0278985 0.09397334 0.17689691
-0.17163606 -0.015046467 0.09017935 -0.37795067 0.2011641 0.08243736 -0.3170533 0.18261509
-0.43342498 0.68559355 -0.13371417 0.093025416 0.2769147 -0.22436927 0.15252285 0.08507438
0.042892147 -0.34280542 0.57553995 -0.5347748 0.32758144 0.12708035 -0.06952156 -0.08715348
0.09075209 0.03827154 -0.08805746 0.08734449 0.017297622 -0.15371223 0.009809359 0.08125732
-0.07049787 0.05918342 -0.063690916 0.0047924286 -0.04849103 0.11211398 0.23681751 0.054483052
-0.099006705 -0.088063754 0.26959968 0.018461013 -0.46776965 -1.0584129 -0.79144794 -0.025003636
0.1826595 -0.31157318 -0.22997877 -0.121332355 -0.056860235 -0.049486488 -0.18404037 -0.5693952
0.031644884 0.28167415 -0.24949887 -0.096973896 -0.014763142 0.14504036 0.022525363 -0.014475579
00000000: 0c6e aabd c111 aa3d fbe5 503d 9fb9 013e
00000010: 0d59 0bba 4138 2abe 242a 72bd 5cd6 c13d
00000020: d308 c2bd f44f 753d 9027 313c 940a d6bb
00000030: e498 1ebe 6a63 813d a3d7 fb3d 7bd0 8b3d
00000040: ca52 f5ba f2c9 2bbe cfee 813f 6532 963c
00000050: 429a aabf ba44 82bd 5228 9abf 3834 9d3f
00000060: 8d89 423f b08f 323f d7d9 09bf 155d df3d
00000070: a014 9abc 5586 f6bd fa8a 0bbe 37b0 54be
00000080: c42b abbc 163d b83e f80c e13d 804b 913e
00000090: 61ad 863e 8ad9 5abe 7cd5 9f3e 7b2b 1fbf
000000a0: 6659 d43e 7c53 d3be e4f9 c83e 1cf2 26be
000000b0: ea3d 7c3e c0bd cebd 221a 7e3d 256f 5b3e
000000c0: 1526 58be 349a d43e 83b1 c9be b9e1 343d
000000d0: 168a 01be 1533 413e 647b 63bd 59a5 afbd
000000e0: 41e5 063e e96f 013e d9ce 0ebd 063e 993d
000000f0: 80cf d83d 8eaa c8bd fd72 31be a705 0dbd
00000100: 4cdc e73d f379 8c3d 0cad 8abb c870 1dbe
00000110: 766a 2ebd c88d 8c3b ff5d 3fbd e003 1c3e
00000120: ec1b 893e b315 bf3d 9f5a 02bd 3c0d d9be
00000130: c210 c7be 6b55 3c3d ca25 963e 3af4 b1be
00000140: 639e 26bf 3dcf 7b3e fede 733e 46b4 383e
00000150: 6504 063e fafc d53d b5fe ab3d b18b dd3d
00000160: f646 833d 5a8f 3d3e b4ca 2d3e 0299 713d
00000170: 564e 673d f398 273e ff29 c13d 990c e13c
00000180: 8c95 233e 2ee1 a8bc 9df3 123d 4eae a0be
00000190: cb86 97be 531e f2bd 839a 27be 34d3 fcbe
000001a0: 2b39 31be 7d56 f73d bb51 98be 7757 0dbf
000001b0: 0bfd 8abc 7525 d33d c30f babd e0b0 0cbe
000001c0: 2de7 78be 5d2e 5c3d 50e4 37bd b191 333e
000001d0: 02c4 5c3e 2a56 3bbd d8d7 e73c 0b48 9e3d
000001e0: 1dbc 963c 36b8 a53c c8c4 bb3d d01d e6bd
000001f0: d957 b33c 5f1f bfbd 4748 d13e 619e a53d
00000200: ae0a 7abe 926c 823e d7e8 1bbf 845b a0bf
00000210: 6794 82bf 17e0 e3be e1ce 9bbf 825a 9cbe
00000220: efe3 4dbd 2ae4 063d 539c 0e3e 8e37 d83e
00000230: ed75 843e 3137 b73e c111 cd3d 0363 85be
00000240: 43be 983e 8266 80be 4112 563e 6b22 babe
00000250: 4145 89bc be7e a1be 0d27 fbbd 1644 21be
00000260: 7c0f 813d 1860 a13d 8dfd 67bd 4bb2 b93d
00000270: d15b 49be fe3b ebbd bee4 13bc 2098 25bd
00000280: 14f3 0a3e 8280 c13e 2aa5 e33c 812c b5bd
00000290: 3ca4 8c3d 440b 9cbc ac7e a33d a4fc 363d
000002a0: f406 d43d 531c 3bbd 180d 53be e6f5 c43d
000002b0: 8b8f 8b3d 75ac 06be 8c63 84bb b35d c23d
000002c0: 0427 7ab8 979a 9bbd 6a94 33bd 5be3 013e
000002d0: 1df4 f1bf 68e1 d1be 547c 8f3f 274d c1be
000002e0: 6ddb fd3f 2e40 853f 21d4 dbbe cbed f83e
000002f0: 4656 75bd 658b e4bc 1875 c03d 7724 353e
00000300: 5dc1 2fbe 7585 76bc f3af b83d c082 c1be
00000310: f6fd 4d3e ebd4 a83d cf54 a2be 73ff 3a3e
00000320: e1e9 ddbe 0f83 2f3f 5eec 08be 1c84 be3d
00000330: c3c7 8d3e 0fc1 65be f32e 1c3e 7a3b ae3d
00000340: adaf 2f3d 3184 afbe 9656 133f 00e7 08bf
00000350: c1b8 a73e 5a21 023e 5261 8ebd 867d b2bd
00000360: 3bdc b93d 9ec2 1c3d 7857 b4bd abe1 b23d
00000370: beb3 8d3c bd66 1dbe 6fb7 203c 3d6a a63d
00000380: 3061 90bd 506a 723d 6270 82bd ce09 9d3b
00000390: 889e 46bd 049c e53d 4a80 723e 9f29 5f3d
000003a0: 07c4 cabd c55a b4bd f808 8a3e 8d3b 973c
000003b0: 817f efbe 137a 87bf 559c 4abf 6dd4 ccbc
000003c0: 180b 3b3e 8586 9fbe 8e7f 6bbe 197d f8bd
000003d0: 47e6 68bd 58b2 4abd 1475 3cbe e2c3 11bf
000003e0: 119e 013d 9837 903e a27c 7fbe 409a c6bd
000003f0: 1be1 71bc 7685 143e 1c87 b83c fb2a 6dbc

bias f4 [32]
-0.003982609 -0.21303053 -0.026828254 -0.018548653 -0.05852988 -0.3665355 -0.08384736 -0.08188289
-0.070078455 -0.22889078 -0.03451374 -0.029644959 -0.07548264 -0.4678177 -0.31390828 -0.42766753
-0.035481155 -0.047562014 -0.038386464 -0.3345617 -0.03891461 -0.031730812 -0.27122775 -0.30019075
-0.007951399 -0.0023804784 -0.32793653 -0.43209448 -0.039849438 -0.1361076 -0.113928795 -0.07103936
00000000: 8c80 82bb ad24 5abe edc6 dbbc 58f3 97bc
00000010: 07bd 6fbd 8baa bbbe 2ab8 abbd 37b2 a7bd
00000020: 4b85 8fbd 5862 6abe 485e 0dbd fcd9 f2bc
00000030: a496 9abd cd85 efbe 96b8 a0be 3df7 dabe
00000040: b054 11bd 63d0 42bd 203b 1dbd ac4b abbe
00000050: ed64 1fbd 2bf8 01bd 5dde 8abe 9ab2 99be
00000060: 9646 02bc cd01 1cbb 4ce7 a7be 7d3b ddbe
00000070: 2a39 23bd ca5f 0bbe 8053 e9bd 157d 91bd
