models/v1_default.pt (torch, 588282 bytes, 57 tensors)

cls f4 [1, 1, 32]
000000 cf 0c 6b be 3c d5 a2 3d c3 75 cf be e3 56 12 3f
       -0.22954105 0.079508275 -0.40519533 0.5716383
000010 b9 5c bd be 4b 01 67 bf 07 54 4a 40 3f 14 e3 3d
       -0.36984804 -0.9023635 3.1613786 0.11087846
000020 45 4d c3 be b2 78 46 bf 88 23 fc 3e 24 7b 6a bf
       -0.3814489 -0.77527916 0.49245858 -0.9159415
000030 4a 70 57 3e 3d ad 5f bf 1c 73 8a 3d 8b ae d1 3f
       0.21038929 -0.87373716 0.067602366 1.6381391
000040 11 60 2c 3e cd 50 80 3b 68 5f f8 bf 71 9d 30 bd
       0.16833521 0.003915882 -1.9404116 -0.043118898
000050 88 16 f4 bf 7d c3 1a bf c7 18 22 3f 0b bf a7 bf
       -1.9069376 -0.6045454 0.6331906 -1.3105177
000060 89 5b 0c bd 41 05 f7 3f 88 50 06 40 2d 86 3b 3f
       -0.034266982 1.9298478 2.0986652 0.7325161
000070 f8 73 ed 3e f6 1f 8c bf 50 89 b4 be 4e 2d ac be
       0.4637754 -1.0947254 -0.3526101 -0.33628315

gaze_pe f4 [1, 120, 32]
000000 20 61 3b 3d c3 fa 95 be df 41 5f bf 2b c9 b6 3f
       0.045746922 -0.29292879 -0.87209886 1.4280142
000010 fb 69 ab bf 88 88 d6 bf 7e f5 a0 bb af 02 5f bf
       -1.3391718 -1.6760416 -0.0049120774 -0.8711347
000020 ad d0 9b 3e d8 cc 7d 3e 75 85 0f 3f 1a 2c 49 bf
       0.30432644 0.24785173 0.56063014 -0.7858292
000030 9a 42 5e bf 53 e7 98 bf 4d c9 87 bf e9 72 15 bf
       -0.86820376 -1.1945595 -1.0608307 -0.58378464
000040 c9 ce 41 bf 6d 88 a1 bf bb 61 a0 be 81 6d de be
       -0.75706154 -1.2619759 -0.31324562 -0.4344292
000050 de ff 41 bf 9b 8c c9 3e 44 6e 36 3f 4a 42 8d bf
       -0.7578105 0.39365086 0.71262 -1.1035855
000060 22 3d a3 3e 84 01 f4 3e a0 6f 21 3f ab 29 12 40
       0.31882578 0.47657406 0.6306095 2.2837932
000070 14 ca 4c bf 9d f5 b2 3f 5e 03 ce 3e 57 e4 1a 3f
       -0.79995847 1.3981205 0.40236944 0.6050467
000080 a4 ca 82 3f 47 1a c3 bf a6 34 cb be 95 ba cb bf
       1.0218091 -1.5242394 -0.39688605 -1.5916315
000090 08 bd b6 3f 27 eb 40 bf 58 d9 9f be 3d a6 ae 3e
       1.4276438 -0.75358814 -0.31220508 0.34111205
0000a0 20 10 55 3e 04 5a 53 bf 88 1e 0c 3d 58 5b ad bf
       0.20806932 -0.8255923 0.034208804 -1.3543501
0000b0 44 c1 dd 3f 1e 46 94 bf 55 01 d5 3d f7 08 0b 3d
       1.7324605 -1.1583898 0.10400645 0.033944096
0000c0 2e f7 20 bf a1 9b c2 3f cb 6a ee 3b cf f8 0e c0
       -0.62877166 1.5203744 0.0072759143 -2.233936
0000d0 16 56 7d bf fa b9 08 bf b3 c0 97 be 95 2d 8b 3e
       -0.9895948 -0.5340878 -0.29639205 0.27183214
0000e0 a0 ca 1e 3e 74 0c c3 3e f4 0f de 3f 65 52 58 3e
       0.15506983 0.38095438 1.7348619 0.21125181
0000f0 67 b8 56 3f eb 0a d4 bf b9 56 d8 be 0f 6e d8 bf
       0.83875126 -1.6565832 -0.42253664 -1.6908587
000100 b2 b8 8a 3f 6a 67 1b be f0 c8 8d 3f 44 73 81 3f
       1.0837615 -0.15176168 1.1076946 1.0113301
000110 a4 54 81 bf 61 c8 70 bf 30 84 0c 3f b3 7e ef 3e
       -1.0103955 -0.94055754 0.548892 0.4677635
000120 65 e0 9f be 7c 0f d5 3f c5 45 92 3f c2 e3 4b bf
       -0.31225887 1.664535 1.1427542 -0.79644406
000130 ef ed 87 3f 55 23 2a 3f 83 00 16 3f 7f 43 11 bf
       1.0619487 0.6646016 0.5859453 -0.56743616
000140 fc 12 5f 3f 4c 0d 6f 3f d3 b2 75 3f 31 aa 2a 3f
       0.8713834 0.93379664 0.9597599 0.6666594
000150 1c 8a 55 3e da 43 8b 3f 73 cf 09 3f 40 9e 83 3f
       0.20853466 1.0880082 0.5383217 1.0282669
000160 ca 02 05 3e fa f0 50 bf 52 1d da be 77 68 b7 3e
       0.12989345 -0.816177 -0.42600495 0.35821888
000170 cb ef cb bd ad 36 01 bf c6 ae 00 3f c1 d7 7a 3f
       -0.09957846 -0.50474054 0.50266683 0.97985464
000180 26 d5 d0 3d b8 a1 6f bf 32 c0 f4 3e 03 07 04 40
       0.10196905 -0.9360614 0.47802883 2.062928
000190 af 05 d3 bf 4f 42 9f 3f f5 ce 5b 3f 31 b1 88 bf
       -1.648611 1.2442111 0.85862666 -1.0679075
0001a0 ee 91 67 3f c8 d5 89 bf f3 29 e2 be 5b a2 9f bf
       0.90457046 -1.0768366 -0.4417263 -1.2471422
0001b0 8f 88 91 3f bd d9 6c bf 15 cf 4e 3f a4 be 93 bf
       1.1369799 -0.9251974 0.8078473 -1.1542554
0001c0 a5 1c d9 3f 23 2a ed 3e b3 ab b4 bd 15 6c d4 3f
       1.6961867 0.4632121 -0.088218115 1.6595484
0001d0 d6 62 97 3f c3 fe 60 3e 8f 71 7a 3f 85 44 d4 be
       1.1827037 0.21972184 0.97829527 -0.41458526
0001e0 7f b9 02 40 39 9a cd bf 0d be 94 bf b0 0f 77 be
       2.0425718 -1.606269 -1.1620499 -0.24127078
0001f0 22 b6 59 bf 4f 72 b1 bf 67 ea b3 bf bb 4c 15 c0
       -0.8504354 -1.3863009 -1.4055909 -2.3328083
000200 97 0d 60 3f 9a d3 a6 bf 2b cb b3 bf 05 da 13 bf
       0.87520736 -1.3033326 -1.4046377 -0.57754546
000210 fd a8 c0 bd 5b bf 62 be 40 01 c6 3d 26 45 2e 3c
       -0.09407232 -0.22143309 0.09668207 0.010636603
000220 45 92 99 3f 90 10 1b bf a0 16 be 3f 99 29 2d be
       1.1997763 -0.6057215 1.4850655 -0.169104
000230 0c c1 ac 3f 0a 19 30 40 7a ec 03 3f 80 02 2e 3e
       1.3496413 2.7515283 0.5153271 0.16993141
000240 e9 3b a7 3f 85 eb ad 3f da 19 bf bb f8 b4 9e be
       1.3065158 1.35875 -0.005831939 -0.30997443
000250 0e 9c 13 bf a2 67 bc bc 08 50 55 3f 6c 20 09 bf
       -0.57659996 -0.022998635 0.83325243 -0.53565097
000260 e9 24 58 3e 1f 14 04 3f eb 3a 2a bb 7b 16 e3 3d
       0.2110783 0.515932 -0.002597506 0.11088272
000270 8a 47 82 bf 30 3d c2 bf 23 c9 fe 3d d9 50 4a bf
       -1.0178082 -1.5174923 0.124407075 -0.79029614
000280 8a 8c 20 bf 03 38 1b 3f a4 39 17 3f 39 36 9f 3f
       -0.62714446 0.6063234 0.5907233 1.2438422
000290 16 7e d8 bf 91 52 bf bf c6 e3 c2 bd d8 5e 09 bf
       -1.6913478 -1.4947072 -0.095161006 -0.53660345
0002a0 06 79 19 bf 7e f0 f1 bd ab 0f db 3e a3 dc 9b bf
       -0.5995029 -0.11813448 0.4278539 -1.2176708
0002b0 d5 51 7d 3e 13 f0 c0 bf 9f f0 7c bd 83 f5 e0 be
       0.24738248 -1.5073265 -0.06175291 -0.4393731
0002c0 f9 e6 37 be 1b 00 fd 3e 29 2d 8a 3e 11 4a 1e bf
       -0.17959203 0.49414143 0.2698758 -0.61831766
0002d0 75 30 8e bf 7e fe 40 bd c8 5b e6 3e 0d bd 0a bf
       -1.1108538 -0.047117703 0.449919 -0.5419472
0002e0 e7 97 41 bf 8a 1c a5 bf 62 67 8d be 3f 31 81 3e
       -0.7562241 -1.2899334 -0.27617937 0.25232884
0002f0 bb 05 19 bf 01 14 94 3f 49 c4 31 be 3f 21 e3 be
       -0.5977437 1.1568605 -0.17360033 -0.44361302
000300 e8 e8 4e 3f ba 94 ae bf 5f 08 bf be 1f b5 dd bf
       0.80824137 -1.3639138 -0.37311074 -1.7320899
000310 d7 16 09 3e af 61 1c 3d 8b 31 43 bd 73 36 b6 3e
       0.13387619 0.038179096 -0.04765467 0.35588416
000320 1f 43 16 3f d7 d3 b7 bd 69 60 29 bf b1 85 9c 3b
       0.5869617 -0.08975952 -0.66162735 0.0047766794
000330 59 e6 94 3f 3e 00 5b 3f 49 ad 92 3f 80 30 7d bf
       1.1632797 0.85547245 1.1459132 -0.9890213
000340 67 8f 83 bf e5 06 24 bf 1a a8 34 3e e0 15 2a 3f
       -1.0278138 -0.6407302 0.1764225 0.6643963
000350 85 00 66 3f 4d c0 cc 3f 9d c8 5f be 2a e8 af be
       0.8984454 1.5996186 -0.21853872 -0.34356815
000360 96 15 35 be 42 9a a9 3f c2 eb c7 3f fe e6 1e 3f
       -0.17684016 1.3250201 1.5618823 0.62071216
000370 b2 68 bc bf 8d e4 31 bf 1f 41 3b bf 0e fb 38 bf
       -1.471945 -0.69489366 -0.7314624 -0.7225808
000380 0b 29 56 3f e9 69 39 bf b5 7c e8 bf 88 d8 b0 bf
       0.83656377 -0.7242723 -1.8163058 -1.381608
000390 e6 f4 35 bf a7 f8 a7 3f 0b db be be fc 30 0b 3f
       -0.7107681 1.3122758 -0.37276492 0.5437162
0003a0 c6 e5 2b 3f 67 0c 84 3f 65 96 08 3d cb 9c 01 be
       0.6714748 1.0316285 0.033346552 -0.12657468
0003b0 c7 2f 57 bf 7d 8e b3 3f c4 05 19 3e 39 39 21 40
       -0.8405728 1.4027859 0.14943606 2.5191176
0003c0 07 32 18 bf 80 f8 0e 3e 52 40 a5 3e f9 16 0e 3f
       -0.59451336 0.13961983 0.32275635 0.55503803
0003d0 30 67 4e 3d 7c 87 9a bf c7 31 5f be cd e7 5f 3f
       0.050391376 -1.2072597 -0.21796332 0.87463075
0003e0 33 50 05 40 6c 96 94 3e ed a1 c1 3f 87 d0 f4 be
       2.08302 0.29021013 1.5127541 -0.47815344
0003f0 f5 09 b3 be b5 6e d7 3f 42 e1 81 3e 06 43 eb 3e
       -0.34968534 1.683066 0.2536717 0.45949572

imu_pe f4 [1, 120, 32]
000000 22 d2 02 c0 e1 f1 59 3f 05 f7 ad 3f 39 ae a1 be
       -2.0440755 0.851347 1.3591009 -0.31578234
000010 3d eb aa bf c2 f4 83 3e 81 3c 40 3f 13 da ab bd
       -1.3353039 0.25772673 0.7509232 -0.08391204
000020 be 76 60 3f 52 e3 c2 bf 9c 08 06 3e f1 34 81 3f
       0.87681186 -1.5225623 0.13089222 1.0094281
000030 d0 45 81 bf 1c ba 21 bf 34 ba 51 bf 01 45 bb bf
       -1.009943 -0.63174605 -0.8192475 -1.4630433
000040 dc 4c 08 bf 63 69 12 bf 87 4c e2 3c 6f 6c 07 3f
       -0.5324228 -0.5719206 0.027624382 0.5289983
000050 85 c0 80 bf 37 76 c8 3f 6e c8 98 be 4e 09 3b 3f
       -1.0058752 1.5661076 -0.29840416 0.7306107
000060 0f 08 c7 3f 67 20 a7 3e fa 2f 65 3f 3f a4 46 3e
       1.5549334 0.3264191 0.8952633 0.19398592
000070 46 be a9 3f 62 64 40 be a6 26 2a be e2 d3 86 3f
       1.3261192 -0.18788293 -0.16616306 1.0533412
000080 72 ca b2 3f 01 dc 95 be 09 9d 1e 40 46 98 e2 3e
       1.3968031 -0.29269412 2.4783347 0.442568
000090 5a c6 86 bf 6b da 55 3e 94 9b d0 bf 0d 9e 25 bf
       -1.0529282 0.20884101 -1.6297479 -0.6469429
0000a0 14 7f 2f 3f a4 a4 49 be bd d2 5d 3e b9 b0 76 3f
       0.6855328 -0.19691712 0.21662422 0.9636341
0000b0 01 51 60 bf 8a 36 14 bf f0 f6 4a be 3a 05 de bf
       -0.876236 -0.5789572 -0.19820762 -1.7345345
0000c0 ab eb 4e 3e 59 b2 ee bf b5 5a aa be 06 08 58 3e
       0.20207088 -1.8648177 -0.3327233 0.2109681
0000d0 e1 4a 56 3f 54 97 05 3f 5b 99 2e 3f 7b f8 49 be
       0.83708006 0.52184033 0.6820275 -0.19723694
0000e0 77 91 34 bf f9 91 d4 3e a2 50 ae bf 00 8b b5 bb
       -0.7053446 0.41517618 -1.3618357 -0.0055402517
0000f0 bc 37 de 3d ba f5 a0 bf 86 20 6a be 94 c5 53 3e
       0.10850474 -1.257499 -0.22863969 0.20680839
000100 42 46 61 bf a1 d9 8e be d6 66 10 bf ef 63 24 3d
       -0.8799783 -0.27900413 -0.56406915 0.040134367
000110 64 d7 75 bf 08 86 36 bf 23 ed 1e bf da ea 83 be
       -0.96031785 -0.71298265 -0.6208059 -0.25765115
000120 52 d9 56 3e 11 bf 7c bf f4 07 fa 3f 26 5e 45 bf
       0.20981339 -0.98729044 1.9533677 -0.77096784
000130 f3 35 be 3f 9b f1 93 3e 03 a4 f9 bf 90 0c 9a 3f
       1.4860214 0.28895268 -1.9503177 1.2035084
000140 5a 26 ae 3d af 7e 74 3f 4b fd b8 3f 31 15 13 c0
       0.08503409 0.95505804 1.4452299 -2.2981684
000150 ac 4a af 3e c6 c0 86 be 2b fd 64 3f 1d 20 6f be
       0.34236658 -0.2631895 0.89448804 -0.23352094
000160 8b fa 0e 3f 7c 12 cf 3e 3f 71 42 3f 6b c3 b6 3e
       0.5585105 0.4044379 0.7595405 0.35695967
000170 c9 05 56 bf d0 0d 03 3f 91 77 c9 3e 75 3d a3 be
       -0.8360258 0.5119295 0.39349034 -0.31882825
000180 56 35 f6 be 8e 20 0f bf 3e db 1a 3f e8 d5 49 3e
       -0.48087567 -0.5590905 0.6049079 0.19710505
000190 59 6b 8c be bb 87 b9 bf 53 96 0d 3f 4b df 41 3f
       -0.2742565 -1.4494547 0.553075 0.75731343
0001a0 c0 b4 9b bf 32 94 7d 3f 4e 42 b2 3f 77 87 a8 3f
       -1.2164536 0.99054253 1.3926485 1.316634
0001b0 4a bf 7a 3e dc dd 7f 3f 5a be 14 3f 29 01 a4 bf
       0.24487033 0.99947906 0.58102953 -1.2812854
0001c0 d9 00 2c 3e 57 79 17 3c 4d 55 08 be f9 df 44 bf
       0.16797198 0.009245238 -0.1331379 -0.76904255
0001d0 a5 ca b9 3e 88 64 bf 3e 71 ea 3f bf 62 5d 87 bf
       0.36287418 0.37381387 -0.74967104 -1.0575373
0001e0 e6 c2 6e bb e9 f8 e6 bd 93 ee 09 be 67 ac 19 bf
       -0.0036432086 -0.112779446 -0.13469915 -0.6002869
0001f0 c7 cb 1d 3f 03 db 1c 3f 1a da 10 bf e8 7b 00 3f
       0.61639065 0.61271685 -0.56582797 0.50189066
000200 4c b7 91 be 16 49 4b 3f 12 77 2a 40 b3 98 0a 3f
       -0.28460157 0.79408395 2.6635175 0.5413925
000210 30 88 13 3f 16 1c 64 3d 8d 3b 82 bf 52 7e b2 bf
       0.5762968 0.055690847 -1.0174423 -1.39448
000220 5f 38 8d bc d3 41 37 bf 82 b1 3d 3d a5 2f 10 3f
       -0.017238794 -0.71584815 0.046311863 0.563227
000230 89 6d 43 bf 9d ac 8e bf 8d c2 b1 bf 7f 42 89 bf
       -0.7633901 -1.1146427 -1.3887497 -1.0723418
000240 52 c0 ae 3e 11 c8 c5 bd 57 e5 26 3f 79 eb fc bf
       0.34131104 -0.096573 0.65193695 -1.975936
000250 4e d4 a7 be 28 66 f2 bd 86 c5 08 3f 85 0b b1 3e
       -0.32779163 -0.11835891 0.53426397 0.345791
000260 e6 b4 59 bf 18 d5 55 3e 50 9a 7f bf 74 dc 30 bf
       -0.85041654 0.2088207 -0.9984484 -0.69086385
000270 a3 df a2 3f 48 b6 15 3e ab ac 77 3f 50 d6 3a 3f
       1.2724499 0.14620316 0.96747845 0.72983265
000280 ea fe 56 bf 8e a9 cb 3e 01 96 b6 bf 51 30 a5 3f
       -0.8398272 0.39777797 -1.4264528 1.290537
000290 a3 fe fd bd a7 ea 94 be 4b a6 17 be 62 32 db be
       -0.12402084 -0.29085276 -0.1480953 -0.42811877
0002a0 81 f8 a6 3e d8 2d 82 bf 7a 1c da be e8 d4 90 3f
       0.32611468 -1.017024 -0.4259985 1.1314974
0002b0 4b 85 0f 3e 36 c1 09 3f ad b9 da bf 8a 10 9e 3e
       0.14015691 0.5381044 -1.7087914 0.30871993
0002c0 73 b9 0e 3f 86 67 ca be ee e2 ca 3e cd 93 36 bf
       0.55751723 -0.39532107 0.3962626 -0.71319276
0002d0 38 46 04 40 01 c7 30 3f f6 49 80 3f cc 91 25 bf
       2.0667858 0.69053656 1.0022571 -0.64675593
0002e0 45 fc 2d 3f ac 69 d4 bb 21 be 67 3f 97 84 df bd
       0.6796306 -0.0064823236 0.9052449 -0.109139614
0002f0 49 85 00 bf 26 9f 78 be 98 ee 85 3f e0 88 48 bf
       -0.50203377 -0.2427946 1.0463438 -0.78333855
000300 eb 5e 8b 3e 7a 79 38 be 86 2e 39 3f 94 40 8d 3f
       0.27220854 -0.1801509 0.72336614 1.1035333
000310 75 fc a7 3e 0a 05 c8 3e 90 51 30 bf 1f 9b 9b bf
       0.32809797 0.39066344 -0.68874454 -1.2156714
000320 98 4d 08 3f 95 58 c3 bf 35 7c d3 3f 18 44 b5 3e
       0.532434 -1.5261408 1.652228 0.35403514
000330 b1 26 53 3d 65 00 3c bf d3 f6 47 3e 4d e7 2f bf
       0.05155057 -0.734381 0.1952775 -0.6871231
000340 07 9e 41 3f e4 dc 0d 3d 6f 5b 06 3f 6d 55 19 3f
       0.75631756 0.034634486 0.52483267 0.59895974
000350 e8 0b 49 bf ee 8a 9a 3f 3d 70 d1 3e 5d fc ac bf
       -0.7853379 1.2073648 0.40905944 -1.3514515
000360 c9 f9 0e bf 41 6f 24 3f 7c 6a b1 bf f0 d8 c6 3e
       -0.5584989 0.6423226 -1.3860621 0.38837385
000370 3c 27 45 bf 84 00 01 bf bd 1d 8a bf 27 be 0c 3f
       -0.7701299 -0.5039141 -1.0790325 0.5497765
000380 32 e4 ff be 29 1a 89 be 93 a6 ff 3f 1c d6 11 40
       -0.49978787 -0.2677777 1.997271 2.2786932
000390 3d 51 82 3e e3 a2 86 3f 36 aa 07 3f 36 f8 85 be
       0.25452605 1.0518459 0.52994096 -0.26165932
0003a0 32 32 29 bf 9d 73 cf 3f 64 d3 9c 3f 61 3a c5 3f
       -0.66092217 1.6207157 1.2252011 1.5408441
0003b0 dd b2 7e bf 33 a0 bb 3f 7f 70 1f 3f cb a6 4a bf
       -0.99491674 1.4658264 0.6228103 -0.79160756
0003c0 de ff 67 bf c8 24 06 3f 9d 59 4f 3f 17 c4 a1 3d
       -0.906248 0.52399874 0.80996114 0.07898729
0003d0 53 0b dc 3e 63 42 a7 3e 82 80 da 3d cb 7a 34 3f
       0.4297739 0.32667837 0.10669042 0.7049987
0003e0 2b 5a 9f 3f c8 33 d5 3d c6 55 40 bf aa 06 1d bd
       1.2449392 0.10410267 -0.7513088 -0.038336433
0003f0 6f 46 77 3e 0d 9d b7 3f 7d 0f 47 bf ef 5a e7 3d
       0.24147962 1.4344803 -0.7775801 0.11296641

rgb_pe f4 [1, 49, 32]
000000 7b cb 8b bf 3d 8a 3f bf c1 4b 37 bd 86 3a 0a c0
       -1.0921472 -0.7482031 -0.04474998 -2.159822
000010 6d 67 dd 3e 3d 26 a0 bf 62 57 ff be b0 da 50 bf
       0.4324297 -1.2511669 -0.49871355 -0.8158369
000020 3b c0 91 be 43 1b 3d bd 0a e7 85 bf 85 66 42 3e
       -0.28466973 -0.046168577 -1.0461133 0.1898442
000030 99 f5 eb 3f 01 73 0e 40 83 09 61 be 0e 0f 2a 3f
       1.8434325 2.2257693 -0.21976285 0.6642922
000040 da d0 f1 3f 38 6b 03 40 5c 43 1e 3f e1 e2 1e be
       1.8891861 2.053419 0.6182153 -0.15516235
000050 84 20 20 40 c5 d1 b2 3e e0 ba 6b 3f 17 57 0e be
       2.5019846 0.34925666 0.92082024 -0.1390041
000060 1f 56 94 bf 43 56 84 3e ca ca 9f 3f 03 72 fc 3f
       -1.1588782 0.25847062 1.2483761 1.9722294
000070 1b 5f 84 bf a3 41 1f 3f 84 3d 66 3e e7 5b 22 40
       -1.0341524 0.6220953 0.22484404 2.5368593
000080 b6 81 ba 3e cb 01 cd 3f 97 5b 09 3f 2a 6a 71 3f
       0.36427087 1.6016172 0.5365538 0.9430262
000090 1a 76 e9 3f 6a 7f 9f 3e bd fc 84 be ee 21 c3 3e
       1.8239167 0.31151897 -0.25974074 0.38111824
0000a0 e9 a5 44 bf 1a 48 c3 bf 71 61 ab bf ca 89 fc be
       -0.7681566 -1.5256379 -1.3389112 -0.49323875
0000b0 e3 00 d0 3f 39 19 82 3f 55 5a 73 3f dc 48 95 3f
       1.6250271 1.0163947 0.9505971 1.166286
0000c0 1e 59 03 40 58 55 fc 3e 9f 78 00 3f 0e b3 dd bf
       2.0523143 0.49283862 0.50184053 -1.7320268
0000d0 fd 41 2a bf 66 f9 c5 3f a5 55 14 bc 30 37 9f 3e
       -0.6650694 1.5466735 -0.009053622 0.31096792
0000e0 91 fb 97 3f 94 da 83 3f cc 2e 00 c0 31 10 06 3d
       1.1873647 1.030108 -2.0028563 0.032730285
0000f0 3e 97 10 be 93 8b 44 3e 79 7e 06 3f 04 20 3b 3f
       -0.14120194 0.19193868 0.5253673 0.73095727
000100 7a 37 3e bf ab 8e c8 3f 51 81 e3 bf 79 6f 98 3f
       -0.743034 1.5668539 -1.7773839 1.1909019
000110 8b 61 25 be 87 02 63 3e 4a d0 71 bf 4b 38 7b c0
       -0.16150491 0.22168933 -0.9445845 -3.9253109
000120 69 8c c5 bf b5 a5 0b 3e c6 67 78 bf 70 00 1b 3f
       -1.5433475 0.13637431 -0.97033346 0.6054754
000130 8f 6c 79 bd 67 15 1b 40 4a 31 15 3f 05 91 fd bf
       -0.060894545 2.4231813 0.58278334 -1.9809881
000140 b4 e2 58 bf a1 02 70 bf bf 99 7c 3d 40 9c f7 3f
       -0.8472092 -0.9375401 0.06167006 1.9344559
000150 aa 41 04 40 69 8e ba bf e0 ba 95 3f 90 c9 a5 3f
       2.0665078 -1.457471 1.1697655 1.2952137
000160 ca b0 a3 bf 98 cb 86 3f 8a a6 05 40 d8 51 ed 3e
       -1.2788327 1.0530882 2.0882897 0.46351504
000170 0b 4c 03 3f 74 96 bc bf 48 69 8b bf ce e1 76 bf
       0.5128791 -1.4733415 -1.0891504 -0.964383
000180 48 f4 3e 3c 6b 42 8e 3f f5 a2 a5 3f b5 45 06 3f
       0.011654921 1.1114019 1.2940356 0.52450114
000190 eb c3 fb 3f 1d fb e1 3e 2c be 72 bf d4 42 62 3e
       1.9669164 0.44136897 -0.9482143 0.22095805
0001a0 b2 1b 52 bf 10 8e 05 bf 3e 11 bf 3e a1 1c 13 c0
       -0.8207351 -0.52169895 0.37317842 -2.2986224
0001b0 be 2d 34 bf 1c af b7 3f b8 0d 69 3f 89 ca 35 3d
       -0.703823 1.4350314 0.9103656 0.044382606
0001c0 3c eb 9e 3d 04 50 a4 be 53 b4 0c be b9 b1 23 bf
       0.07759711 -0.32092297 -0.13740663 -0.6394306
0001d0 6c 49 c6 3f d5 5d ca 3e f0 15 7b bf 21 86 7e 3f
       1.5491157 0.39524713 -0.9808035 0.99423414
0001e0 13 6e 1a 3f a6 a5 9f 3f 19 da 22 c0 e7 09 b0 bf
       0.6032421 1.2472427 -2.5445616 -1.3753022
0001f0 ac 3b ff be 25 bc 27 c0 b0 f1 08 3f 8e e4 db be
       -0.49850214 -2.6208584 0.53493786 -0.4294781
000200 3e 65 61 3f 20 74 42 40 7a 8c f4 3c 79 f6 af 3f
       0.8804511 3.0383377 0.02985214 1.3747092
000210 e4 f7 88 3f d5 ab ad 3f 11 b9 2a bf d4 71 92 bf
       1.070065 1.3568064 -0.6668864 -1.1440988
000220 e5 a6 b9 bf e6 cf a1 bf a0 ef c2 bf fe 1d d4 3e
       -1.4504057 -1.264157 -1.5229378 0.41429132
000230 08 2a d3 3e 4d a9 83 bf 3d 27 8c 3f 85 7c a9 3f
       0.41243005 -1.0286041 1.0949475 1.3241125
000240 92 7e 63 be b8 b1 8c be dc 25 ef bf 7d 19 a9 3e
       -0.22216251 -0.2747934 -1.8683429 0.3302726
000250 b9 ad b9 bf 7c 1f 8d bd b2 8d 88 3e 74 bb e3 bf
       -1.4506141 -0.06890771 0.26670605 -1.7791581
000260 e8 60 8e bf a8 66 16 bf f8 c2 ff bf 76 86 0f bf
       -1.1123323 -0.5875039 -1.9981375 -0.56064546
000270 1e 4e cd 3e 38 b9 14 bf 59 d1 32 c0 80 c6 50 bf
       0.4009866 -0.5809512 -2.7940276 -0.81552887
000280 6d b4 64 40 f3 ab e7 bf a9 e3 24 c0 55 ce 60 3f
       3.5735123 -1.809935 -2.5763953 0.8781484
000290 4e be ff 3e f4 54 10 be 72 92 dc bf 17 d8 48 bf
       0.49949878 -0.14094907 -1.7232192 -0.78454727
0002a0 48 34 ca bf c3 df 87 bf bf b0 eb be 56 6e 19 bf
       -1.5797205 -1.0615162 -0.46033284 -0.59933984
0002b0 b0 c0 47 bd 75 1b 37 40 12 da ca 3e 5d f6 86 3f
       -0.048767745 2.8610508 0.396195 1.0543934
0002c0 c8 71 a9 3e b1 fa 75 be f6 99 69 3f 5e 13 33 3f
       0.3309462 -0.24021412 0.9125055 0.69951427
0002d0 cc 58 24 3f 79 9e 59 bf ac ca 8e be c4 33 97 3f
       0.64197993 -0.85007435 -0.27889 1.1812673
0002e0 e8 06 8a be af 72 80 3f 26 19 aa bd 45 4b 0f c0
       -0.26958394 1.0034999 -0.08305578 -2.238969
0002f0 52 f6 49 be 68 65 af bf 6d ae fb 3f 4b 07 bd 3f
       -0.1972287 -1.3702822 1.9662606 1.4767851
000300 57 3c af bf e6 c3 96 3f 09 d5 96 3f 5d 25 00 40
       -1.3690289 1.1778533 1.1783763 2.0022805
000310 a9 5e a0 3f 91 32 18 bf 50 0d 45 be 0b 45 9b bf
       1.2528888 -0.5945216 -0.1924336 -1.2130445
000320 3d f4 50 bf 15 a9 bd bf 3e c0 22 bf 64 29 ac be
       -0.8162268 -1.4817225 -0.6357459 -0.3362533
000330 5a 5e 82 3f 05 b1 bd bd 56 5d bd be cf 11 7f 3f
       1.0185044 -0.092622794 -0.36985272 0.9963655
000340 2b ee f7 3f 42 3c 8b 3f 48 1c 02 3f 43 db 7e 3d
       1.9369558 1.0877764 0.50824404 0.062220823
000350 da 84 97 bf b1 9a af be 11 5a b9 3f 53 29 96 3f
       -1.1837418 -0.34297708 1.4480611 1.1731361
000360 a0 86 d4 3f 83 11 88 be 69 56 f4 be 21 65 1a be
       1.6603584 -0.2657586 -0.47722176 -0.1507764
000370 d7 02 dd 3e 01 8d 75 3e 10 d9 09 3e 30 dc 47 3f
       0.4316623 0.2397957 0.13461709 0.78070354
000380 ac c4 14 3f 88 18 c2 3e 8f 49 0c 3f aa 06 b5 be
       0.581126 0.3790934 0.5479974 -0.35356647
000390 01 60 07 40 b5 30 18 be 94 44 b5 3d 0a fc 9b bf
       2.1152346 -0.1486233 0.08850971 -1.2186291
0003a0 71 60 4e 3f 55 6a 41 3f 44 d7 00 40 80 e6 d2 bd
       0.8061591 0.75552875 2.0131388 -0.10297871
0003b0 0c 2c ff be b6 11 bd bf f4 93 b2 3f 69 68 28 be
       -0.49838293 -1.477103 1.3951402 -0.1644608
0003c0 c8 39 9e bf 4a 9c 56 3f d4 a9 29 3f af 11 da 3e
       -1.2361383 0.8383223 0.6627476 0.42591617
0003d0 4c ff 85 bd e2 f5 e3 3d 8c 7b 7f 3f 53 a3 b0 3e
       -0.06542835 0.11130883 0.9979789 0.34499606
0003e0 16 e3 33 bf 62 c8 04 3f cd 41 27 3d 1b 6e 1d 3f
       -0.7026838 0.5186826 0.040834237 0.6149613
0003f0 58 f4 17 bf f4 2e 37 3f 4a 79 9e bf 41 86 7e 3f
       -0.59357214 0.7155602 -1.2380764 0.99423605

weight f4 [32, 3, 9]
000000 ac 57 05 bf 7c db 01 be 07 ef 22 be 15 f9 49 be
       -0.520869 -0.12681383 -0.15911494 -0.19723924
000010 1e 91 00 3e a8 e2 51 3e 1c df a1 bc 92 ec 1b 3d
       0.12555358 0.20496619 -0.019759707 0.038067408
000020 e1 b0 04 3d d2 c2 4f 3e 0d 36 b6 3c 5f f5 58 be
       0.032395247 0.20289162 0.02224257 -0.21187352
000030 ff 05 60 be 3f 27 79 bd 87 5b 41 bd 88 a2 fb be
       -0.21877287 -0.060828444 -0.047206428 -0.4914744
000040 b7 30 b5 bc f8 2e 3d be 93 c7 98 3c f1 ee 21 be
       -0.022117956 -0.18474948 0.018649852 -0.15813805
000050 33 78 d7 bd 2e 11 bf bd 7e 01 94 ba f3 3c d5 3e
       -0.10520973 -0.09329449 -0.0011291949 0.41648063
000060 10 3b 8e bf 37 40 f7 3e 55 39 23 3d 5d 4c 1a 3f
       -1.1111774 0.4829118 0.039849598 0.6027277
000070 5a fd d1 bd 08 d0 fb bd 88 f1 97 3f 3e 6e 03 3f
       -0.10253401 -0.12295538 1.1870584 0.5134009
000080 35 0b e8 3e 44 d3 cc 3e e9 8d a9 3d af 8d 59 bd
       0.4532105 0.40004933 0.0827902 -0.053113636
000090 fd e4 89 3d 22 96 c3 3e ee 32 25 3c 27 bc 63 3c
       0.06733129 0.3820048 0.010082943 0.0138998395
0000a0 8d 70 08 3e 68 4f 05 3f 8a 69 36 3e e7 cf cb be
       0.13324185 0.5207429 0.17813697 -0.39807054
0000b0 fc 03 8c 3e dc 28 7f 3e 3f cb bf be aa 0b a9 bc
       0.2734679 0.2491793 -0.37459752 -0.020635445
0000c0 90 9e 4a 3f f4 0a 91 be 68 80 d2 be a0 65 0c be
       0.791482 -0.2832867 -0.4111359 -0.13710642
0000d0 90 4d 43 3f 9f d7 a2 be fd 07 02 3f 76 61 f3 3d
       0.76290226 -0.3180513 0.5079344 0.118838236
0000e0 2a 4d b4 3e 09 3d e1 3d dd 14 40 3d 8b 3e 16 3e
       0.35215122 0.1099797 0.046894897 0.14672296
0000f0 53 ef 8f 3c 2b f4 e4 bc 92 37 8b 3c 68 82 6d be
       0.017570173 -0.02794846 0.016994271 -0.23194277
000100 40 d6 6a bd d6 fe d8 bc 09 07 b5 bd 4d b0 14 bf
       -0.05733323 -0.026488703 -0.088392325 -0.58081514
000110 55 ed 62 bf 91 8d b3 bd b8 9d bc 3e df f5 44 3f
       -0.8864339 -0.08767236 0.3683908 0.7693767
000120 24 e7 01 3f e6 81 26 3e cf be 69 3e 31 ba b6 3e
       0.5074332 0.1626049 0.22826694 0.35688928
000130 b3 a3 88 3f 1d 3e ea 3f aa d2 65 3e b7 c7 d0 be
       1.0674957 1.8300205 0.22443643 -0.4077737
000140 ac da a1 bf e5 1a 29 bc 9f 8b 28 3d 12 93 75 3e
       -1.2644858 -0.010321354 0.041148778 0.23981884
000150 46 91 9a 3e a6 ce cc 3e 61 3e ec bd 9c 28 35 bd
       0.3018896 0.4000141 -0.11535335 -0.04422818
000160 77 df da bc ed fb fe bd 69 38 06 be 65 e8 39 be
       -0.026717884 -0.12450395 -0.13107456 -0.18155058
000170 c4 4e 47 3f 48 14 50 3f 00 26 4d 3f bd a7 80 be
       0.7785456 0.81280947 0.8013611 -0.25127974
000180 4a b3 99 be 50 27 14 3e 30 7b c5 bd 2a 99 c4 3e
       -0.300196 0.14468122 -0.09642637 0.38398105
000190 4e 3b 06 3f 44 46 b5 bf ac c2 bb bf 82 ee d2 bf
       0.5243424 -1.4162068 -1.4668784 -1.6479037
0001a0 20 03 68 bc 7b 47 bd 3b 6b f9 63 bd ff b8 95 3e
       -0.014160901 0.0057763434 -0.055657785 0.29242703
0001b0 b9 76 83 3f 01 0a 20 3f a9 97 b8 3d 6e 74 54 3f
       1.0270606 0.62515265 0.09013302 0.8299016
0001c0 94 4f ff bd db 61 75 be 13 14 3a be f9 a0 72 bc
       -0.1246635 -0.2396311 -0.1817172 -0.014808887
0001d0 5b a9 df 3e 47 fd 3c be 8e 8a 4b be 90 52 78 be
       0.43683895 -0.18455993 -0.19877073 -0.24250245
0001e0 45 43 97 be a8 ca 15 be 03 d3 95 be 3e e1 ab be
       -0.2954351 -0.14628088 -0.29262552 -0.33570284
0001f0 a9 3a c3 bd ae 88 06 be c8 12 32 3f 22 c1 f5 3e
       -0.09532673 -0.13138077 0.6955991 0.4799891
000200 6b f1 f9 3e ed a6 4d 3f 3b 9e c2 3d 78 95 fc bd
       0.48817 0.80332834 0.09502836 -0.123331964
000210 62 24 8b 3e 83 1b 71 3d bc 3c 08 3f 91 2b a8 3c
       0.27176195 0.058864128 0.53217673 0.020528587
000220 90 3e a4 bc 11 68 cb bd 93 b7 2a bf cf 9e 26 bf
       -0.020049363 -0.099319585 -0.6668636 -0.6508607
000230 f4 97 b9 be f9 50 1f 3f c0 78 29 3e e9 e0 7b 3d
       -0.36248744 0.6223293 0.16549969 0.061493788
000240 fd ab 64 3d b0 f5 0c bd 79 98 5b 3e ee d8 53 3d
       0.055828083 -0.034413993 0.21444882 0.051720552
000250 37 f3 78 3d 9f 8a 2a 3b b1 07 55 bd 60 5e 16 3c
       0.060778823 0.0026022566 -0.05200929 0.009177774
000260 c4 1d 1b be 3b f8 cf be 69 48 78 be d2 52 ac be
       -0.15148073 -0.40619072 -0.24246372 -0.33656937
000270 7d ab 87 3e 40 e4 83 be 49 b2 4b bf f8 30 27 3e
       0.26498023 -0.25760078 -0.79568917 0.16327274
000280 26 39 ff bd 28 51 6e 3c 0b f2 e7 3c 64 45 ab 3d
       -0.12462072 0.014545716 0.028313657 0.083628446
000290 8c c9 45 3d f8 60 f4 3e 9f 61 17 3f 61 1c 00 3f
       0.048287913 0.4773023 0.5913333 0.500433
0002a0 4e 0e b2 be 71 bc 5f be 4d d6 50 3e a4 ee b0 be
       -0.3477654 -0.21849228 0.2039425 -0.34557068
0002b0 f3 4b ea 3d 18 bb 87 3d 3d df c6 3d 51 f7 76 3d
       0.114402674 0.06627482 0.09710548 0.060294453
0002c0 da 72 86 3d 90 2a 2b 3e 6b 65 80 3e 89 b5 65 be
       0.06564875 0.16715455 0.25077376 -0.22432531
0002d0 35 73 3b be e9 ad f1 be 80 ce f9 bc ec fa b5 3e
       -0.18305667 -0.47202995 -0.030493975 0.35543
0002e0 11 a8 41 3f bd 28 75 bf ca 7a 0c bf 6e 57 64 3f
       0.75647074 -0.95765287 -0.5487486 0.8919591
0002f0 78 3e da 3e e3 c1 d6 3e 4b 5d ed be d6 b4 cb 3e
       0.42625785 0.419448 -0.4636024 0.39786404
000300 c8 cb 0b 3f 0d 57 0e 3e 97 86 7a bd 44 34 8a 3d
       0.5460782 0.13900395 -0.06116351 0.0674825
000310 83 62 b4 3e 9b d2 ae bb e5 44 e1 3e 2f 1c 9f bb
       0.35231408 -0.0053351647 0.43997875 -0.0048556547
000320 84 ef a9 be ec 8b 97 bd 15 46 47 3f 35 50 dd 3e
       -0.33190548 -0.07399735 0.7784131 0.43225256
000330 29 7f 92 3e b4 91 93 3e b7 9a 6e 3d 7d d7 bc bd
       0.2861264 0.288221 0.058253016 -0.09220789
000340 58 ac 31 bf 00 57 b9 3e d8 c4 e8 3d 54 31 fd bd
       -0.694036 0.36199188 0.1136567 -0.12362924
000350 b9 b6 18 bd bb 38 b2 be 72 5e 23 be d5 0a a7 3e
       -0.037283633 -0.34808907 -0.15953997 0.32625452
000360 9a 1c 75 3e 01 66 61 3f 81 0d 83 3e 95 d5 13 bf
       0.23936692 0.8804627 0.2559624 -0.57747775
000370 1d e8 68 bf 6d db da bd 93 39 18 be 11 16 0f 3e
       -0.90979177 -0.106863834 -0.14865713 0.13973261
000380 65 8f fe 3c 22 aa ec 3a bc 9e de bc dc 79 15 bc
       0.031074235 0.0018056075 -0.0271753 -0.009123292
000390 83 a7 1a 3d da 20 1c bd c7 28 be 3d 60 1a 86 3d
       0.037757408 -0.038117267 0.092851214 0.065479994
0003a0 a8 11 8e 3d 82 50 82 3d e7 d1 2c be 87 2e 57 3d
       0.069369614 0.06363012 -0.16876946 0.052534606
0003b0 a2 a5 0d 3f c5 0d ec 3d 8d 1c 0d bf a2 b0 89 be
       0.5533086 0.11526064 -0.5512169 -0.26892573
0003c0 83 ff 26 bc 65 9b 3a be 73 c5 ed 3d 67 ee c1 3e
       -0.010192755 -0.18223341 0.11609926 0.378772
0003d0 18 0d 9c be 7b ad a9 be 34 fa 9a be 9a 2d 56 be
       -0.3047874 -0.33140168 -0.30269015 -0.20915833
0003e0 38 aa 4a be aa 5a 01 be c0 24 a5 be 4e db a2 3e
       -0.19791496 -0.12632242 -0.322546 0.3180794
0003f0 bf 93 8f 3d 83 15 b6 3e d9 25 ac 3e 3f 88 80 3e
       0.07010602 0.35563287 0.33622625 0.25103948

bias f4 [32]
000000 20 3a 2c bd e1 72 a4 bc 0d df d1 be 56 05 a3 be
       -0.04204762 -0.02007431 -0.40990487 -0.31840008
000010 0a 6e 8c bf 7c b3 99 be 98 db 95 bc c0 d2 3b bc
       -1.0971081 -0.30019748 -0.018293187 -0.011463821
000020 b5 43 cc be a6 b7 e7 bf 82 05 22 be 4a 5b e5 bc
       -0.39895406 -1.810292 -0.15822414 -0.027997632
000030 a3 76 06 bd b5 35 bd be e3 4d 80 be 7f fb 09 c0
       -0.032827985 -0.36955038 -0.25059423 -2.155975
000040 d4 70 6a be c5 09 d9 bc f3 4a 7b bc 57 a3 72 be
       -0.22894603 -0.026493916 -0.0153376935 -0.23695122
000050 32 4b 6d be b9 1c 1c bf fc 7d 68 bf 64 b4 6e be
       -0.23173216 -0.6098133 -0.90817237 -0.23311001
000060 6f 7a f4 bf f0 c1 8d bf 42 fd bb be fd 9e 8d bc
       -1.9099864 -1.107481 -0.36716658 -0.017287726
000070 f8 25 44 be 5a e5 88 be 33 a4 13 bf bf 4a c4 be
       -0.19155109 -0.2673748 -0.57672423 -0.38338277

weight f4 [32, 32, 9]
000000 1f 44 14 3e 43 93 c8 3d 72 88 13 3c 92 8a 4b bd
       0.14479111 0.09793713 0.009004699 -0.049692698
000010 b2 19 6f bf f1 de a6 bd 8f 6f 14 3e e2 b4 8b 3e
       -0.9339858 -0.081479914 0.14495681 0.2728644
000020 5a ec d5 3d 65 09 c0 bd 93 6c 87 3e 01 f7 50 be
       0.10445471 -0.09376792 0.26450023 -0.20406725
000030 32 aa 4f bc 80 e4 16 bf f1 f0 49 bf ae 56 15 be
       -0.012674855 -0.58942413 -0.7888327 -0.14583847
000040 05 f1 89 3e 89 1f 33 ba 33 68 42 3e 1b 65 43 bf
       0.26941696 -0.0006833007 0.18985061 -0.7632615
000050 72 4f 43 bd e0 4f 31 c0 5c 74 f5 bf 67 20 c6 bf
       -0.047683187 -2.7705002 -1.9176135 -1.5478638
000060 90 93 1b c0 a7 b2 66 be 50 9c 81 3e 65 26 5f bd
       -2.4308815 -0.22529088 0.2531457 -0.054479975
000070 c8 83 22 3e 0b 7d d9 be 55 02 e6 3d 81 ce dc bf
       0.15870583 -0.42478213 0.112309135 -1.725052
000080 ee 21 d5 bf 46 46 ee be 34 31 f1 bf e4 5a cd be
       -1.665098 -0.4653799 -1.8843141 -0.40108407
000090 da a8 a4 3d ff b0 08 be 0d e6 60 3e 22 a4 03 c0
       0.080400184 -0.13348769 0.21962757 -2.0568929
0000a0 48 51 f9 bf 90 fb b9 bf 14 fb a7 bf 50 ee 6a 3e
       -1.947793 -1.4529896 -1.3123498 0.22942472
0000b0 1c e5 27 bd 08 ee 5b be a4 51 00 bf e0 6d 1e c0
       -0.04098998 -0.2147752 -0.50124574 -2.4754562
0000c0 bd d7 a1 3e 8f d1 84 3e 04 93 8f bd 19 4d f7 3e
       0.31609908 0.2594113 -0.07010463 0.48301008
0000d0 5d f3 ad 3d 02 b9 b0 bf 09 3d 1f 3d 60 b4 90 3e
       0.084936835 -1.380646 0.038876567 0.28262615
0000e0 08 87 c5 3c 58 68 1f 3d 8e 63 8c be 3a 6e 1a 3d
       0.02411224 0.03891787 -0.27419704 0.037702776
0000f0 6f 66 05 bf 47 c8 d6 bb 9e 33 1b bd 91 b6 c6 3b
       -0.52109426 -0.0065546366 -0.037891023 0.006064244
000100 2f a0 13 be a7 ff 39 3d 63 2a 06 bf c5 e0 5b 3e
       -0.14416574 0.045409825 -0.52408427 0.21472462
000110 3c 27 84 be 8f 8f 2a bf 6e d2 77 3d 3f 36 11 3e
       -0.25811183 -0.66625303 0.060503416 0.1418085
000120 0a a3 79 bf 37 aa 7b 3e 32 c4 0f bf 2b 99 64 bf
       -0.975144 0.2457665 -0.56158745 -0.89296216
000130 73 7a a1 3e 70 d5 42 bd 8e bf 28 3e d6 c1 d5 3e
       0.31538734 -0.04756683 0.16479322 0.41749448
000140 26 33 39 3f 5f e8 94 3e 5a 06 2a 3f b6 ed 3d 3f
       0.7234367 0.29083535 0.6641594 0.74190843
000150 61 57 34 3f 0e 00 86 be 11 53 a7 bf e8 0e 04 c0
       0.7044583 -0.26171917 -1.3072225 -2.0634098
000160 6f 4f 8f be 7f 9c 1d 3f c9 33 0a bc 9b bf 24 3d
       -0.2799029 0.6156692 -0.008435198 0.04022179
000170 96 9a bf bc 94 db 10 3d fb c7 3d 3d 8a 97 29 bd
       -0.023389142 0.035365656 0.046333294 -0.041404285
000180 a1 a4 b6 be 93 95 62 bc 47 86 84 3d 85 55 08 be
       -0.35672477 -0.013829607 0.06470924 -0.13313873
000190 95 2e 67 be 3a 80 af 3e 05 3c 96 3e 08 57 c2 be
       -0.22576363 0.34277517 0.29342666 -0.37957025
0001a0 df 43 77 bf f8 c9 54 bf 5c bb 2f be 67 eb e1 be
       -0.9658794 -0.8312068 -0.17161316 -0.4412491
0001b0 a1 77 12 bd 34 a1 03 3b 41 f2 12 3e 4d 19 e2 be
       -0.03575862 0.0020085098 0.14350225 -0.44159928
0001c0 ae 02 46 bc a2 04 06 bf 23 33 48 3e ce 00 f4 3c
       -0.0120856 -0.5235082 0.19550757 0.02978554
0001d0 85 ef 18 3e 23 a9 58 bf 01 d0 03 bf f1 2a 1a bf
       0.1493512 -0.8463308 -0.51489264 -0.60221773
0001e0 33 85 01 3e 48 22 4d be 0f 5b 69 3e 8d 5e 09 3f
       0.12648468 -0.20032609 0.22788642 0.536599
0001f0 55 44 b2 be 4f 44 1e bf 3f 46 3f be 73 62 84 bd
       -0.34817758 -0.6182298 -0.1867914 -0.0646409
000200 b8 7a 61 bf a6 7f 28 be a5 31 57 3d 64 12 7d 3e
       -0.8807788 -0.16454944 0.05253758 0.24714047
000210 95 31 79 3e da 62 80 bf fc 11 69 bf f3 e3 07 3f
       0.2433532 -1.0030167 -0.91043067 0.530822
000220 5d f7 fe be b8 91 d4 bd 16 6d d1 bf 7e 7b 1e bf
       -0.49798098 -0.10379356 -1.6361415 -0.61907184
000230 00 69 2f bf 6c 2e 9a bf 22 2b b0 bf 61 80 0c c0
       -0.6851959 -1.2045417 -1.3763163 -2.1953356
000240 a4 c6 8b 3d fe 4f d4 3d b3 e7 fb 3d 4c ba 90 3e
       0.06824997 0.1036682 0.123000525 0.28267133
000250 9c a1 bd be 39 d8 9d bf 01 5b d4 be af 5c dc bd
       -0.3703736 -1.2331611 -0.4147568 -0.107598655
000260 eb 38 1a bd 56 f8 a3 bd 4b 2d 30 be d4 7b 87 be
       -0.037651937 -0.08006351 -0.17204778 -0.2646166
000270 52 e8 6c bf 06 c5 02 bf 8c 6f 6d bf cd 5d e5 bf
       -0.9254199 -0.51081884 -0.9274833 -1.7919251
000280 7c f3 3c bd a3 cd a7 3e 89 b6 41 3d bd fd 62 3d
       -0.046130642 0.32774076 0.04729322 0.055417765
000290 c6 65 bc bd c8 36 83 3d 9b d0 c4 be 62 0d 76 3e
       -0.09199099 0.06406933 -0.38440403 0.24028543
0002a0 05 f0 27 3d 18 1f 92 bd d6 a8 19 bf 0a 88 00 3e
       0.041000385 -0.07134837 -0.6002325 0.12551895
0002b0 62 31 88 3c e1 8f 96 3e 3d 64 84 be 26 aa 6e bf
       0.01662511 0.29406646 -0.25857726 -0.93228376
0002c0 09 f1 ec bf 1e 2f 07 bf 58 73 ef 3d 56 1f 82 3e
       -1.8511058 -0.5280627 0.11691922 0.25414532
0002d0 99 30 dd 3d 4d b5 d9 be 9f b4 4a 3d 25 16 f6 be
       0.10800285 -0.42521134 0.04948866 -0.4806377
0002e0 93 52 8f 3e 38 6c 74 bb e2 38 71 3e 62 5a 4d be
       0.27992687 -0.0037295949 0.23556855 -0.2005401
0002f0 4e 89 88 bf 26 78 e1 be 49 23 d5 bf 5c b7 4c bf
       -1.0666902 -0.44036978 -1.6651393 -0.79967284
000300 f2 89 54 bf f6 6c 03 c0 82 e1 9b bf ec d7 e2 be
       -0.8302299 -2.0535254 -1.2178195 -0.4430536
000310 8e f4 7a ba 5c 73 84 be e6 b9 92 bf 46 ed a1 3e
       -0.00095731847 -0.25869262 -1.1462982 0.31626338
000320 96 7a 3b bd c9 17 b8 bf 3c 3e 00 c0 bf 6f 1a bf
       -0.045771204 -1.4382259 -2.0037985 -0.6032676
000330 e4 69 9b bf 71 ee 11 bf a1 35 e4 3e 73 14 44 be
       -1.214169 -0.5700446 0.44572166 -0.19148426
000340 e1 ae ac 3e 0c fe ae 3e 47 92 18 bf 96 a1 f6 be
       0.33727172 0.34178197 -0.595982 -0.48170155
000350 e6 07 68 be 00 9d 96 bf f7 a7 46 be b2 00 95 3d
       -0.22659263 -1.1766663 -0.19400011 0.07275523
000360 74 86 66 bb 85 cc 21 bf c9 cf 2d 3e e5 9f 96 be
       -0.0035175355 -0.632027 0.16973795 -0.29418865
000370 17 26 e2 bf 25 f3 5f 3f 46 83 ed bd af 6a cc be
       -1.7667874 0.87480384 -0.11597304 -0.39925143
000380 37 e9 ce bf 2f 1e bb 3e a7 dc c3 3e df 88 0b 3f
       -1.6164922 0.36546466 0.38254282 0.54505724
000390 af a9 c3 be 5d 56 e8 bf e7 ac 53 bf 1a dd 35 c0
       -0.38215396 -1.8151356 -0.82685703 -2.84162
0003a0 a1 82 75 bf 25 ae 5b 3d 24 14 5b 3e f2 c5 26 bf
       -0.9590245 0.053632874 0.21394402 -0.6514579
0003b0 5a 25 72 bc fa 57 30 be 2c 1e c1 3e 42 c3 27 bf
       -0.014779413 -0.1722106 0.37718332 -0.65532315
0003c0 2f b1 4c 3e cc 55 26 bf 78 46 83 be a9 3e 16 3e
       0.19989465 -0.64974666 -0.256397 0.1467234
0003d0 b5 69 30 3d f2 c0 cf 3d db 47 8b 3d 51 4d c6 3d
       0.04306956 0.10144223 0.06800815 0.09682716
0003e0 88 16 3c bf 3f 65 46 bf f6 a8 e4 bd ad eb e3 3d
       -0.7347188 -0.7749824 -0.11165039 0.11128936
0003f0 f1 6d 8a be b2 92 9e bd 93 46 5e bd e8 6c a3 3e
       -0.27037004 -0.07742824 -0.054266524 0.31919026

bias f4 [32]
000000 d9 e5 81 be 86 bb 54 bf e7 f8 1e c0 1a 88 3d be
       -0.25370672 -0.8309864 -2.4839418 -0.1850895
000010 a7 fa 1d 3d a6 bd 5d be 4e 8f 25 bf c7 d8 41 c0
       0.03856912 -0.21654376 -0.6467179 -3.028856
000020 ef b0 db be 98 79 0a c0 1b 29 1c bf 26 29 0a bf
       -0.42908427 -2.1636715 -0.6100022 -0.5396904
000030 f3 a3 ce 3e 6e e0 e7 3d f8 67 a1 bf a4 97 21 bc
       0.40359458 0.113221034 -1.2609854 -0.009862814
000040 d3 ca 3a 3d 92 bc d6 be 51 24 e6 be d7 53 2a c0
       0.045603584 -0.41940743 -0.44949582 -2.6613672
000050 22 ce 02 b8 bd 06 7d be b5 0d 9b bf d1 e1 47 bf
       -3.118639e-05 -0.24709602 -1.2113558 -0.78078943
000060 2f 6f 5c 3d a2 a4 18 bf f5 f4 eb bf e3 60 ea 3d
       0.05381697 -0.5962621 -1.843413 0.11444261
000070 63 e2 be 3d 80 87 ce 3e b0 42 95 be df aa 93 be
       0.093205236 0.40337753 -0.2915244 -0.28841302

weight f4 [32, 32, 9]
000000 ed 84 09 be 20 86 47 be c8 70 23 3f de f7 85 3f
       -0.13429613 -0.19484758 0.63843966 1.0466268
000010 ed 3e 91 3f 1d c0 40 3f cb f1 bb bf 4d 9b 2f c0
       1.1347328 0.7529314 -1.4683164 -2.7438538
000020 81 75 0a c0 7b 18 12 bf 15 4d 32 bf 19 57 e8 be
       -2.1634219 -0.57068604 -0.6964887 -0.4537895
000030 31 47 4e bf 8d cf 11 c0 ab da cc bf 1a 5c 8f bf
       -0.8057738 -2.278293 -1.6004232 -1.1199982
000040 12 0c 0e 3e 0c 76 77 3d 8d 36 ed be 10 2e c2 bd
       0.13871792 0.060415313 -0.4633068 -0.09481442
000050 23 8d d4 be 6f e1 3c bf be 7e 81 be 19 f6 75 3e
       -0.4151393 -0.73781484 -0.2529201 0.2401966
000060 12 f8 3f bf cb c6 e1 be 67 08 34 3e 28 2c ad be
       -0.749879 -0.4409698 0.1758133 -0.3382275
000070 62 00 81 3d 00 ee 00 3e bf 29 c1 be 17 d2 dc be
       0.06298901 0.1259079 -0.37727162 -0.43129036
000080 03 3b 73 3d 77 ad a9 3c 93 de 15 be 57 f0 13 3f
       0.05938245 0.020712597 -0.14635687 0.57788604
000090 ad d8 1b bf 9b e4 0d bf b8 8f f7 be a4 73 35 3e
       -0.60877496 -0.5542695 -0.48351836 0.17719895
0000a0 db 8e f5 3e 6a 64 12 3f 44 5f 9e 3e e9 1a 91 bd
       0.47960553 0.5718447 0.30932057 -0.07085211
0000b0 04 98 4f be 47 05 31 bf ba bc 48 3e 7a 38 86 3f
       -0.20272833 -0.6914868 0.19603243 1.0485985
0000c0 70 81 8d 3f ef 69 97 3e b7 6f 0e bf 85 1c 0e c0
       1.1055126 0.29573008 -0.55639213 -2.2204907
0000d0 83 12 01 c0 da c7 4b bf c8 85 cc be 76 f1 48 bf
       -2.0167549 -0.79601824 -0.39945817 -0.7849344
0000e0 d5 d7 94 bf 73 7c a9 bf a3 ed a5 bf 9b 41 75 bf
       -1.1628367 -1.3241104 -1.2963146 -0.9580323
0000f0 49 32 a4 bf 18 d4 95 bf 70 50 0c bf fa 7a d0 bd
       -1.2827846 -1.1705351 -0.5481024 -0.10179706
000100 49 aa aa be 2c b6 96 3e f3 9a 21 bf ec 72 14 bf
       -0.33333042 0.2943586 -0.6312706 -0.57987857
000110 d6 6a 90 bf 46 e3 e6 be ca b7 93 be 98 70 a2 bd
       -1.1282604 -0.4509527 -0.28851157 -0.07931632
000120 2b cc ca 3d f8 0b 10 bf be 1b c2 be a7 96 e1 bf
       0.09902223 -0.5626826 -0.3791179 -1.76241
000130 bc b9 15 c0 2d c6 18 c0 70 dd 0d c0 7a ca a6 bf
       -2.3394613 -2.3870957 -2.2166405 -1.3030541
000140 c0 56 d1 bf 78 8b 45 be 9c 99 31 bf 2d 3e 21 bf
       -1.6354599 -0.19291484 -0.69375014 -0.629855
000150 90 d0 80 bf b3 dd dd bf b8 e4 d1 bf a2 15 b8 bf
       -1.0063648 -1.7333282 -1.6397924 -1.4381602
000160 eb 3d 9d be 82 89 8b bd bc ab ab bf 74 e6 e7 bf
       -0.30711302 -0.06813337 -1.3411784 -1.8117204
000170 6c ff 11 bf 63 d9 d5 3d 43 06 df be ae 88 d7 be
       -0.5703037 0.10441854 -0.43559465 -0.42096466
000180 9b 3a 0c bf c4 f4 a5 be 64 c1 82 3c 7a 94 bc bc
       -0.54776925 -0.32413304 0.015961356 -0.023020018
000190 d7 dd 7f bf 05 2b f4 bf f2 84 fe bf 04 c5 a1 bf
       -0.99947876 -1.9075629 -1.9884322 -1.2638249
0001a0 ac b1 80 be 3e d1 2a bf e5 c7 a6 be 47 42 79 3e
       -0.25135553 -0.6672553 -0.32574382 0.24341689
0001b0 85 b3 b6 bf 2f 43 16 c0 4f 21 74 bf 30 a4 ad bf
       -1.4273535 -2.3478506 -0.95363325 -1.3565731
0001c0 5f f4 04 c0 db 1c c3 bf 33 c3 1c bf 15 b5 87 be
       -2.0774152 -1.5243181 -0.6123535 -0.26505342
0001d0 cb e9 48 be 45 27 6c 3d 47 26 dc bd 52 f6 5d 3d
       -0.19620435 0.057654638 -0.10749488 0.054189987
0001e0 04 5b 65 bd 3c 16 37 be 26 94 ce be 1a bd 15 be
       -0.055995002 -0.17879575 -0.40347403 -0.14622918
0001f0 41 f7 06 be 56 90 51 3e 33 cc 7a bf 2f 63 16 bf
       -0.13180257 0.20465216 -0.97967833 -0.5874509
000200 a9 be 59 bd e6 b0 54 be 47 dd 6d 3d 2c bb 41 bf
       -0.053160343 -0.20770606 0.058072355 -0.75676227
000210 67 3d 74 bf 03 a8 d7 be 3c 82 e7 3d 69 40 fb be
       -0.9540619 -0.4212037 0.11304137 -0.4907258
000220 8c 01 75 bf 0b 69 ab bf 4f f9 b4 be 5c 5a 88 bf
       -0.95705485 -1.3391432 -0.35346457 -1.0652575
000230 48 36 19 bf f5 02 7b bf 6f 4d 80 bf 7c 03 c9 3e
       -0.5984845 -0.9805139 -1.0023631 0.3926047
000240 8b fe 96 bf 85 2e ee bf 8e af 94 bf d1 04 7e bf
       -1.179643 -1.8607947 -1.1616075 -0.992261
000250 25 27 6b bf bc 6c 52 bf 96 86 c1 bf b4 a7 92 bf
       -0.91856605 -0.82197165 -1.5119197 -1.1457429
000260 38 93 fc be 8e 9b ad bf 39 8a 05 c0 9b 59 ae bf
       -0.4933107 -1.3563097 -2.0865614 -1.3621095
000270 8f 82 e1 be c5 19 28 bf d3 d5 cd be c7 25 6f be
       -0.4404492 -0.6566432 -0.40202197 -0.23354255
000280 f6 c7 48 bf 96 42 4e 3e 1b 22 8d bf 01 b9 43 be
       -0.78430116 0.20142588 -1.1026033 -0.19113542
000290 91 b8 0d bf d1 c2 aa bf b6 ed 96 bf cd 7a cd bf
       -0.5535975 -1.3340703 -1.1791294 -1.6053101
0002a0 34 ef 99 bf 6c b0 ad bf bc 6c 43 bf 65 52 1a bf
       -1.2026124 -1.3569465 -0.7633779 -0.60281974
0002b0 7c a1 32 bf 8a e1 7a bf e6 74 bc bf a6 c1 8b bf
       -0.69777656 -0.98000395 -1.4723175 -1.0918472
0002c0 3e 7f 44 bf 22 93 08 bf aa a7 f1 3d 1e f8 94 bd
       -0.76756656 -0.53349507 0.117995575 -0.07273887
0002d0 9a ad 95 3e 37 e2 be bf 87 d2 fc bf fb 48 91 bf
       0.2923401 -1.4912785 -1.9751748 -1.1350397
0002e0 bf 94 17 c0 79 88 61 bf f9 2c ba bf 39 bd b0 bf
       -2.3684537 -0.88098866 -1.4544975 -1.3807746
0002f0 8c 21 34 be cd d5 b9 bf bd c0 6b bf ae 4e c4 be
       -0.17590922 -1.4518372 -0.9209097 -0.38341278
000300 78 3a 4c be eb d2 96 3f 1d 99 b2 3e 81 d6 26 bf
       -0.19944179 1.1783117 0.3488244 -0.65171057
000310 de 07 95 3f be cd 6b 3f b4 5b 13 bf 66 37 d3 bd
       1.1643026 0.9211081 -0.575618 -0.10313301
000320 65 ed 93 be 15 06 47 bf b6 60 14 bf e0 ed 24 bf
       -0.28892055 -0.77743655 -0.5796007 -0.6442547
000330 c8 88 1e bf 83 9a 42 bf b6 42 67 bf e7 e2 37 bf
       -0.6192746 -0.76017016 -0.9033617 -0.718306
000340 1b 56 9a be 39 30 3a bf 3c d1 20 3f a0 38 1e bf
       -0.30143818 -0.7272983 0.62819266 -0.6180515
000350 1e ed 7d bf 1e 68 82 3c 1f 50 c5 be 79 cd ed be
       -0.9918994 0.015918788 -0.3853769 -0.46445826
000360 c4 31 0e 3d cd 10 1e 3d b9 14 fd 3d aa 09 03 3e
       0.03471543 0.03859024 0.12357468 0.12796655
000370 8d af 2b ba 8f 48 a5 3d 12 bd 9c bd e9 78 ff 3d
       -0.00065492914 0.0807048 -0.0765325 0.12474234
000380 d8 45 2e be d4 69 f0 bf b8 47 89 bf b3 8d 52 bf
       -0.17018831 -1.8782296 -1.0725012 -0.82247466
000390 d8 3a 2a bf 73 1b 00 bf d3 4d 8c be c2 44 5e bd
       -0.6649604 -0.50041884 -0.27403125 -0.05426479
0003a0 01 55 ee bd 4c 0b ad be 68 5b f0 be 80 cd 1c bf
       -0.11637307 -0.3379768 -0.46944737 -0.6125107
0003b0 67 bd af 3e 47 d6 82 bf b6 77 0a bf 38 c1 19 bf
       0.3432419 -1.0221642 -0.54088914 -0.60060453
0003c0 a5 46 a3 3e 9c 8d 0b bf ee 2f 05 3e bc e1 65 3c
       0.31889835 -0.54512954 0.13006565 0.01403087
0003d0 9a f4 e9 3d 96 91 f5 bc f8 1a 23 3e fb 3d a9 3d
       0.11423607 -0.029976647 0.15928257 0.08263775
0003e0 4b b0 11 be 2a 6a 8b be 23 b3 2c be 02 cb 75 3e
       -0.14227407 -0.27229434 -0.1686521 0.24003223
0003f0 a1 f8 19 3d b2 16 f3 be ce 22 4d be a5 54 8f be
       0.037590627 -0.47478253 -0.20032808 -0.27994266

bias f4 [32]
000000 ab 6a b4 be 29 10 dd be 7a e5 6f be 62 87 7e bf
       -0.3523763 -0.43176392 -0.23427382 -0.9942533
000010 8f 33 c5 be 85 02 f1 bf f5 5a 88 bf f2 4f 27 3f
       -0.385159 -1.8828894 -1.0652758 0.6535636
000020 a8 e8 cf 3e df 80 fe bf d9 8c 05 be 49 52 f2 be
       0.4060719 -1.9883078 -0.1304201 -0.47328404
000030 0e 54 4b bf 90 5d f8 bf 7c 3d 72 bf c9 bd 1d be
       -0.7942513 -1.9403553 -0.9462507 -0.15404429
000040 c4 dd 10 bf 3a 34 01 3f 61 d4 db be 1f 79 3c be
       -0.5658839 0.50470316 -0.4293547 -0.18405579
000050 c0 c6 06 3f 2e e9 1e be f5 79 07 c0 78 76 ea bd
       0.5264702 -0.15518638 -2.1168187 -0.11448377
000060 b2 49 15 bf 42 8a db be 38 ef 66 bf f4 41 de bd
       -0.58315575 -0.4287892 -0.9020877 -0.10852423
000070 ed fa 2c bf a3 1f 10 be af d0 35 be 4a 06 36 bf
       -0.6757038 -0.14074568 -0.17755388 -0.71103346
