models/v1_large.pt (torch, 588086 bytes, 57 tensors)

cls f4 [1, 1, 32]
0	0xbf56d327	-0.8391594
1	0xbdcd9e84	-0.1004
2	0x404a2bd9	3.1589262
3	0x3e842359	0.25808218
4	0x3f5c1ba5	0.8597968
5	0xbf67a652	-0.9048816
6	0x3fdb3e27	1.7128342
7	0xbe321408	-0.17390454
8	0xbed8f1d8	-0.42372012
9	0x3eed0a66	0.46296996
10	0xbfd0528c	-1.6275191
11	0x3eaf3fb9	0.34228304
12	0xbfbf1d9c	-1.4930911
13	0x3ebedda7	0.37278482
14	0xbd217302	-0.03941632
15	0x3cc61c12	0.024183307
16	0x3f132eff	0.57493585
17	0x3f83d5e3	1.0299648
18	0x3e9a2071	0.30102876
19	0x3ebcc692	0.36870247
20	0xbf0c15fb	-0.5472104
21	0xc0020511	-2.0315592
22	0xbf23ddec	-0.640105
23	0x3eaa4023	0.33252057
24	0xbe9b3415	-0.30313173
25	0xbf8af5b8	-1.0856237
26	0x3ee67c05	0.45016494
27	0x3e0fc726	0.14040813
28	0xbe4353f1	-0.1907499
29	0xbf9a460b	-1.2052625
30	0xbefa7625	-0.48918262
31	0xbe6c4fa2	-0.23077253

gaze_pe f4 [1, 120, 32]
0	0xbf31f8fc	-0.69520545
1	0xbeb9a7ce	-0.36260837
2	0x3f94e7ec	1.1633277
3	0x3f8c437d	1.0958096
4	0xbeecf065	-0.46277156
5	0x3f5a6e4b	0.85324544
6	0x4019615d	2.3965676
7	0xbc8389a2	-0.01605684
8	0xbef68516	-0.48148412
9	0xbf34009a	-0.7031342
10	0x3f3d9163	0.7404997
11	0x3ef7c106	0.48389453
12	0x3d92201b	0.0713503
13	0x3f7749e4	0.96597123
14	0x3f90cbee	1.1312234
15	0x3e9bff86	0.30468386
16	0xbeee70dc	-0.4657048
17	0xbfc2011e	-1.5156591
18	0xbfdfaa29	-1.7473804
19	0xbf440bc1	-0.76580435
20	0xbf0056c1	-0.50132376
21	0x3ed3486f	0.412662
22	0x3e2881b2	0.16455725
23	0xbe0429f8	-0.12906635
24	0xbfef66d0	-1.8703251
25	0x3faab2f0	1.3335857
26	0x3e69b970	0.22824645
27	0xbfc4e575	-1.5382525
28	0x3fcc4756	1.595927
29	0xbf80849e	-1.0040472
30	0xbecefb7d	-0.40426245
31	0xbf976c3e	-1.1829908
32	0x3d4db8be	0.050225012
33	0xbee87e92	-0.45409065
34	0x3e84e6a3	0.25957212
35	0x3fe28576	1.7696979
36	0x3fd4d938	1.662879
37	0x3fe77a0b	1.808412
38	0x3f8d1cf9	1.1024467
39	0x3f498618	0.78720236
40	0xbeb829ae	-0.359693
41	0xbf85e167	-1.0459412
42	0xbe46b0dd	-0.19403405
43	0xbfc90373	-1.5704178
44	0xbe89e63f	-0.26933476
45	0x3f897ce6	1.0741241
46	0xbca64f30	-0.020301431
47	0x3f939aa2	1.1531565
48	0xbd58bc01	-0.05291367
49	0x3ebceb25	0.3689815
50	0xbe7afd19	-0.24510612
51	0x400fb3ab	2.245341
52	0x3f051f7e	0.5200118
53	0xbdd85136	-0.10562365
54	0xbfe356a1	-1.7760812
55	0xbf697471	-0.911933
56	0xbfa1eebf	-1.2650985
57	0x3fab6d26	1.3392684
58	0xbdf5040a	-0.11963661
59	0x3fbf3a3a	1.4939644
60	0x3f2f5a83	0.68497485
61	0x3eb2fd65	0.3495895
62	0xbfc4b43c	-1.5367503
63	0xbf859207	-1.0435189
64	0x3e766fd0	0.2406609
65	0x3da07f80	0.07836819
66	0xbf124faf	-0.5715284
67	0x3f809307	1.0044869
68	0x3e08518b	0.13312356
69	0x3dde7e33	0.10863914
70	0x3e896814	0.26837218
71	0xbe1a8088	-0.15088093
72	0xbeef77ed	-0.46771184
73	0x3f2e6a4e	0.6813096
74	0xbf71695a	-0.9430138
75	0x3f09d2e0	0.53837395
76	0x3eaca33c	0.33718288
77	0xbd659d7f	-0.056058403
78	0xbf02c131	-0.51076037
79	0xbf41b5b7	-0.756679
80	0xbe225797	-0.15853725
81	0xbf960516	-1.1720302
82	0xbf31b9fe	-0.69424427
83	0xbe16216c	-0.14661187
84	0x3fbdd7c0	1.4831467
85	0x3e7db6cd	0.24776764
86	0x3f1463d0	0.579648
87	0x3f94a8ca	1.161401
88	0x3db7f6a9	0.089825936
89	0x3f4b2ef2	0.7936851
90	0x3f78760c	0.97055125
91	0xbed80566	-0.4219162
92	0x3d756790	0.059913218
93	0x3f04f514	0.5193646
94	0x3e73a700	0.23794174
95	0x3effd89d	0.4996995
96	0x3ecbb559	0.39786795
97	0x3f52ace4	0.8229506
98	0xbf6e258c	-0.9302604
99	0xbde4e151	-0.11175788
100	0xbfde83d3	-1.738398
101	0x3f4175b9	0.75570256
102	0x40071f5d	2.1112893
103	0xbf4375c0	-0.7635155
104	0xbf07fb6d	-0.5311802
105	0xbeac5f0d	-0.33666268
106	0x3dd1f552	0.10251869
107	0xbe40b1c7	-0.18817817
108	0xbf176deb	-0.59152097
109	0x401dab7b	2.4635913
110	0x3e6f6caf	0.23381303
111	0xbc44b9c1	-0.012007178
112	0xbf9d278c	-1.2277694
113	0xbf70e1bf	-0.9409446
114	0xbf7fdd8f	-0.99947447
115	0x3eb13ae1	0.34615234
116	0x3e9809bb	0.29694924
117	0x3f988e22	1.1918375
118	0x3dc3ae96	0.09554784
119	0x3e8d4839	0.27594164
120	0xbf520eca	-0.82053816
121	0x3fdbe9ba	1.7180703
122	0x3f56b2de	0.8386668
123	0x3eba8d3c	0.36435878
124	0x3f1dd7e3	0.6165754
125	0x3e0c3d49	0.13695253
126	0xbdb6bb4c	-0.08922443
127	0xbf85521b	-1.0415682
128	0xbf8e0599	-1.1095458
129	0xbf2106f8	-0.6290126
130	0xbf6e70ed	-0.9314106
131	0x3f79cdf3	0.9757988
132	0xbcac9533	-0.021067237
133	0xbf104654	-0.5635731
134	0x3f82c9fe	1.0217893
135	0x3f008b43	0.50212497
136	0x3f85a14a	1.0439847
137	0xbf5ad0ac	-0.8547466
138	0xbe332f8a	-0.17498603
139	0x3ed1a152	0.4094339
140	0x3ef2d6b7	0.4742944
141	0xbf794a42	-0.97378933
142	0xbe8c0b70	-0.27352476
143	0xbfaf9b57	-1.3719281
144	0xbfacb90b	-1.3493971
145	0xbfb36d27	-1.4017686
146	0xbf806caf	-1.0033168
147	0xbd1e1586	-0.038594745
148	0x404a29ca	3.1588006
149	0xc0227044	-2.5381021
150	0xbef59358	-0.47963977
151	0x3f27b7a7	0.65514606
152	0xbf676d7c	-0.90401435
153	0x3f1d68a8	0.6148782
154	0xbf2ee9e4	-0.6832564
155	0xbeffe445	-0.49978843
156	0x40086b3d	2.1315453
157	0x3eeee05b	0.46655545
158	0xbf060d55	-0.52364093
159	0x3da0138e	0.0781623
160	0x3f99e6a3	1.202351
161	0xbf3abed0	-0.72947407
162	0x3f5e9e4a	0.8696028
163	0xbfd606c2	-1.6720812
164	0x3ede9376	0.4347188
165	0xbd88585d	-0.06657479
166	0xbfdd0b46	-1.7269065
167	0x3d93616c	0.07196316
168	0xbf9da760	-1.2316704
169	0x3f4ea818	0.8072524
170	0xbf5de010	-0.8667002
171	0xbe1eb680	-0.15499306
172	0xbf6e5274	-0.93094563
173	0xbe4e3cc3	-0.20140366
174	0x3c1e84ab	0.009675185
175	0xbe98a420	-0.29812717
176	0xbe4bd4e3	-0.19905429
177	0xbf1eb862	-0.62000096
178	0xbfafb867	-1.372815
179	0xbeaf5e8a	-0.34251815
180	0x3f7a59e0	0.9779339
181	0x3f4de078	0.8042064
182	0x3f9806a4	1.1877027
183	0xbf05e67f	-0.52304834
184	0x3f6858dd	0.90760595
185	0x3f5a6b3a	0.85319865
186	0x3e84431a	0.25832444
187	0xbf81b14f	-1.0132235
188	0xbde74559	-0.11292524
189	0x3f5a4afc	0.8527067
190	0x3f6781e4	0.9043257
191	0xbf20acec	-0.6276386
192	0x3f94f30e	1.1636674
193	0x3e3442b4	0.1760357
194	0xbf860a32	-1.0471861
195	0x3faa1104	1.3286443
196	0xbf2edd30	-0.68306255
197	0x3cd295ed	0.025706256
198	0x3fb78374	1.4336991
199	0x3ef0ad09	0.47007015
200	0xbf86407f	-1.0488433
201	0xbdde59ac	-0.10856947
202	0x3e3d718e	0.18500349
203	0x3e80e71b	0.2517632
204	0x3fbdb9c8	1.4822321
205	0xbf73c2e4	-0.95219254
206	0x3f057d80	0.5214462
207	0x3f3d4346	0.73930776
208	0x3e98bc37	0.29831097
209	0x3e42f421	0.1903844
210	0xbf9eedf4	-1.2416368
211	0xbf0a8a33	-0.54117125
212	0xc0250490	-2.5784035
213	0xbeabe728	-0.33574796
214	0x3ab90c19	0.0014117985
215	0x40057764	2.085412
216	0xbf4963a9	-0.78667694
217	0x3f2ee54e	0.6831864
218	0x3e07718e	0.13226911
219	0xbfd4a275	-1.6612078
220	0xbe916058	-0.28393817
221	0xbf5fcd51	-0.8742266
222	0x3edbd73d	0.4293765
223	0xbf95f05e	-1.1713979
224	0x400b7d2f	2.1795156
225	0x3e42dd26	0.19029674
226	0xbf980acc	-1.1878295
227	0x3f16f664	0.5896971
228	0x3f2f1f86	0.68407476
229	0x3f034242	0.51272976
230	0x3ed0d427	0.4078686
231	0xbf4eef20	-0.80833626
232	0xbe8d53b8	-0.27602935
233	0xbdf3f286	-0.11911492
234	0xbf2dfdbc	-0.6796529
235	0xbeeec8ae	-0.4663748
236	0x3f62c2fc	0.8857877
237	0xbf7a1eec	-0.97703433
238	0x3e1e7c0b	0.15477006
239	0xbf9c127d	-1.2193142
240	0xbf6f85db	-0.9356362
241	0xbfac01c3	-1.3438038
242	0x3e1537c2	0.14572051
243	0xbe159766	-0.14608535
244	0xbf38d801	-0.72204596
245	0xbec4ddb3	-0.38450393
246	0xbf1b2cb4	-0.60615087
247	0xbf54ccf4	-0.83125234
248	0x3e700ef6	0.23443207
249	0xbf8ad574	-1.0846391
250	0x3f9e647b	1.2374414
251	0xbe5e3c46	-0.2170268
252	0xbf82dfb9	-1.0224525
253	0x3f39dc0d	0.72601396
254	0x3f8a8a05	1.082337
255	0xbfbdd890	-1.4831715

imu_pe f4 [1, 120, 32]
0	0x3ea1ca64	0.31599724
1	0xbe58d19a	-0.21173707
2	0xbe4eef98	-0.20208585
3	0x3fa7602a	1.3076222
4	0x3f415517	0.7552046
5	0x3f9c0702	1.2189639
6	0xbfce3bb8	-1.6111975
7	0x3e75b4c3	0.23994736
8	0x3eb53ac1	0.35396388
9	0xbf13acc3	-0.5768549
10	0x3d9c4627	0.07630568
11	0x401f7b5c	2.4919043
12	0x3f4ee910	0.80824375
13	0xbf281449	-0.6565595
14	0xbf6ec977	-0.9327616
15	0x3eb4f41c	0.3534249
16	0x3fe950b3	1.8227752
17	0xbf876bbb	-1.0579752
18	0xbf0d1266	-0.551062
19	0xbdf4a5f9	-0.11945719
20	0x3f8f7d14	1.1210046
21	0xbfef81d3	-1.8711494
22	0x3ea78b05	0.3272325
23	0x3f259d5f	0.64693254
24	0x3afc6fe0	0.0019259416
25	0xbfb5383f	-1.415779
26	0x3e21a991	0.1578734
27	0xbf7539e1	-0.9579144
28	0x3f98bffe	1.1933591
29	0xbf837c2d	-1.027227
30	0xbfcfe99e	-1.6243169
31	0xbf968d06	-1.1761787
32	0xbec85e49	-0.39134434
33	0xbc2395ca	-0.009984443
34	0xbfcf22e2	-1.618252
35	0xbf83c1c4	-1.0293508
36	0xbf1730b4	-0.5905869
37	0x3f4ae446	0.7925457
38	0x3f51f3af	0.82012457
39	0x3dd11221	0.10208536
40	0xbf5430d1	-0.8288699
41	0xbdfae1f4	-0.122501284
42	0x3ed07980	0.40717697
43	0x3f04a8fa	0.5182034
44	0x3fa13479	1.2594138
45	0xbf3dcd25	-0.7414115
46	0xbe5d531a	-0.21613732
47	0x3f8e84dc	1.1134295
48	0x3fef4bb7	1.8694981
49	0x3fdf6bdf	1.7454795
50	0x3f9587be	1.168205
51	0x3e5f4a97	0.21805798
52	0x3fac9a8a	1.3484662
53	0x3da0b33a	0.07846685
54	0x3dc8c43e	0.09803055
55	0xc053a4ff	-3.3069456
56	0x40032d28	2.049631
57	0xbf7f22dd	-0.9966257
58	0xbd74aa57	-0.05973276
59	0x3dc82b16	0.09773843
60	0x3f32f59f	0.6990604
61	0x3d416473	0.047214936
62	0x3ca68297	0.020325942
63	0x3f50d62b	0.81576794
64	0xbdf73599	-0.1207077
65	0xbf9fb9cb	-1.2478575
66	0xbf3338ef	-0.7000875
67	0x3eb2a6b1	0.348928
68	0xbf99d44b	-1.2017912
69	0xbf556440	-0.83356094
70	0x3f88ae2f	1.0678157
71	0x3f953ec3	1.1659778
72	0xbfff5e34	-1.9950624
73	0xbf9252a0	-1.1431465
74	0x3f2a9abb	0.6664235
75	0xbcc6b056	-0.024254005
76	0xbf80bec7	-1.0058221
77	0xbf07716c	-0.52907443
78	0xbe66698f	-0.22501205
79	0xbe8fdb94	-0.28097212
80	0xbfa1205c	-1.2588
81	0x3ef54bb1	0.4790931
82	0xbee325c0	-0.44364738
83	0xbf1c27cf	-0.60998243
84	0xbf0dea74	-0.5543587
85	0x3d0e48f4	0.034737542
86	0xbf95b8c2	-1.1697009
87	0x3e1c246e	0.15248272
88	0x3f633df5	0.88766414
89	0xbf29775b	-0.66197747
90	0xbe43b8f1	-0.19113518
91	0x3eb97560	0.36222363
92	0xbf8b08c7	-1.0862054
93	0xbe522aa1	-0.20524074
94	0xc006b544	-2.1048136
95	0xbece2afd	-0.40267172
96	0x3f04f7c4	0.5194056
97	0xbdf3928c	-0.11893186
98	0x3de85114	0.113435894
99	0xbf2a297b	-0.66469544
100	0xbeefe04e	-0.46850818
101	0xbf828897	-1.0197934
102	0xbfa094c8	-1.2545404
103	0x3dbbee4e	0.091763124
104	0xbf995764	-1.1979795
105	0x400dd767	2.216272
106	0xbfbf01cb	-1.4922422
107	0xbeb4b4bb	-0.35294136
108	0x3bd1c5ad	0.0064017386
109	0x3f190552	0.59773743
110	0xbfc18a33	-1.51203
111	0xbff934f8	-1.946929
112	0xbf1f09da	-0.6212441
113	0xbe62fe5c	-0.22167343
114	0xbfd65c31	-1.6746885
115	0xbfcaa713	-1.5832237
116	0xbf9f4eca	-1.244592
117	0x3d942a68	0.07234651
118	0x3ebcc105	0.36866012
119	0x3e6632d5	0.22480328
120	0x3db9230b	0.09039887
121	0xbf929e97	-1.1454648
122	0xbeeabf55	-0.458491
123	0xbfde96ab	-1.738973
124	0x3ee64d06	0.4498064
125	0xbcf10a2a	-0.029423792
126	0xbe4e25ed	-0.20131655
127	0xbf034593	-0.51278037
128	0x3e2a9bfc	0.16661066
129	0x3fdb7d4c	1.7147613
130	0xbfa455fd	-1.2838742
131	0xbe451199	-0.19244994
132	0xbec8b5dd	-0.3920125
133	0x3e513779	0.20431317
134	0xbf7b48c7	-0.98157924
135	0xbdd4da49	-0.10393197
136	0x3dc1fd76	0.09472172
137	0xbfb38ef0	-1.4027996
138	0xbead0f0b	-0.3380054
139	0x3f36d662	0.7142087
140	0xbeb92c45	-0.36166587
141	0x3f970422	1.1798136
142	0x3f1e2a39	0.61783177
143	0xbf1a7015	-0.60327274
144	0x3f93233d	1.1495129
145	0xbf4502fe	-0.7695769
146	0x3fbb8bcd	1.4652039
147	0xbfbb00b0	-1.4609585
148	0xbfbdd956	-1.4831951
149	0x3fc2716b	1.5190862
150	0xc00de413	-2.2170455
151	0x3fd3ec25	1.655644
152	0x3f7deb74	0.991874
153	0x3f37326b	0.71561307
154	0xc00600b9	-2.093794
155	0xbfa9c6fe	-1.3263853
156	0xbf438e21	-0.76388747
157	0xbf0f8570	-0.56062984
158	0xbfb896fd	-1.4421078
159	0x3f4d90ee	0.8029927
160	0xbfc11dd0	-1.5087223
161	0x3de19a3a	0.110157445
162	0x3fa398fb	1.2781061
163	0x3f822a70	1.0169201
164	0x3f3a916b	0.7287814
165	0x40080005	2.1250012
166	0xbe9deb41	-0.30843547
167	0x3e4b7186	0.19867525
168	0x3e5ac792	0.21365193
169	0xbffb83a1	-1.9649545
170	0x3e14aa27	0.14518033
171	0xbe2cd860	-0.16879416
172	0x3ea0b1f6	0.31385773
173	0xbd26b48d	-0.04069953
174	0xbf089999	-0.5335937
175	0xbe3e056c	-0.18556756
176	0xbf6d24e9	-0.92634445
177	0xbfda272b	-1.7043203
178	0x3ee96358	0.45583606
179	0x3dd87543	0.10569241
180	0xbead1d58	-0.3381145
181	0x3c1761dd	0.009239641
182	0x3ec6f1fd	0.38856497
183	0x3f3b3e07	0.7314152
184	0xbf9f8929	-1.2463733
185	0x3f70f699	0.9412628
186	0x3f1e0c6c	0.61737704
187	0x3df17090	0.11789048
188	0x3fb7b3e3	1.4351772
189	0x3e163f9f	0.14672707
190	0xbf2348a4	-0.63782716
191	0xbf2a795d	-0.66591436
192	0xbf36e16a	-0.71437705
193	0x3f71a38f	0.94390196
194	0xbb3cfdd8	-0.0028837826
195	0x3e79fceb	0.24412887
196	0x3f9b92b2	1.2154143
197	0xbf94fc90	-1.1639576
198	0xbf13aace	-0.576825
199	0x3e680092	0.22656468
200	0x3e5ccaed	0.21561785
201	0x3e99ce01	0.3003998
202	0x3f12f734	0.5740845
203	0xbed34284	-0.41261685
204	0x3f43bce4	0.764601
205	0xbfb06aec	-1.378263
206	0x3f58b0d0	0.84644794
207	0xbf8e12ea	-1.1099522
208	0xbfd71a8c	-1.6804976
209	0xbf459fb1	-0.77196795
210	0x400edf44	2.232377
211	0xbaabe0e0	-0.0013113283
212	0x3f0fe885	0.5621417
213	0x3f3d1b71	0.7387
214	0xbfaa599c	-1.3308597
215	0xbf86eb1b	-1.0540498
216	0x3f92a843	1.1457599
217	0xbe0dca84	-0.13846785
218	0xbf8f1a70	-1.1179943
219	0x3e86ca04	0.26326
220	0xbf959f60	-1.1689262
221	0x3ecf6a84	0.40510952
222	0x3f5bb180	0.8581772
223	0xbf4496a4	-0.7679236
224	0x3c7894b1	0.01517217
225	0xbebe120a	-0.37123138
226	0x3f26f3d1	0.65215784
227	0xbe51ca1d	-0.20487256
228	0x3f836789	1.0265971
229	0x3f85f43c	1.046516
230	0xbf424de4	-0.759001
231	0xbf66fd3e	-0.90230167
232	0x3eed9a3b	0.4640673
233	0x3f269444	0.65069985
234	0xbf139c32	-0.5766021
235	0xbf5c511c	-0.86061263
236	0x3f4fc607	0.8116154
237	0x401c3b7b	2.4411304
238	0x3e9be284	0.30446255
239	0x3f7ee9f5	0.9957574
240	0xbdc3ff4b	-0.09570178
241	0xbf115fd3	-0.5678684
242	0x3fcc9fbd	1.5986248
243	0xbde0bd6e	-0.10973631
244	0xbf9d65c3	-1.229668
245	0xbf586819	-0.8453384
246	0x3e65ffc5	0.2246085
247	0xbfccacd4	-1.5990243
248	0x3fbb4d98	1.4633055
249	0xbf414d8f	-0.7550897
250	0xbe435025	-0.19073541
251	0x3f3c176b	0.73473233
252	0x3f8cf8e3	1.1013454
253	0xc00428d8	-2.064993
254	0xbf6a2b1d	-0.91472036
255	0x3e37036d	0.178724

rgb_pe f4 [1, 49, 32]
0	0x3f125aa8	0.5716958
1	0xbf2fb83f	-0.6864051
2	0x3fced813	1.6159691
3	0x3f497973	0.7870094
4	0xbe7fc384	-0.24976927
5	0x3f9c6d4a	1.2220852
6	0x3f80ee92	1.0072806
7	0x3ea6ccdd	0.32578173
8	0xbe5388eb	-0.20657699
9	0xbf9ec101	-1.240265
10	0xbc08d262	-0.00835094
11	0x40083d72	2.1287503
12	0xbf8f8b5a	-1.1214402
13	0xbfcde52c	-1.6085563
14	0x3f12badd	0.5731638
15	0xbeed6ba9	-0.463712
16	0xbef2c7d0	-0.4741807
17	0xbf6e092d	-0.9298275
18	0x3e9a6890	0.301579
19	0xbee9e238	-0.45680404
20	0xbe076ff1	-0.13226296
21	0xbf799123	-0.97487086
22	0xbfc3f711	-1.5309774
23	0x3fc59ffc	1.5439448
24	0x3f0173c3	0.50567263
25	0xbf50c581	-0.8155137
26	0x3e37345d	0.17891069
27	0x3ea1a8c2	0.31574064
28	0xbe0b433a	-0.13599864
29	0xbf4eefa9	-0.8083444
30	0x3f604263	0.876013
31	0x3f22e1d6	0.6362585
32	0xbf76994b	-0.96327657
33	0x3e790a75	0.24320395
34	0x3fcea0fb	1.6142877
35	0xbeb9cfad	-0.36291257
36	0xbf67f972	-0.90615
37	0xbfc63751	-1.5485631
38	0x3f86f832	1.0544493
39	0xbf2e9358	-0.6819358
40	0xbee61327	-0.44936487
41	0xbd8273ab	-0.06369718
42	0x3eac363b	0.33635125
43	0x3ea42917	0.320626
44	0xbec9cbcf	-0.39413306
45	0x3f9012ff	1.1255797
46	0xbecf4b22	-0.4048701
47	0xbf2de449	-0.6792646
48	0x3e568c51	0.20951964
49	0xbd963b71	-0.07335556
50	0x3f9302e5	1.1485258
51	0x3f24d7d5	0.64391834
52	0xbedcb7e0	-0.43109035
53	0x3fe0da92	1.7566702
54	0x3df3dfbf	0.119079106
55	0x3ec1372f	0.37737414
56	0xbf3dc788	-0.74132586
57	0xbfb628d0	-1.4231205
58	0x3f024de9	0.5090013
59	0x3e6aec47	0.22941695
60	0xbf6b3e0a	-0.9189154
61	0x3fa42ace	1.2825563
62	0x3f1fcd02	0.6242219
63	0xbfe017da	-1.7507279
64	0xbf1e87f8	-0.6192622
65	0xbf20b011	-0.62768656
66	0xbedd99d6	-0.4328143
67	0x3f4b9885	0.795296
68	0xbeb49748	-0.35271668
69	0xbfedc80d	-1.8576676
70	0xbf2ba6e5	-0.67051536
71	0xbf4e627f	-0.80619043
72	0x3d50cb56	0.050975166
73	0xbf08d51c	-0.5345018
74	0xbe36d576	-0.17854866
75	0x3f9614d3	1.1725105
76	0x3c5bbc07	0.013411528
77	0x3fb57411	1.4176046
78	0x40037cb4	2.0544863
79	0x3eb10d0c	0.34580266
80	0x3d65b9da	0.056085445
81	0x3d2dbc80	0.042416096
82	0xbf85dd49	-1.0458156
83	0x3feb6b75	1.8392168
84	0x3f845fd0	1.034174
85	0xbf61bb05	-0.88175994
86	0x3f884bfa	1.0648186
87	0x3e561f16	0.20910296
88	0x3fbbd7c9	1.4675227
89	0xbf828f10	-1.0199909
90	0xc003c7ae	-2.0590625
91	0x3fa2d718	1.2721891
92	0x3e2a0ead	0.16607161
93	0xbf063a90	-0.5243311
94	0xbe4876e6	-0.19576606
95	0x3dac89fb	0.08424755
96	0x3f469307	0.77568096
97	0x3fbebee2	1.4902003
98	0x3f8fb3a5	1.1226698
99	0xbf687f0f	-0.90818876
100	0xbf94c1a8	-1.1621599
101	0xbe8e0964	-0.2774154
102	0xbdfebf1c	-0.12438795
103	0xbfaa8511	-1.3321859
104	0xbcc936f5	-0.024562338
105	0x3e9adb7b	0.30245575
106	0xbffb6bfa	-1.9642327
107	0x3f80ca87	1.0061806
108	0xbdad6a3a	-0.08467527
109	0xbb784b6e	-0.0037886756
110	0xbfc8af60	-1.567852
111	0x3e31a20d	0.17346974
112	0xbef3cdd6	-0.47617978
113	0x3f99ce2a	1.2016041
114	0x3f1db891	0.6160975
115	0x3fb3ea16	1.4055812
116	0xbf89aa7f	-1.0755156
117	0xbe639d70	-0.22228026
118	0xbf4c810f	-0.7988443
119	0x3f5d6237	0.8647799
120	0x3ed26d4c	0.41099012
121	0x3f42e5a1	0.76131636
122	0x3f224c55	0.63397723
123	0x3f8eae65	1.1146971
124	0x3e21e09b	0.15808336
125	0xbe7b7edc	-0.24560112
126	0xbf999557	-1.19987
127	0xbe415f87	-0.18884097
128	0x3fa0e8e2	1.257107
129	0x3f4dd0da	0.8039681
130	0x3ecdeaa9	0.40218094
131	0x3f6757ea	0.9036852
132	0x3fbb3c54	1.4627786
133	0xbff11c04	-1.8836675
134	0xbead5748	-0.33855653
135	0xbe0f684b	-0.14004628
136	0x3f2eac60	0.68231773
137	0x3e017152	0.12640885
138	0x3f6548a4	0.89563966
139	0xbf91e95c	-1.1399341
140	0xbf6ee930	-0.93324566
141	0xbf5a3785	-0.85240966
142	0xbf8fca7e	-1.1233671
143	0x3faec230	1.3653011
144	0x3de97497	0.11399191
145	0xbb30ed10	-0.002699677
146	0xbf8487ff	-1.0354003
147	0xbf354a8b	-0.7081687
148	0xbfadfee8	-1.3593416
149	0x3f29965c	0.66245055
150	0xbfcfc616	-1.6232326
151	0x3f9c366c	1.2204108
152	0x3ec9d441	0.3941975
153	0xbf89c06b	-1.0761846
154	0xbfd172d1	-1.6363164
155	0xbe5763cf	-0.21034168
156	0xbe8ec5cf	-0.2788529
157	0xbf9b527e	-1.213455
158	0x3f573b9b	0.84075326
159	0xbe08869d	-0.13332601
160	0x3e5bec29	0.21476807
161	0xbfbb352b	-1.46256
162	0x3f02529c	0.509073
163	0xbf8ccea9	-1.1000568
164	0xbeb465e8	-0.35233998
165	0xbf660880	-0.8985672
166	0x3fbd276d	1.4777657
167	0xbf942642	-1.1574175
168	0xc01be206	-2.4356704
169	0xbf0f39eb	-0.5594775
170	0x3f1b7da7	0.60738605
171	0x3e3a5d53	0.18199663
172	0x3eabf342	0.33584028
173	0x3f957be6	1.1678436
174	0x3f525b4b	0.8217055
175	0xbf173cb9	-0.5907703
176	0x3ede3704	0.4340135
177	0x3faa6c2f	1.3314265
178	0x3f7d0463	0.9883482
179	0xbd88e8b1	-0.06685007
180	0x3effdfdd	0.49975482
181	0xbf0d565e	-0.5520991
182	0x3f195279	0.5989147
183	0x3f471afd	0.77775556
184	0x3e805ce7	0.2507088
185	0x3ec1fb8f	0.37887236
186	0x3ee9ee80	0.45689774
187	0x3ef93a5e	0.48677343
188	0x3f40871a	0.7520615
189	0x3fa7e88b	1.3117841
190	0xbf5266ce	-0.8218812
191	0x3e8e5a26	0.27803153
192	0xbf743274	-0.95389485
193	0xbeb8ab67	-0.3606827
194	0x3ed0adbc	0.4075755
195	0xbfd3c36b	-1.6544012
196	0xbffb88cf	-1.9651126
197	0xbf80e26b	-1.0069097
198	0x3facd6fa	1.3503106
199	0x3fa3b978	1.2790976
200	0xbfabf275	-1.3433367
201	0xbfd837fb	-1.6892084
202	0x3ef250e7	0.4732735
203	0x3f835826	1.0261276
204	0xbfc9834e	-1.5743196
205	0xbfb871a7	-1.4409684
206	0xbfa4eca4	-1.2884717
207	0xbebf5edb	-0.37377056
208	0x3ee74d49	0.4517615
209	0x3fa8b83f	1.3181227
210	0xbe71da62	-0.23618463
211	0x3fa1ffb6	1.2656162
212	0x3f91ae5f	1.1381339
213	0xbf79f847	-0.97644466
214	0x3ec09f22	0.3762141
215	0x3e884aa6	0.26619452
216	0xbf5fa173	-0.87355727
217	0xbf832624	-1.0246015
218	0xbf4921a5	-0.7856696
219	0x3e0aafa3	0.13543563
220	0xbf8aa18f	-1.0830554
221	0xbf625733	-0.88414305
222	0xbf0a4c4d	-0.54022676
223	0xbf3ce986	-0.7379383
224	0x3eb9fba7	0.36324808
225	0x3f4199e1	0.75625426
226	0x3ffac457	1.9591168
227	0xc001009f	-2.015663
228	0xbeb77aa5	-0.35835758
229	0xbf9c7d06	-1.2225654
230	0x3f4eb52b	0.8074519
231	0xbf871754	-1.0553994
232	0x3f8c41cb	1.0957578
233	0x3fe9d340	1.8267593
234	0x3f673a7d	0.9032362
235	0xbf8fb43b	-1.1226877
236	0x3fc37214	1.5269189
237	0x3cf82047	0.030288829
238	0xbfb63c83	-1.4237217
239	0xbf9564ba	-1.1671364
240	0xbc75a6e1	-0.0149934
241	0x3ecfd9ff	0.40596005
242	0x3f00176a	0.5003573
243	0xbfd233d6	-1.6422069
244	0x3fe5bec3	1.7948841
245	0xbf0a1c6f	-0.53949636
246	0x3f8d9b0d	1.1062943
247	0xbf3a96e7	-0.7288651
248	0xbe99f485	-0.30069366
249	0x3e6af5f3	0.22945385
250	0xbfa2a17c	-1.2705531
251	0x3fca6fce	1.581537
252	0xbf068eba	-0.52561533
253	0x3fac96a5	1.3483473
254	0xbe9d5fda	-0.3073719
255	0xbec8fbda	-0.39254647

weight f4 [32, 3, 9]
0	0x3d04ad0b	0.03239159
1	0x3eb17a7b	0.34663758
2	0x3e60e10d	0.2196085
3	0x3e35b390	0.17744279
4	0x3ea95b70	0.33077574
5	0x3e5a948e	0.21345732
6	0x3b953690	0.0045536235
7	0x3cbf194e	0.023327496
8	0x3db37c25	0.08763913
9	0xbc0d94ed	-0.008641464
10	0xbe8cd728	-0.275079
11	0x3eb8b548	0.36075807
12	0x3eccfffe	0.40039057
13	0x3f050389	0.5195852
14	0xbe662c53	-0.22477846
15	0xbbd8dbe1	-0.0066180085
16	0x3e13df44	0.14440638
17	0xbc51b0b9	-0.012798482
18	0xbebdba3f	-0.37056157
19	0xbd656066	-0.056000136
20	0xbd222767	-0.03958836
21	0x3f0a924c	0.5412948
22	0xbe9b388d	-0.30316582
23	0x3e5fa68d	0.21840878
24	0x3eee64e5	0.4656135
25	0xbed7773c	-0.42083156
26	0x3ee55abe	0.44795793
27	0x3f0686ce	0.52549446
28	0x3e99a999	0.30012205
29	0x3ebd7573	0.3700367
30	0x3eab50a6	0.33459967
31	0x3ef8a8da	0.48566324
32	0x3ea1005f	0.31445596
33	0x3e349697	0.1763557
34	0x3d3d2730	0.04617995
35	0xbd2b59a7	-0.041833546
36	0x3e7369b7	0.23770796
37	0xbe66d488	-0.22542012
38	0xbdb5fae4	-0.08885744
39	0x3f4b9f25	0.7953971
40	0x3e1d82d6	0.15381941
41	0xbdebaa30	-0.1150707
42	0xbd35be30	-0.04437083
43	0x3d654a84	0.055979267
44	0x3db63cc2	0.088983074
45	0x3e5c82bd	0.21534248
46	0x3eee4d0c	0.46543157
47	0xbdc5d4c3	-0.09659722
48	0xbebfa713	-0.37432155
49	0x3f30d0e3	0.69068736
50	0x3eb61fd2	0.35571152
51	0x3eafbee1	0.34325317
52	0x3d37f228	0.044908673
53	0x3e0f7b15	0.14011796
54	0x3d2df5f7	0.0424709
55	0x3e17f370	0.14838958
56	0x3e3a54ab	0.18196361
57	0x3e5f1fc7	0.21789466
58	0x3d1329eb	0.035928648
59	0x3dacc68f	0.084363095
60	0xbcb9fea2	-0.022704426
61	0xbe9a48f7	-0.30133793
62	0xbe450166	-0.19238815
63	0x3e507245	0.2035609
64	0x3ec5fc40	0.38669014
65	0x3efaf009	0.49011257
66	0x3d289a47	0.041162755
67	0xbf0c9c14	-0.54925656
68	0xbed8c70d	-0.42339364
69	0xbea13bb1	-0.31490853
70	0xbe38a6d0	-0.18032384
71	0xbe9ad68b	-0.30241808
72	0xbe12a7d1	-0.1432183
73	0x3e28e497	0.1649345
74	0xbea86691	-0.32890752
75	0xbe9a708d	-0.30163994
76	0xbe9035f9	-0.28166178
77	0xbe874692	-0.26421028
78	0x3e20b82e	0.15695259
79	0xbe9580da	-0.29199868
80	0x3ef3b21a	0.47596818
81	0xbdf206a1	-0.118176706
82	0x3dc7fd52	0.09765114
83	0xbe17e2b5	-0.14832576
84	0xbdf38625	-0.118908204
85	0xbe5801a4	-0.21094376
86	0xbe250cbc	-0.16118139
87	0xbdc899ea	-0.09794982
88	0x3e094c27	0.13407956
89	0xbed8f593	-0.42374858
90	0xbd7a5af1	-0.061121885
91	0xbd8acce8	-0.06777364
92	0x3ddfb2a3	0.10922744
93	0x3ecbef9a	0.3983124
94	0x3ebc21b2	0.36744457
95	0x3e6fa1aa	0.23401514
96	0x3eb2fe1c	0.34959495
97	0x3e86aef2	0.26305348
98	0x3d055839	0.03255484
99	0x3f81f111	1.0151693
100	0x3f810e6e	1.0082529
101	0x3ea202cc	0.3164276
102	0xbdf04b49	-0.117331095
103	0x3e8b912a	0.2725919
104	0x3ee4b49d	0.44669047
105	0x3d89e586	0.06733231
106	0x3d3fb4fe	0.046803467
107	0x3ed84407	0.422394
108	0xbebb50cf	-0.3658509
109	0xbeda9952	-0.426951
110	0x3d6633f6	0.056201898
111	0x3e2fae44	0.17156321
112	0x3ecfae77	0.40562794
113	0x3e49b30b	0.19697206
114	0x3c8d5055	0.01725022
115	0xbe5507bc	-0.20803732
116	0xbe7a602f	-0.24450754
117	0x3e1657ea	0.14681974
118	0x3e8c71c3	0.27430543
119	0x3e3a188c	0.18173426
120	0x3dc15f7d	0.09442041
121	0x3d5188c1	0.05115581
122	0xbd3811c6	-0.044938825
123	0xbe81e9c4	-0.25373662
124	0xbe98e859	-0.29864767
125	0xbdff34d9	-0.12461252
126	0xbe422628	-0.18959868
127	0xbef0a0a0	-0.46997547
128	0xbe08b353	-0.13349657
129	0xbe26b583	-0.16280179
130	0xbe98f7df	-0.2987661
131	0xbe810ca1	-0.25204948
132	0x3ea0f157	0.31434128
133	0x3f11b70a	0.5691992
134	0x3e72749a	0.23677292
135	0x3d0ba8a6	0.034096383
136	0x3f7729f0	0.96548367
137	0x3df2e8b6	0.11860792
138	0x3e21d08a	0.15802208
139	0x3ea87159	0.32898977
140	0x3e0c69c2	0.13712218
141	0x3ba4a163	0.0050241216
142	0xbdc06e88	-0.09396082
143	0x3dfe6c6c	0.124230236
144	0xbdcc84f1	-0.09986294
145	0xbdb5e756	-0.088820145
146	0xbe1d778c	-0.15377635
147	0xbe492bab	-0.19645564
148	0xbe93a6eb	-0.28838286
149	0xbe3eef0b	-0.18645875
150	0xbd3c2985	-0.045938034
151	0xbe9246f9	-0.28569773
152	0xbd7864b4	-0.060642913
153	0xbeb38c0a	-0.3506778
154	0x3e1edb0b	0.15513246
155	0xbd8502e5	-0.06494693
156	0x3e4b767a	0.19869414
157	0x3ec44004	0.3833009
158	0x3e02d9fd	0.12778468
159	0xbefb1670	-0.49040556
160	0xbf2febda	-0.68719256
161	0xbf391eff	-0.7231292
162	0x3e48dc20	0.19615221
163	0xbcc5aaf1	-0.024129363
164	0xbb2a7be3	-0.0026013784
165	0x3de5a540	0.112131596
166	0x3e79891e	0.24368712
167	0xbd855911	-0.06511129
168	0x3e6c2ca5	0.23063906
169	0x3df3309d	0.118745066
170	0x3dbdab44	0.09261182
171	0xbe7f9df5	-0.249626
172	0xbe1f8229	-0.15576996
173	0x3f0877bc	0.533077
174	0x3f0de499	0.5542694
175	0x3ec67706	0.38762683
176	0x3d895f65	0.06707648
177	0x3ef825e5	0.4846641
178	0xbe5219fa	-0.20517722
179	0xbe236388	-0.15955937
180	0x3e6147d0	0.2200005
181	0x3f4e4a27	0.805819
182	0xbe66ee8f	-0.2255194
183	0xbf34472f	-0.7042112
184	0xbf3bf960	-0.7342739
185	0x3e0e06d4	0.13869792
186	0xbf8de68e	-1.1085985
187	0x3f68e819	0.9097915
188	0x3ee9de55	0.45677438
189	0xbe28a9e7	-0.16471063
190	0x3ca36c2e	0.019949045
191	0xbdd7da81	-0.10539723
192	0xbd56cfa1	-0.052444104
193	0xbdc3b60c	-0.09556207
194	0x3db705f5	0.08936683
195	0xbd103c9b	-0.035214048
196	0xbe0ede94	-0.13952094
197	0x3d0837d6	0.033256374
198	0xbe7f4170	-0.24927306
199	0x3cd82644	0.026385434
200	0xbe6c8e8f	-0.23101257
201	0xbdeb8c3c	-0.11501357
202	0xbe300e4a	-0.17192951
203	0xbd9062a8	-0.07050067
204	0x3db10451	0.086434014
205	0x3eed7287	0.4637644
206	0xbd1c6cf2	-0.038189836
207	0xbf782716	-0.9693464
208	0x3e4b5544	0.19856745
209	0xbeee2e08	-0.46519494
210	0x3da9706b	0.08273395
211	0xbe0ca90f	-0.13736366
212	0x3ea69be7	0.3254082
213	0xbf364779	-0.7120281
214	0x3ec6a620	0.38798618
215	0x3e9c59c6	0.30537242
216	0xbe20d5c0	-0.15706539
217	0xbf12834f	-0.5723161
218	0xbeeec4af	-0.46634433
219	0x3e3b1787	0.18270694
220	0x3eeee170	0.4665637
221	0x3e99cfa9	0.30041245
222	0x3da90f4b	0.0825487
223	0xbd530c98	-0.051525682
224	0xba2727c0	-0.00063764676
225	0x3dc88b35	0.09792177
226	0x3d79072a	0.060797848
227	0x3cb68a0f	0.022282628
228	0xb7f3eaea	-2.9077248e-05
229	0xbe138f70	-0.14410186
230	0xbba216cd	-0.0049465657
231	0xbbac8dd6	-0.0052659316
232	0x3d6d681b	0.05796061
233	0x3cad2a88	0.021138445
234	0xbea184bc	-0.3154658
235	0xbdad723f	-0.08469056
236	0x3d5cf216	0.05394181
237	0x3d31e57d	0.043431748
238	0x3ca2419b	0.019806674
239	0xbe75c77c	-0.24001878
240	0xbe1fb1f7	-0.15595232
241	0x3d532c2c	0.051555797
242	0xbcba526f	-0.022744386
243	0x3d536f13	0.0516196
244	0xbc017282	-0.007900836
245	0xbe4cf745	-0.20016201
246	0xbcb4b301	-0.022058012
247	0x3e26a87e	0.16275212
248	0x3e23e9d3	0.16007166
249	0x3e662061	0.22473289
250	0x3d860fb6	0.065459654
251	0xbe003251	-0.12519194
252	0x3d9e789b	0.077378474
253	0xbbf2b12c	-0.0074063744
254	0xbe3fff1b	-0.18749659
255	0xbe756462	-0.23964074

bias f4 [32]
0	0xbc07760e	-0.0082678925
1	0xbbbc7199	-0.0057508466
2	0xbe690f56	-0.22759756
3	0xbf9bfbc7	-1.2186211
4	0xbe7b17f8	-0.24520862
5	0xbeff7f40	-0.49901772
6	0xbe66d743	-0.22543053
7	0xbcd32785	-0.02577568
8	0xbe97065c	-0.2949704
9	0xbdb39efe	-0.0877056
10	0xbe9839b7	-0.29731533
11	0xbe94f964	-0.2909652
12	0xbf8ba6d8	-1.0910292
13	0xbe67809a	-0.22607651
14	0xbe95910a	-0.2921222
15	0xbecb896d	-0.39753285
16	0xbeac7e91	-0.33690313
17	0xbbf8ebea	-0.0075964825
18	0xbc4353a3	-0.011921796
19	0xbea05140	-0.3131199
20	0xbecd1312	-0.40053612
21	0xbe15d094	-0.14630347
22	0xbe8ee405	-0.2790834
23	0xbe6b9c5c	-0.23008865
24	0xbbdef81f	-0.0068044807
25	0xbf06283d	-0.5240515
26	0xbc184093	-0.009292739
27	0xbed7dfc5	-0.4216291
28	0xbe82d79c	-0.25555122
29	0xbe9c26be	-0.30498308
30	0xbf05e073	-0.5229561
31	0xbf0e1923	-0.55507106

weight f4 [32, 32, 9]
0	0xbdd38ea5	-0.10329942
1	0xbdc132a7	-0.09433489
2	0xbd0f4fff	-0.0349884
3	0x3e774f80	0.2415142
4	0x3d0a5dba	0.03378079
5	0xbf8b5269	-1.0884525
6	0xbfb15fb9	-1.3857337
7	0xbf34cdfd	-0.70626813
8	0xbf59bf2c	-0.8505733
9	0x3e21e13a	0.15808573
10	0xbe244349	-0.16041292
11	0xbd67e9d1	-0.05661947
12	0x3ddcd112	0.107820645
13	0xbe75bae7	-0.23997079
14	0xbfa37851	-1.2771093
15	0xbf73d974	-0.9525368
16	0xbd9001dc	-0.07031605
17	0xbf04d03e	-0.5188025
18	0x3b05b9f5	0.0020405028
19	0x3d9daadc	0.076986045
20	0x3e1a2032	0.15051344
21	0xbe0ed479	-0.1394824
22	0xbdb8cb3a	-0.090231374
23	0xbc076ff3	-0.008266437
24	0x3e466ba7	0.19377004
25	0xbebc738c	-0.36806905
26	0xbf4f59c8	-0.8099637
27	0x3e6364e6	0.22206458
28	0x3cb55278	0.02213405
29	0x3e88e4f1	0.26737168
30	0xbd8fe526	-0.070261285
31	0x3e3a5720	0.18197298
32	0xbe782821	-0.24234058
33	0x3f2b4ba6	0.66912305
34	0x3dec2622	0.11530711
35	0x3e851697	0.25993797
36	0x3db2b31b	0.08725568
37	0x3de3228f	0.11090576
38	0x3e0b842e	0.13624641
39	0xbcd39238	-0.025826558
40	0xbcf22ff0	-0.029563874
41	0x3dbc575c	0.0919635
42	0xbc919854	-0.017772831
43	0xbd5c1be8	-0.05373755
44	0xbea904cc	-0.33011472
45	0x3c34faf3	0.011046159
46	0xbe5b56a2	-0.21419767
47	0xbe8a0025	-0.26953235
48	0xbe7933bd	-0.24336143
49	0xbdaa1f1c	-0.08306715
50	0xbead36f1	-0.3383098
51	0xbe9a7a5e	-0.30171484
52	0x3b299fb9	0.0025882556
53	0x3dc02816	0.09382646
54	0x3a85a29f	0.001019556
55	0xbe3f4b60	-0.18681097
56	0xbd0dedae	-0.034650497
57	0x3e27e4ff	0.16395949
58	0x3e886ce2	0.2664557
59	0x3dc8b4ec	0.09800133
60	0xbfb99d99	-1.450122
61	0xbe8fee84	-0.2811166
62	0x3e8d5086	0.27600497
63	0x3eb76a11	0.3582311
64	0xbf1afef0	-0.60545254
65	0xbf53845d	-0.82623845
66	0xbf0cf75d	-0.55064946
67	0xbe4bd83e	-0.19906709
68	0x3d0b1514	0.03395565
69	0x3e52561b	0.20540659
70	0x3e1ec1f4	0.15503675
71	0x3bdd90a0	0.0067616254
72	0x3c738b7e	0.0148648005
73	0xbe31a55a	-0.17348233
74	0xbe802368	-0.25027013
75	0x3d8e4a4a	0.06947763
76	0x3da7f4ad	0.08200965
77	0xbdcb4143	-0.09924557
78	0x3d549405	0.051898975
79	0xbd0bcbd1	-0.03412992
80	0xbd27c43b	-0.040958624
81	0xbe48e78c	-0.19619578
82	0xbf80ef3b	-1.0073007
83	0xbfc38574	-1.5275102
84	0xbf243c7e	-0.64154804
85	0xbe83b994	-0.25727522
86	0xbe51cb26	-0.20487651
87	0x3d88a7ca	0.06672628
88	0x3e6e5062	0.23272851
89	0xbd3f8118	-0.046753973
90	0xbbd8349b	-0.006598068
91	0xbf4c7c8a	-0.7987753
92	0xbec80ffb	-0.39074692
93	0x3eb4a30d	0.35280648
94	0x3e765aed	0.24058123
95	0x3cbbcaf2	0.02292392
96	0x3d5f8372	0.054568715
97	0xbe8c6b2b	-0.27425513
98	0xbeacc0a4	-0.33740723
99	0x3dde5d96	0.10857694
100	0xbcb53868	-0.022121623
101	0x3d32a8e5	0.0436181
102	0xbe81db63	-0.2536269
103	0xbe6a15f8	-0.22859943
104	0x3e9ddd37	0.30832836
105	0xbefdd485	-0.49576202
106	0x3e19fcf7	0.15037905
107	0xbf67b2df	-0.9050731
108	0x3d3fbe96	0.046812616
109	0xbdf97a44	-0.121815234
110	0x3e40a2d6	0.18812117
111	0xbc6763c1	-0.014122904
112	0x3eb5fb25	0.3554317
113	0x3e87431d	0.2641839
114	0x3de28136	0.11059801
115	0x3e5fd64e	0.21859095
116	0xbe19746b	-0.14985816
117	0xbd97ae3c	-0.074062794
118	0xbcacfd81	-0.021116974
119	0x3e8acdd9	0.27110174
120	0x3d8f569f	0.069989435
121	0xbcdad3ee	-0.026712384
122	0xbee8dd2f	-0.4548125
123	0xbf00b121	-0.5027028
124	0xbdb91afb	-0.09038349
125	0x3b11a994	0.002222632
126	0xbba69a89	-0.00508434
127	0x3c554e7a	0.013019199
128	0x3bf3d987	0.0074417028
129	0xbdb20469	-0.086922474
130	0x3d1c209a	0.03811703
131	0xbe0ac99c	-0.1355347
132	0x3e855722	0.2604304
133	0x3e569785	0.20956238
134	0xbe1f57ab	-0.15560786
135	0xbd099d3a	-0.03359721
136	0xbe997415	-0.29971376
137	0xbe03ae91	-0.1285956
138	0x3cf85142	0.030312184
139	0xbe70dd81	-0.23521997
140	0xbf46d8b4	-0.7767441
141	0xbf4a503f	-0.79028696
142	0xbe214c7e	-0.15751836
143	0x3d533adf	0.051569816
144	0xbf0c3541	-0.5476876
145	0xbf774232	-0.9658538
146	0xbe42750c	-0.18989962
147	0xbea78a6a	-0.3272279
148	0xbef507f8	-0.47857642
149	0x3e54f0e2	0.20795015
150	0x3dfc4211	0.12317289
151	0xbed029e5	-0.40656963
152	0xbec75f78	-0.38940024
153	0x3d2be6fc	0.04196833
154	0x3e2da3f8	0.1695708
155	0x3e569bc5	0.20957859
156	0x3dfff725	0.12498311
157	0xbfa2da0b	-1.2722791
158	0xbf31f41a	-0.69513094
159	0xbec4dca4	-0.38449585
160	0xbf9a45e6	-1.2052581
161	0xbe976641	-0.295702
162	0x3e0df87a	0.13864318
163	0x3e7acf19	0.24493064
164	0xbf3b4ca1	-0.731638
165	0xbfce293d	-1.6106335
166	0xbf5761fb	-0.8413388
167	0xbfc6c037	-1.5527409
168	0xbeb9ae62	-0.36265856
169	0x3d0cb395	0.03435095
170	0x3e8356e9	0.25652245
171	0x3e2f49a3	0.17117934
172	0x3d1def40	0.038558245
173	0xbf07dc8c	-0.530709
174	0xbe18bf28	-0.1491667
175	0xbf07006d	-0.52735025
176	0xbf27809b	-0.6543061
177	0xbef51b03	-0.4787217
178	0xbe357ca0	-0.17723322
179	0xbeff9658	-0.4991939
180	0x3e329235	0.17438586
181	0xbd01ff60	-0.031737685
182	0xbd2f1c1e	-0.042751424
183	0x3dc1b5f1	0.09458531
184	0xbce1ff50	-0.027587563
185	0x3d182cac	0.037151977
186	0xbc81a5c9	-0.015826123
187	0x3e289a37	0.16465078
188	0xbe8060ef	-0.25073954
189	0x3d21d46e	0.03950923
190	0x3e6b8126	0.22998485
191	0xbf81777d	-1.011459
192	0x3cc8d091	0.024513515
193	0xbd75ff04	-0.060057655
194	0x3e830374	0.25588572
195	0xbe110842	-0.14163306
196	0xbe3559a0	-0.1770997
197	0xbef45c61	-0.4772673
198	0x3bb983ab	0.005661448
199	0x3da526ab	0.08064016
200	0x3d9c86d8	0.07642907
201	0xbd94d645	-0.07267431
202	0xbdeea847	-0.1165319
203	0xbe4a5c4a	-0.19761768
204	0xbe19212c	-0.1495406
205	0xbe62c42d	-0.22145148
206	0x3e04480b	0.12918107
207	0x3d5c7446	0.053821824
208	0xbe6d584d	-0.23178215
209	0xbe07c906	-0.13260278
210	0xbe589394	-0.21150047
211	0xbb80789c	-0.0039206278
212	0xbe6cd1c3	-0.23126893
213	0x3d5d413a	0.054017283
214	0xbead74dc	-0.3387822
215	0xbf406c6f	-0.75165457
216	0x3e8dd6c9	0.2770293
217	0xbde958f7	-0.11393922
218	0x3e4e5c86	0.20152482
219	0xbe55f524	-0.20894295
220	0xbf4bfb87	-0.79680675
221	0xbebdb5d6	-0.37052792
222	0xbef89661	-0.4855223
223	0xbf63d8c0	-0.8900261
224	0xbf40b4fa	-0.7527615
225	0xbe8d3393	-0.2757841
226	0xbe06a326	-0.13148174
227	0x3df84cee	0.12124048
228	0x3ec233cc	0.37930143
229	0xbe1852cf	-0.14875339
230	0xbf6d2fdc	-0.9265115
231	0x3e3bd489	0.18342794
232	0x3f0b3cf4	0.5438988
233	0xbdddfdd3	-0.10839429
234	0x3e8368c4	0.25665867
235	0xbe8ba96d	-0.272777
236	0xbe80001d	-0.25000086
237	0xbf205528	-0.6262994
238	0xbf7a7cb7	-0.9784655
239	0xbfb4d51e	-1.4127538
240	0x3d5eddb9	0.05441067
241	0x3e24361d	0.16036268
242	0xbee2ac7c	-0.4427222
243	0xbe3736e5	-0.17892034
244	0xbed6e5c2	-0.41972166
245	0xbf164b6f	-0.5870885
246	0xbef54f8c	-0.47912252
247	0xbee5844e	-0.44827503
248	0x3df210af	0.118195884
249	0x3e1c4d12	0.15263775
250	0x3d8fc68e	0.07020293
251	0x3df5fff9	0.120117135
252	0x3d9d93aa	0.0769418
253	0x3db49e6b	0.08819278
254	0x3caaf925	0.020870754
255	0xbea9f68c	-0.33195913

bias f4 [32]
0	0xba98f481	-0.0011669548
1	0xbaa127f6	-0.0012295234
2	0xbea16631	-0.31523278
3	0xbe05b54c	-0.1305744
4	0xbeae337b	-0.3402365
5	0xbc34be6b	-0.011031727
6	0xbf551cfb	-0.83247346
7	0xbf6fdccd	-0.9369629
8	0xbfb87faf	-1.4413966
9	0xbdc942af	-0.09827172
10	0xbe00489c	-0.12527698
11	0xbf3f9476	-0.7483591
12	0xbfb3b400	-1.4039307
13	0xbb85abae	-0.0040793037
14	0x3dd2a1ab	0.10284742
15	0xba8d6865	-0.0010788558
16	0x3e48f7cd	0.19625778
17	0xbd4c0beb	-0.049816053
18	0x3dd7ead9	0.105428405
19	0x3db666e3	0.08906343
20	0xbb376091	-0.0027981142
21	0x3dfb07eb	0.122573696
22	0x3d5f05b8	0.054448813
23	0xbd9be7d2	-0.076125756
24	0xbf69406f	-0.9111394
25	0x3df0f47c	0.11765382
26	0x3da83a2e	0.08214222
27	0xbe9c1124	-0.30481827
28	0x3db983c9	0.09058339
29	0xbfa7ebac	-1.3118796
30	0xbf39756e	-0.7244481
31	0xbe93c0fc	-0.28858173

weight f4 [32, 32, 9]
0	0xbf24c110	-0.6435709
1	0xbf5c6adc	-0.86100554
2	0xbf23077c	-0.63683295
3	0x3e9dfb1d	0.30855647
4	0x3f176a8a	0.5914694
5	0x3f052138	0.5200381
6	0xbb3be566	-0.0028670668
7	0x3ddefd15	0.10888115
8	0x3e4e0571	0.20119263
9	0x3e13611f	0.14392518
10	0xbcd00272	-0.025391791
11	0xbe040946	-0.12894163
12	0xbdef58e3	-0.11686876
13	0xbd90be2c	-0.070675224
14	0xbe2997a1	-0.16561748
15	0xbe055fe6	-0.13024864
16	0x3d26ec61	0.040752772
17	0x3e5a6e11	0.2133105
18	0x3aedd185	0.0018144107
19	0xbc719c58	-0.014746748
20	0x3efa642e	0.48904556
21	0x3eca47d6	0.3950793
22	0x3dbe9ecd	0.093076326
23	0x3e4725f6	0.19448075
24	0x3ec175f2	0.37785298
25	0x3e6476c3	0.22310929
26	0xbd419a71	-0.047266427
27	0xbec9c6c0	-0.39409447
28	0xbe06576c	-0.13119286
29	0xbd3cb0fb	-0.04606722
30	0xbe4dd726	-0.20101604
31	0xbe2625c6	-0.16225347
32	0x3c89e17b	0.01683115
33	0xbe14e35c	-0.14539856
34	0x3d144dba	0.03620694
35	0x3d163a27	0.036676552
36	0x3e35e05a	0.17761365
37	0x3d819801	0.063278206
38	0xbe5c688b	-0.21524255
39	0xbea776be	-0.3270778
40	0xbdc77fb3	-0.097411536
41	0x3e1e4411	0.15455653
42	0x3ea6f915	0.3261191
43	0x3e70cfcf	0.23516773
44	0x3e23913e	0.15973374
45	0xbe7304d2	-0.23732308
46	0xbeb63ad0	-0.35591745
47	0x3f4905b3	0.7852432
48	0x3f4a9df3	0.7914726
49	0x3d29aeac	0.041426346
50	0xbe1231b3	-0.14276771
51	0xbdeea768	-0.11653024
52	0xbeb30730	-0.3496642
53	0xbea1c4f8	-0.31595588
54	0xbf43b00d	-0.7644051
55	0xbea2ec8e	-0.31821102
56	0xbe9f10ec	-0.31067598
57	0xbedf9ae8	-0.43672872
58	0xbd560870	-0.05225414
59	0x3e6806f9	0.2265891
60	0x3efedecd	0.49779359
61	0x3e6a702e	0.22894356
62	0x3e81955d	0.25309268
63	0xbf724dc2	-0.946499
64	0xbef457b5	-0.47723165
65	0x3d5b1090	0.053482592
66	0xbd0e8f3b	-0.034804564
67	0x3e188302	0.14893726
68	0x3dbda0ac	0.09259161
69	0xbda3f314	-0.08005348
70	0xbe4f8c1e	-0.20268294
71	0xbde90572	-0.11377992
72	0xbdaf6ccf	-0.085656755
73	0x3cd9b5c1	0.026575925
74	0x3d8cc26d	0.06873021
75	0x3e820750	0.25396204
76	0x3dd9d822	0.10636927
77	0x3d4340eb	0.047669332
78	0xbe04299f	-0.12906502
79	0xbeafac0e	-0.34310955
80	0xbedece4a	-0.4351676
81	0xbe7829ea	-0.24234739
82	0xbf11faf8	-0.5702357
83	0xbf4a7e67	-0.79099125
84	0xbf64b657	-0.8934073
85	0xbf48bba0	-0.78411293
86	0xbf5d1c4d	-0.8637131
87	0xbf23a4c1	-0.6392327
88	0xbf447cd9	-0.76753
89	0xbf44ce39	-0.7687717
90	0xbf601b20	-0.8754139
91	0xbf2fe9d5	-0.68716174
92	0xbf649d41	-0.8930245
93	0xbf40d75f	-0.7532863
94	0xbf8aa5ab	-1.0831808
95	0xbf5b8fe6	-0.85766447
96	0xbf33c294	-0.7021878
97	0xbf0c4242	-0.547886
98	0xbf1cac21	-0.6120015
99	0xbe00c52b	-0.12575214
100	0xbd3c7665	-0.046011347
101	0xbe235de8	-0.15953791
102	0xbe463eee	-0.19359943
103	0x3a88c551	0.0010434781
104	0xbdce2ced	-0.10067163
105	0xbcc003f4	-0.023439385
106	0xbd62c938	-0.05536768
107	0xbbdff261	-0.0068343137
108	0xbe742c8b	-0.23845117
109	0xbdc12fdb	-0.09432956
110	0x3bbc06a9	0.0057380986
111	0xbd3627e2	-0.04447163
112	0xbe2082cc	-0.15674895
113	0xbdcc36a4	-0.09971359
114	0xbe0b5cb7	-0.13609587
115	0xbe87207a	-0.26391965
116	0xbe57b578	-0.21065319
117	0xbf0940f7	-0.53614753
118	0xbf09a73f	-0.5377082
119	0xbed40d80	-0.4141655
120	0xbda56a7b	-0.0807695
121	0x3e1aece2	0.15129426
122	0x3eb87a4b	0.36030802
123	0x3eb8a8db	0.36066326
124	0xbdcc57fd	-0.0997772
125	0xbf2ca168	-0.67433786
126	0xbedb2314	-0.428002
127	0xbf2ad8bf	-0.6673698
128	0xbf4ef40a	-0.80841124
129	0xbea450fd	-0.3209304
130	0x3d9ee22c	0.077579826
131	0xbe0f7470	-0.14009261
132	0xbe526523	-0.20546393
133	0xbed716f8	-0.4200971
134	0xbed83859	-0.4223049
135	0xbdbd2a97	-0.09236639
136	0x3e17cf5d	0.14825197
137	0x3e62793c	0.2211656
138	0x3eb56c7a	0.35434324
139	0x3ec8435e	0.39113897
140	0x3e7aa3fa	0.24476615
141	0xbe138edd	-0.14409967
142	0xbf242d01	-0.6413117
143	0xbf32442c	-0.6963527
144	0x3db90b8f	0.09035408
145	0x3e5c1633	0.21492843
146	0x3bc676eb	0.0060566566
147	0xbe7b3c94	-0.24534827
148	0xbf25c0be	-0.64747226
149	0xbedde28f	-0.43336913
150	0xbeec25b0	-0.46122503
151	0xbd9ab565	-0.075541295
152	0x3cd89af8	0.026441082
153	0xbf21f8f1	-0.6327048
154	0xbf39121a	-0.72293246
155	0xbf0f1bb4	-0.55901647
156	0xbf2ad8b6	-0.66736925
157	0xbf6bce55	-0.9211171
158	0xbf367923	-0.7127859
159	0xbf0d32d2	-0.5515567
160	0xbeef34d7	-0.4672
161	0x3dd4ced4	0.10391012
162	0x3e95ef0d	0.29283944
163	0x3e393436	0.18086323
164	0x3eb00c68	0.34384465
165	0x3e705eeb	0.23473708
166	0x3e90d6f6	0.28289002
167	0x3e12ba38	0.1432885
168	0x3e7c2bd0	0.24626088
169	0x3e62f27e	0.22162816
170	0x3edbaa35	0.42903295
171	0x3e0d4e13	0.13799314
172	0xbe6bf4b7	-0.2304257
173	0xbea4fe4b	-0.3222526
174	0xbf1409ec	-0.5782764
175	0xbf0a08b4	-0.5391953
176	0xbf1b450a	-0.6065222
177	0xbe9bcb39	-0.30428484
178	0xbf0d6c7e	-0.5524367
179	0xbea93df7	-0.33055088
180	0x3ef23760	0.47307873
181	0x3eacd44e	0.33755726
182	0x3eadba7c	0.3393134
183	0x3e4e1b46	0.20127591
184	0x3e9d5a60	0.30733013
185	0x3e8b1e8f	0.27171752
186	0x3e1fe3d7	0.15614258
187	0xbd166187	-0.036714103
188	0xbe446fe7	-0.19183312
189	0xbe83d008	-0.25744653
190	0xbf4fd81e	-0.81189144
191	0xbf4e43c7	-0.8057217
192	0xbf454aaf	-0.77067083
193	0xbf176f05	-0.5915378
194	0xbef7b5fb	-0.48381028
195	0xbf1c986a	-0.61170065
196	0xbebe21ff	-0.37135312
197	0x3d33d42b	0.04390351
198	0xbc83d337	-0.016091926
199	0xba29f2d7	-0.00064830243
200	0x3d312e47	0.043257024
201	0xbdba3e8b	-0.090939604
202	0xbc590473	-0.01324569
203	0xbdd5485a	-0.104141906
204	0xbdd134b0	-0.102151275
205	0x3d919212	0.07107939
206	0x3d22b1ca	0.039720334
207	0xbe9a5268	-0.30140996
208	0xbe5a42f0	-0.21314597
209	0xbd494c3b	-0.049144965
210	0x3e36a0b9	0.17834748
211	0x3cbdb25a	0.023156334
212	0xbd58f7fc	-0.05297087
213	0xbf0baa82	-0.5455705
214	0x3c122b74	0.008921493
215	0xbdd9e210	-0.10638821
216	0xbdec754f	-0.11545812
217	0x3d2b8288	0.04187253
218	0x3d342fb4	0.043990806
219	0x3c13f864	0.009031389
220	0x3d132548	0.035924226
221	0xbeaf7bb2	-0.3427406
222	0xbe8dc2aa	-0.2768758
223	0xbde3fe67	-0.11132508
224	0xbdf3f6d2	-0.119123116
225	0xbe499c18	-0.19688451
226	0xbdfa1ae3	-0.122121595
227	0xbe16f8c7	-0.14743339
228	0xbe33333c	-0.17500013
229	0xbd9806a0	-0.074231386
230	0x3e408b3c	0.18803114
231	0x3e627674	0.22115499
232	0xbc808be9	-0.015691714
233	0x3ce4dbf8	0.02793692
234	0xbd8d2ff5	-0.06893913
235	0xbd9c1765	-0.0762165
236	0xbd515c57	-0.051113453
237	0xbe8929b9	-0.26789644
238	0x3ce3ab74	0.027791716
239	0xbe62c272	-0.22144488
240	0x3b8e26e5	0.0043381327
241	0xbdc3ce83	-0.09560873
242	0xbc88091f	-0.016605912
243	0xbd86680d	-0.06562815
244	0xbdb76770	-0.08955276
245	0xbd5310c9	-0.05152968
246	0xbeef2717	-0.4670951
247	0xbc1a9c51	-0.009436683
248	0x3ababf6c	0.0014247722
249	0xbbd3f2e9	-0.006468166
250	0xbcc87c8b	-0.02447345
251	0xbc6a48de	-0.014299599
252	0xbe487328	-0.19575179
253	0x3cca8ac7	0.024724377
254	0xbd0ea1c9	-0.03482226
255	0x39faacfb	0.00047812596

bias f4 [32]
0	0xbe57f804	-0.21090704
1	0x3eda06f5	0.42583433
2	0x3e2781b2	0.16358069
3	0x3ebb34c1	0.36563686
4	0xbeb338df	-0.35004327
5	0xbf2baa37	-0.670566
6	0xbe66a4ee	-0.22523853
7	0xbf2a6245	-0.665562
8	0xbf277fb8	-0.6542926
9	0x3e8e403c	0.27783382
10	0x3f078614	0.5293896
11	0x3d6b094e	0.05738192
12	0xbf3a6fd0	-0.7282686
13	0xbf7d83ee	-0.99029434
14	0x3e91ca0f	0.2847447
15	0x3ec5b38c	0.38613546
16	0x3f1f5d66	0.6225189
17	0xbecc0a66	-0.39851683
18	0xbf078381	-0.52935034
19	0xbe38504a	-0.17999378
20	0xbdd33d54	-0.10314432
21	0xbebbd026	-0.36682242
22	0xbf07c88a	-0.53040373
23	0xbf3c7b9a	-0.736261
24	0xbf3f0e1a	-0.7463089
25	0xbaefce98	-0.0018295823
26	0x3f0a3069	0.5398012
27	0x3d1d3e4c	0.03838949
28	0x3ed050fc	0.40686786
29	0xbf765fe7	-0.96240085
30	0xbf1e4909	-0.6183019
31	0xbef55838	-0.47918868

weight f4 [32, 6, 9]
0	0xbc2433fa	-0.010022158
1	0xbdae00c2	-0.08496238
2	0xbe04ef5b	-0.12981932
3	0x3d5f4c45	0.054516096
4	0x3dba999a	0.091113284
5	0xbd896bc3	-0.06710007
6	0x3da6cd87	0.0814467
7	0x3d8cc417	0.06873339
8	0xbbe3255a	-0.006931943
9	0xbd0ae7cd	-0.03391247
10	0x3e37de79	0.1795596
11	0xbd8506db	-0.06495448
12	0x3d8c5be1	0.06853462
13	0x3b00c4fa	0.0019648657
14	0xbdc96d4a	-0.09835298
15	0xbd888582	-0.066660896
16	0xbcf3964f	-0.029734759
17	0xbde4e92d	-0.11177287
18	0x3ec5c7cf	0.38629004
19	0xbc98160b	-0.018565198
20	0xbdc60da1	-0.09670568
21	0xbe8af94d	-0.27143326
22	0xbedcd5d6	-0.43131894
23	0xbf04c004	-0.5185549
24	0xbf2342e5	-0.6377395
25	0xbf2a8984	-0.6661608
26	0xbf2f878a	-0.6856619
27	0xbec9b528	-0.39396024
28	0xbdeb5510	-0.11490834
29	0xbe8a76bd	-0.27043715
30	0xbeb1e347	-0.3474371
31	0xbea365e1	-0.31913665
32	0xbea8e04c	-0.32983625
33	0xbd2497fc	-0.040184006
34	0xbe395047	-0.1809703
35	0xbe129a5a	-0.14316693
36	0xbd91cc42	-0.07119037
37	0xbe3a24ee	-0.1817815
38	0xbdd97df2	-0.10619725
39	0xbef8496f	-0.48493525
40	0xbee84a08	-0.4536898
41	0xbed1f492	-0.41006905
42	0xbebba078	-0.36645865
43	0xbd636214	-0.055513456
44	0x3ec14d43	0.3775426
45	0x3eb362a5	0.35036197
46	0x3e948cd4	0.29013693
47	0xbbe85189	-0.007089798
48	0xbda205fd	-0.079112984
49	0xbe2230ca	-0.15838924
50	0x3e9a5820	0.3014536
51	0x3ebbf783	0.36712274
52	0x3ee92a9f	0.4554033
53	0x3ef2bfc3	0.47411928
54	0x3e9d6e0f	0.3074803
55	0x3ebf8ad3	0.37410602
56	0x3e21615a	0.15759793
57	0xbc59076e	-0.0132464
58	0xbce8135d	-0.028329546
59	0xbdc11c6a	-0.09429248
60	0xbe748253	-0.2387784
61	0xbe5ab7a4	-0.21359116
62	0xbe834f40	-0.256464
63	0x3bde1f14	0.006778607
64	0xbd07d2d5	-0.03316005
65	0x3c9c54ba	0.01908337
66	0x3da5f9f7	0.08104318
67	0x3d5bbb33	0.053645324
68	0x3df4c119	0.11950893
69	0xbde585a7	-0.11207133
70	0xbdac7437	-0.08420604
71	0xbbd33454	-0.006445447
72	0xbd83cb9f	-0.06435322
73	0xbf068fa9	-0.5256296
74	0xbf025cf0	-0.5092306
75	0xbe6a158f	-0.22859786
76	0xbf232e08	-0.63742113
77	0x3e02d06e	0.12774822
78	0xbe92fb8a	-0.28707534
79	0x3eb38b43	0.35067186
80	0x3de663bf	0.11249494
81	0xbf1423ae	-0.5786694
82	0xbf033e26	-0.51266706
83	0xbf27a309	-0.65483147
84	0xbe397471	-0.18110825
85	0x3ecaa8fb	0.39582047
86	0x3f07c347	0.53032345
87	0x3d4fbec6	0.050719045
88	0x3d1755f8	0.03694722
89	0xbdabf07a	-0.08395477
90	0xbf343d20	-0.7040577
91	0xbf0db278	-0.55350447
92	0xbda44f17	-0.08022898
93	0x3e0c00d4	0.13672191
94	0xbb705f37	-0.0036677846
95	0xbebf7fab	-0.3740209
96	0xbdaf1c0f	-0.085502736
97	0x3eb3dd4d	0.35129777
98	0x3f24e7fd	0.64416486
99	0x3f25045d	0.6445978
100	0x3eb6d5c4	0.35709965
101	0xbf2d9ac8	-0.678143
102	0xbf467080	-0.7751541
103	0xbd8f283b	-0.06990095
104	0x3f1918af	0.5980329
105	0xbe634bea	-0.22196928
106	0xbf786cd5	-0.97041065
107	0xbf591bfe	-0.8480834
108	0x3e5014f7	0.20320497
109	0xbb4a8381	-0.0030901136
110	0x3d08e0ec	0.033417627
111	0xbcccdd97	-0.025008006
112	0xbe1b2175	-0.15149482
113	0xbe0dd1a0	-0.13849497
114	0x3cf986a2	0.030459706
115	0x3c8656ac	0.01639875
116	0xbc3d0e4b	-0.011539052
117	0x3e051436	0.12995991
118	0x3dafe4f9	0.08588595
119	0x3c35d212	0.011097448
120	0x3d44dd09	0.048062358
121	0x3e131b97	0.14365993
122	0xbd270a41	-0.040781263
123	0xbb36be0e	-0.0027884278
124	0xbd706558	-0.0586904
125	0xbe61a6d8	-0.22036302
126	0xbf9c0096	-1.2187679
127	0xbf8daefd	-1.1069027
128	0xbf586d5c	-0.8454187
129	0xbf029a9d	-0.5101717
130	0xbe692113	-0.22766523
131	0x3dca53ca	0.09879263
132	0x3ec7806b	0.38965163
133	0x3ec23134	0.37928164
134	0x3ea76614	0.32695067
135	0xbe1e2fcf	-0.15447925
136	0xbef11a08	-0.47090173
137	0xbeebfea5	-0.46092716
138	0xbedefd60	-0.43552685
139	0xbe957504	-0.29190838
140	0xbdafc278	-0.08582014
141	0x3db5877b	0.088637315
142	0x3eb191bb	0.34681496
143	0x3f227824	0.6346457
144	0xbf2cc3e2	-0.67486393
145	0xbeee4388	-0.46535897
146	0xbea6e55f	-0.3259687
147	0x3baa9386	0.0052055744
148	0x3e24d41f	0.16096543
149	0x3e027da0	0.12743235
150	0x3e2cb93e	0.1686754
151	0x3e867611	0.26261953
152	0x3e0f6f5d	0.14007325
153	0xbdfe0de1	-0.12404991
154	0xbeb46d2a	-0.35239536
155	0xbea9bf3f	-0.33153722
156	0xbedd8281	-0.4326363
157	0xbde908a2	-0.113786
158	0xbe3668d6	-0.17813429
159	0xbe61fb59	-0.22068538
160	0xbe7fee56	-0.24993262
161	0xbe013a46	-0.12619886
162	0xbd206b5f	-0.039164897
163	0xbd9336c1	-0.07188178
164	0xbe0b971a	-0.1363186
165	0xbb288970	-0.0025716685
166	0xbd767e1a	-0.060178854
167	0xbbeb4839	-0.0071802405
168	0x3d082958	0.033242553
169	0xbcffa0ee	-0.031204667
170	0x3e12ab93	0.14323263
171	0xbd6e39cd	-0.058160592
172	0xbe3876f8	-0.18014133
173	0xbda392a6	-0.07986955
174	0xbcd0823f	-0.025452731
175	0xbbd6adff	-0.0065515037
176	0x3df5ff44	0.12011579
177	0x3e0315d7	0.128013
178	0x3e907893	0.2821699
179	0x3df1af3b	0.11801001
180	0xbde86750	-0.1134783
181	0xbdb0900d	-0.086212255
182	0xbea8099f	-0.3281984
183	0xbe351c6c	-0.17686623
184	0xbea52991	-0.32258275
185	0xbe542611	-0.20717646
186	0xbe25ceb1	-0.16192128
187	0xbeb47285	-0.3524362
188	0xbea9df2d	-0.33178082
189	0x3ed16609	0.4089816
190	0x3ef21516	0.47281712
191	0x3e5157aa	0.20443597
192	0x3e679458	0.22615182
193	0x3d465912	0.048424788
194	0xbe319351	-0.17341353
195	0xbe36a020	-0.1783452
196	0xbe811f20	-0.2521906
197	0xbeaae4cb	-0.3337768
198	0x3d831d36	0.06402056
199	0xbe35ea40	-0.1776514
200	0x3c8bea6f	0.01707956
201	0xbe15109d	-0.14557119
202	0xbd851c79	-0.06499571
203	0x3da78793	0.081801556
204	0x3d09ea4a	0.0336707
205	0x3d41e6ce	0.047339253
206	0x3e1e0a7c	0.15433687
207	0x3ec1f888	0.37884927
208	0xbc1f09b2	-0.009706901
209	0xbe15e8ff	-0.14639662
210	0xbe55325f	-0.20819996
211	0xbede28ed	-0.433906
212	0xbe400dde	-0.1875529
213	0x3dfec5a8	0.12440044
214	0x3f340f3b	0.7033574
215	0x3f904f52	1.1274207
216	0xbd8866c7	-0.06660228
217	0xbe5be2a8	-0.21473181
218	0xbdb0bd12	-0.08629812
219	0xbe1fd0c5	-0.15606983
220	0xbdb8ad44	-0.09017423
221	0x3d82823d	0.06372497
222	0x3d8d3cc2	0.06896354
223	0x3de4eb7a	0.11177726
224	0x3e0614da	0.13093892
225	0xbc89161e	-0.01673418
226	0x3d0c8ebe	0.034315817
227	0x3e484ac1	0.19559766
228	0x3d918cf8	0.07106966
229	0xbd64898f	-0.05579525
230	0xbcd2be99	-0.02572565
231	0xbdee7e9d	-0.11645243
232	0x3dbdceab	0.092679344
233	0xbdccc676	-0.09998791
234	0xbdd0aff2	-0.10189809
235	0xbce15811	-0.027507814
236	0x3e58dc8d	0.21177883
237	0x3f23df7b	0.6401288
238	0x3f22307f	0.6335525
239	0x3f5b0990	0.85561466
240	0x3f1b1571	0.6057959
241	0x3e509d17	0.20372425
242	0xbdef1d92	-0.11675562
243	0xbe70c684	-0.23513228
244	0xbdfed5dc	-0.12443134
245	0xbe12706a	-0.14300695
246	0xbe73faa6	-0.23826084
247	0xbdeeb70a	-0.11656006
248	0xbe43c7c0	-0.19119167
249	0xbe36a9f6	-0.17838272
250	0xbea9417f	-0.33057782
251	0xbee28d57	-0.4424846
252	0xbf14841a	-0.5801407
253	0xbeb0034e	-0.3437752
254	0xbe186703	-0.14883046
255	0x3d826d20	0.0636847
