models/v1_medium.pt (torch, 365874 bytes, 51 tensors)

cls f4 [1, 1, 32]
00000000: 0bcc 81be 3685 a53f 023a 15c0 20a7 28bf
00000010: b128 8dbf 5036 8e3e 2f18 fc3f 300a 6c3d
00000020: e4a5 1bbf 6566 813e 75ec 433f 9c45 02bf
00000030: 030f 393f cc0a 50be c042 b23f 337d 533e
00000040: 5ebd 6f3e b4a1 3e3f ff93 31bf 440b 263f
00000050: 19cc 3c3f e3ce 573d bb0e b13f d076 77bf
00000060: 9b28 e63e b1e0 32c0 ba0d 16bf d902 443f
00000070: 314b 413f 071a 8bbf e9a4 313b b716 c33f
-0.25350985 1.2931278 -2.3316655 -0.6588001 -1.1028043 0.27775812 1.969488 0.057626903
-0.60800004 0.25273433 0.7653268 -0.50887465 0.7228853 -0.20316619 1.392662 0.20653228
0.23412082 0.7446549 -0.6936645 0.6486094 0.7374893 0.052687537 1.383262 -0.9666567
0.44952855 -2.794964 -0.58614695 0.76566845 0.7550536 -1.0867318 0.002710635 1.5241307

gaze_pe f4 [1, 120, 32]
00000000: fb03 ce3f a4f7 c8be 9172 8dbf e0e2 01bf
00000010: 6edc 163f 6b1f c13d 4759 013f 221f cc3c
00000020: ec20 99bf 0559 cc3f 23a9 f4be 7a42 ed3e
00000030: 96dc 923f 4c6d 313e 71da 41bf 1613 fb3e
00000040: f093 aebf 9bcf fd3e 3fa9 38bf 6be9 33be
00000050: 0b53 cebe 913e e8be 1e48 373e 1542 eabe
00000060: 4673 2940 934f 943e 5ac6 f5bf 1fb2 1a3f
00000070: 1327 b4bf 2830 00bf 71e8 bdbe dc90 d73e
00000080: daad 33bf fecf 8c3f 35bb e4bf 58f5 0d3e
00000090: 63f5 b6bf a614 3a3f 32d7 b83f a53b 80bf
000000a0: b824 02bf e0a8 a63f 910c 193f 0981 a4be
000000b0: 0b2a 763f f94f 693e 0e73 2b3e d5bc 6c3e
000000c0: 51e0 bfbe 86a5 433f 7911 753f 6482 6cb9
000000d0: e72b 2ebf 3a2b ab3e 3017 a13e 9189 b43f
000000e0: 2b5b f33e 0ab3 2d3f 25d8 6f3f 2e5a ef3f
000000f0: c266 043f 22ae 163f cbaa 6b3f 0613 b03d
00000100: 8e49 493f e293 a8bf b966 b0bf 0ce1 6e3f
00000110: cc9d 593f 3c95 39be 4eaa debe 7b73 3cbf
00000120: be85 c33f 871e 563e dd85 90be ab49 85be
00000130: d72c e83f f919 4e3d f878 4d3f bdb1 18bf
00000140: 4bc0 97bf 9fbf 0a3f b989 86bf 0912 5cbf
00000150: ca77 003f bad1 5abf 6c9c a83e 9af7 b5bf
00000160: 5fe2 f1be 6bb6 c1bf 24cd 8cbe 2ffd c8bf
00000170: 8dc1 773f ba30 4d3d 254e 283e fbf1 61bf
00000180: dec3 513f a501 eebf ce11 a93e fd22 703c
00000190: 1a24 183f d9e4 03bf 813b 5d3e c672 0dbe
000001a0: 1389 733f 1694 51be 0c08 74be 7ae0 ad3f
000001b0: 74da 213e 0d27 51bf 73a3 0540 66b7 773e
000001c0: 99f6 53be dacf 39bf b3ba 403f 8566 b23f
000001d0: 4156 c03e 3e6a 9f3f 4d76 dd3f 0638 303f
000001e0: 42b0 c9bf 8201 753b 373c 67bf 2006 b1be
000001f0: 52d2 46be 4d4f abbf d84c 013f 8a77 6a3e
00000200: 05bb ffbe b5ef 13bf 0085 dc3f ca95 873f
00000210: d9cb 4fbf 0cf8 e13e e966 5dbf 343a 293f
00000220: f099 083f b3ec 9bbe 753d 62be 317f dbbc
00000230: 19a6 073f 15c7 ae3e 2aa9 613d 40b5 3c3f
00000240: 6c26 03be e1b1 8bbf f454 6c3f f6b4 883f
00000250: 563a dc3e 6712 a0be e14d a23f 8e3a d73d
00000260: 52f6 4c3f 2c09 493e 78e4 aabc 0a0d 1fbe
00000270: a37a 55bf 1281 7ebf c5c8 343f 7565 0d40
00000280: 22f2 02c0 5eea 313d 424e 84bf 1e52 bb3c
00000290: 9e55 bebe b9b2 4fbf eec7 6d3e 6798 4bbe
000002a0: a747 17bf 62be 14bf 97bc 1c3e 44be 6ebf
000002b0: 516b 19bf de03 5dbf 288b a8bf 15ab 66bf
000002c0: 8858 b23e 5912 5fbf ce54 273f 8efe ddbe
000002d0: f997 bdbe 9e1f af3f 8cc0 763f 7e3c 003e
000002e0: 6705 c8be 24e2 743f 7494 953f 580b 9b3f
000002f0: 1875 55bf a376 9c3e e139 d7bd 055f 10c0
00000300: 3fe8 b83e e6a6 67bf 28d8 b7bf 9304 2a3e
00000310: 22e3 8ebe 8bb4 0d3f da22 763f c0d9 1dbf
00000320: 8a6a 81bf 7990 37be 0214 d1bf bd1c 793f
00000330: 54aa 943f e31a f5bf 4679 92bd 2c96 8b3f
00000340: 625d 6dbf 43ad c63e cd0e 483f 26b2 e0bf
00000350: 7bbd 81bf 7a29 9a3e 7441 02bd d33a b93f
00000360: 57bb bebe acfc 9c3f cc2a 983e 94fe 99bf
00000370: 5306 dbbe eee2 a6bf 07ba 29bd 828c 9ebf
00000380: 9337 a1be 121f a83f 2ca5 043e c28f b43f
00000390: 9b3c 17bf a09c b0bf 2bcd 66bf ae8a b8bd
000003a0: 0149 803e eb87 d83d 900f 87be 1ac7 acbf
000003b0: ceba 743f 6948 95bf 1fdf de3f 1069 1bbe
000003c0: 4581 2b3f 54e9 96bf 2e3b 383f 706e b9bf
000003d0: 6e28 7abf dbc9 053f 81f4 14bf aaf6 a1be
000003e0: e989 903f 7ee7 1bbf 34f8 05be 9041 60bf
000003f0: a05e 20bf 89b5 353f f19f ccbf 4eae 28bc
1.6094965 -0.39251435 -1.1050588 -0.5073681 0.589301 0.094298206 0.5052685 0.024917189
-1.1963172 1.5964667 -0.4778529 0.4633978 1.1473567 0.1732685 -0.7572394 0.49038
-1.3638897 0.49572453 -0.7213325 -0.1756951 -0.40297732 -0.45360234 0.17898604 -0.45753542
2.6476607 0.2896696 -1.9201157 0.6042804 -1.4074425 -0.5007348 -0.370914 0.42102706
-0.7018715 1.1000974 -1.7869631 0.13863122 -1.4293636 0.72687757 1.4440672 -1.0018202
-0.5083728 1.3020287 0.597848 -0.32129696 0.961579 0.22784413 0.16743109 0.23118909
-0.37475827 0.76424444 0.95729786 -0.00022555288 -0.6803574 0.33431417 0.31463003 1.4104482
0.47530493 0.67851317 0.93689185 1.8699396 0.51719296 0.58859456 0.92057484 0.085973784
0.7862786 -1.317013 -1.3781348 0.93312144 0.85006404 -0.18123335 -0.43489307 -0.7361371
1.527519 0.20910083 -0.2822713 -0.26032767 1.8138684 0.05031774 0.8026271 -0.5964621
-1.1855558 0.5419864 -1.051078 -0.8596502 0.50182784 -0.8547627 0.3293184 -1.4216187
-0.4724302 -1.5133795 -0.2750026 -1.5702266 0.9677971 0.050095297 0.1643606 -0.8825986
0.81939495 -1.8594252 0.33021396 0.014656779 0.59430087 -0.5152107 0.2160473 -0.13813314
0.95131034 -0.20466647 -0.23831195 1.358413 0.1580599 -0.8170021 2.0881011 0.24191055
-0.20699538 -0.7258278 0.7528488 1.3937536 0.37565807 1.2454298 1.7301728 0.68835485
-1.5756915 0.0037384932 -0.90326256 -0.34574986 -0.19416168 -1.3383576 0.5050788 0.22897163
-0.49947372 -0.5778764 1.7228088 1.0592587 -0.8117042 0.44134557 -0.86485153 0.66104436
0.5335989 -0.30454025 -0.22093756 -0.026794048 0.5298782 0.34136263 0.055092968 0.73714066
-0.12807626 -1.0913659 0.9231713 1.0680225 0.43013257 -0.3126404 1.2680017 0.10509215
0.80063355 0.19632405 -0.020860896 -0.15532318 -0.83390254 -0.99415696 0.7061885 2.2093174
-2.0460286 0.0434364 -1.0336382 0.022866305 -0.37174696 -0.81132084 0.23220798 -0.19882356
-0.5909371 -0.58103 0.15306316 -0.9325907 -0.59929377 -0.86334026 -1.3167467 -0.901048
0.3483317 -0.8713737 0.65363777 -0.43358272 -0.37030008 1.3681524 0.96387553 0.12523076
-0.39066622 0.95657563 1.1685929 1.2112837 -0.83381796 0.30559263 -0.105090864 -2.2557995
0.3611469 -0.9048904 -1.4362841 0.16603307 -0.27907664 0.5535361 0.9614693 -0.61660385
-1.0110638 -0.17926206 -1.6334231 0.97309476 1.161448 -1.914883 -0.07152037 1.0905204
-0.92720616 0.38804063 0.78147584 -1.7554367 -1.013595 0.3010977 -0.031800702 1.4471077
-0.37252304 1.2264609 0.2972015 -1.2030816 -0.42778262 -1.3038003 -0.041437175 -1.238663
-0.31487712 1.3134482 0.12953633 1.4106371 -0.5907685 -1.3797798 -0.9015681 -0.09010826
0.25055698 0.10572799 -0.2637906 -1.3498261 0.9559754 -1.1662723 1.7411841 -0.15176797
0.66994125 -1.1789956 0.719653 -1.4486828 -0.9771794 0.5226113 -0.58185583 -0.31633502
1.1292087 -0.60900104 -0.13082963 -0.8760004 -0.62644386 0.70980126 -1.598631 -0.010295464

imu_pe f4 [1, 120, 32]
00000000: 86af acbd 7f4a ad3e 365c 37bf 48fb a53f
00000010: d120 b33e 79db b03f 953e c4be 98ab 25bf
00000020: a0c8 0940 7561 1540 6cc1 dc3e 3e0c 87bf
00000030: a8bb cabf 70c3 6b3f 7158 2a3f e321 2bbe
00000040: b694 a4bf 8761 b63f 5332 8abc 20c9 c9bf
00000050: f2d0 ba3f 7908 f3be fdbd 5b3f da98 1b3f
00000060: 8e8d edbe 572e ee3d e5a9 ae3f 5470 633f
00000070: 558b b1be 5a91 c1be 0baf 00bf 39b8 38bf
00000080: 3363 59bf 73c3 6dbf 3727 893f c513 0f3f
00000090: 6991 37bf 4c8b 97bf b31f 3c3f b612 c3bd
000000a0: 9a02 b7bf 021f 99bd d5a0 ed3f cdf2 9a3f
000000b0: e74f 633f e9c6 59bf df6a 363f 7fb3 65be
000000c0: 8e70 1bbf a7e9 df3e 7359 7fbe 70af 493f
000000d0: 1966 5abf 3365 a73f e623 d2be 625a 373f
000000e0: 5c0c a1bf a1a2 80bf 5979 19be 97a4 573e
000000f0: 97c3 603f a8ec c73b 1ae7 093f 4f27 75be
00000100: 5786 e8be 26d4 fb3f 2174 6c3d 9222 9ebd
00000110: 804d ac3f ad79 b83e 879b d63f 50a3 b73e
00000120: df43 723f 0254 1a3f f9d4 37c0 39fa 0dbf
00000130: cc0b 403f 1eb6 4dbe f988 cfbe 488f f5be
00000140: 9c7d 833f 5a5b e13f 0267 073e 6909 8f3f
00000150: 1e4a adbe 8229 733f 0af6 823f f5f7 01bf
00000160: 96fe 96bf d3de f43e a464 923f 533d 52bf
00000170: f204 aebf 1534 20c0 75b9 e9be e963 c43e
00000180: d12a 523f 1033 893f 8e15 803e 1667 243f
00000190: 2aea 1abe 2a65 693f 14f3 b3bf 3e11 efbf
000001a0: 6a69 debd 4d9d c23f 091b f83e 349c b2be
000001b0: 0b46 e9bd dd3e 993e 28bf 2e3f d15f bc3e
000001c0: 4313 c33e 491f 803f 8b96 edbf c98b 733f
000001d0: efcd 623e 892d 453f b27e 41bf 9167 a33f
000001e0: 3160 983f af57 363f ff6f 8bbf e5b1 dabe
000001f0: 8e9c 9dbc 1677 bfbe 83f0 bcbf 0c72 94be
00000200: 52e1 a2bf dee6 3ebe c9e0 1f3e 24e8 ad3e
00000210: a92f 9abf 856e 1640 2ebb a53f 147a ccbf
00000220: 3f82 59be 1c65 94be d306 91bf 2d7c 4a3e
00000230: 3417 a0be 2dd3 133f 26a7 633e 1e4f 4fbf
00000240: 3f9e c3bf 5480 ae3f c8db 49bd 381b ce3e
00000250: 4617 c23f f0b2 bbbf 9808 3d3f 5be9 9abf
00000260: 464b c1bf b9cb 843f c05a f63e 7c8d 7f3f
00000270: 658f be3e a886 46c0 c3d0 bbbf 17c8 e73e
00000280: 8525 833e 8eed e43e 1897 3b3e 03eb ff3e
00000290: b6cb 5a3e 0766 af3e 2fb3 ec3d 77e0 2cbd
000002a0: 5d68 bb3f b037 5fbe 9a98 0bbf 7251 0dbf
000002b0: 3b40 cd3e eb86 1fbd 846a e93e a8d0 77bf
000002c0: d2e3 ddbe 230c c63f 37a2 8f3f 009a 043f
000002d0: 6b1c 88bf 7b13 40bd 48bb 45bf 41e9 36be
000002e0: 33d4 24be d89b 973f 0ae1 503e 34a1 1ebf
000002f0: f01d 1abf 44d0 973f 3d9c a9be f238 d63f
00000300: f023 41bf 8d39 c63f 1924 04be efb7 263f
00000310: 5c13 943e ae87 2b40 628b 2ebf 7ae3 323f
00000320: 5076 c03f ca73 5c3f dc86 923d e9b0 0b3e
00000330: 90bd 06bf e6e2 0e3f fbd7 0c3f 7037 efbd
00000340: 04d6 b7be 4adc 88be 700f 243f 258d 1abf
00000350: 8560 d83f 421f c03f 46d3 153f 5dd2 4e3f
00000360: 632d b6bf ec94 1840 2c5e 76bc 4f30 a2be
00000370: 432c 543f 8da3 27bf 77e5 6e3e 1d9e 3d3f
00000380: d322 043e 6922 063e 16a6 973f cc90 87bf
00000390: ec59 763d 3266 93be d757 93be 5ec3 fe3e
000003a0: 08fe 44bf bbfd 59be e89a 44be 3df5 50bf
000003b0: 7259 e8bf c50d cc3f acbe 5c3f 35ed cabe
000003c0: 66d0 9abf 0f97 0fbe ecaa 553f 6dff cf3f
000003d0: 649d c5be d569 0f3f b2e3 123f bdb5 2a3f
000003e0: eed8 36bf 5d9a aa3e 6b33 c23e 1b1f 66bf
000003f0: a401 ee3e dca2 b13f 8d60 003f 9172 ea3e
-0.08431916 0.33845899 -0.7162508 1.296731 0.34985974 1.3816978 -0.38328996 -0.64714956
2.1528702 2.3340733 0.4311632 -1.0550611 -1.5838518 0.9209509 0.665412 -0.16712146
-1.2857883 1.4248513 -0.0168697 -1.5764503 1.4595015 -0.47467402 0.85836774 0.6078011
-0.4639706 0.116299324 1.3645598 0.88843274 -0.34676614 -0.37806207 -0.50267094 -0.721561
-0.8491699 -0.92876357 1.0715092 0.5588954 -0.71706253 -1.1839385 0.7348587 -0.09525053
-1.4297669 -0.074766174 1.8564707 1.2105347 0.88793796 -0.8506914 0.7125682 -0.22431754
-0.6071862 0.4373295 -0.24936466 0.7878332 -0.8531204 1.3077759 -0.41043013 0.7162229
-1.2581897 -1.004963 -0.14987697 0.2105888 0.87798446 0.0061012097 0.5386826 -0.23940776
-0.45414993 1.9674118 0.057727937 -0.077214375 1.3461151 0.3603033 1.6766213 0.35866785
0.94634813 0.60284436 -2.8723738 -0.55459934 0.75018 -0.20089003 -0.4053419 -0.47960877
1.0272708 1.7606003 0.13222888 1.1174747 -0.3384561 0.9498521 1.0231335 -0.5076898
-1.1796443 0.4782625 1.1436963 -0.82124823 -1.3595259 -2.5031788 -0.45649305 0.38357475
0.8209658 1.0718708 0.25016445 0.64219797 -0.15128389 0.9116999 -1.4058557 -1.8677137
-0.1085995 1.5204254 0.48458126 -0.348848 -0.11390313 0.29930773 0.6826043 0.36791852
0.38100633 1.0009547 -1.8561567 0.9513517 0.2214887 0.77022606 -0.75583947 1.2765981
1.1904355 0.71227545 -1.0893553 -0.42713848 -0.01923969 -0.37395543 -1.4760898 -0.2899326
-1.2725012 -0.18642756 0.15613092 0.33966172 -1.2045795 2.3504956 1.2947748 -1.5974755
-0.21241091 -0.2898339 -1.1330208 0.19773932 -0.31267703 0.57744104 0.22231731 -0.809801
-1.5282668 1.3632913 -0.049281865 0.4025514 1.5163352 -1.4663982 0.7384124 -1.2102464
-1.5101097 1.0374671 0.48116112 0.99825263 0.37218776 -3.1019688 -1.4673084 0.45269844
0.25614563 0.4471249 0.18319356 0.49983987 0.21366772 0.34257528 0.11557614 -0.042206254
1.4641224 -0.21798587 -0.54529727 -0.552024 0.40088066 -0.038947027 0.45589077 -0.9680276
-0.43337876 1.5472454 1.1221379 0.51797485 -1.0633672 -0.046893578 -0.77238894 -0.17862417
-0.16096573 1.1844435 0.20398346 -0.61964726 -0.6020193 1.1860433 -0.33127013 1.6736128
-0.7544546 1.5486313 -0.12904395 0.6512441 0.2892102 2.6801562 -0.6818143 0.6987835
1.5036106 0.8611418 0.07154629 0.13641705 -0.52633 0.5581497 0.5501706 -0.11680496
-0.35905468 -0.26730567 0.64086056 -0.6037162 1.6904455 1.5009539 0.585255 0.8078974
-1.4232601 2.3840895 -0.015037101 -0.31677482 0.8288004 -0.65483934 0.23329721 0.74069387
0.1290391 0.13099064 1.184756 -1.0591063 0.06014435 -0.28788906 -0.28777954 0.49758428
-0.7695012 -0.21288197 -0.19199717 -0.81624204 -1.8152297 1.5941702 0.8622844 -0.396341
-1.2094848 -0.14022468 0.8346393 1.6249825 -0.38596642 0.5602086 0.57378685 0.6668356
-0.7142476 0.33320895 0.37929854 -0.89891213 0.46485627 1.3877826 0.50147325 0.45790532

rgb_pe f4 [1, 49, 32]
00000000: 4d50 1140 f47a 00bf 12db b8bb c2d8 bbbf
00000010: f9e8 fc3c 2b64 903e 6c59 7fbf 70ff 0e40
00000020: 0760 453f ac5d bebe 2145 da3d 23be 0dc0
00000030: 5f80 2a3e 244b 1abe 4c8f e3bf adaf aa3f
00000040: 158a e7be 5b1b 653f e7a9 8a3f 7763 813e
00000050: e574 d8bf 4364 50bf 4aff 703f 5bd5 4dbe
00000060: 9ea6 6a3f 9e37 8d3f 5c21 453f 06b6 a73f
00000070: 8793 c13f f7a4 393f acc5 3dbe 39c9 10bf
00000080: 89c9 843e 69da a3bf 396b bebd bc90 863e
00000090: f3b3 b1bf 66c5 6b3f f14a a83f 9184 dabe
000000a0: 7970 943d 1335 353f 4a22 bc3f 71d7 b4bf
000000b0: 9d03 8f3e 7132 933f 71ba ddbf c851 d0bf
000000c0: 623e 1e40 db48 b03f 34ea f2b8 21cd 68bf
000000d0: 9bc0 963f c9c0 07c0 99df 9b3f e80e 44bf
000000e0: 17fd ad3e 9074 dbbf ad82 00c0 5635 c03e
000000f0: 8dff 283f 94d3 013e a2ed 5b3d 3602 90bf
00000100: 28a4 fe3f 0c2b 83be b2c4 ee3e 71dd a03d
00000110: c000 133f b20d 813f cf87 a93e a333 76bf
00000120: 122f 1940 4740 253f e473 5c3e 2988 63be
00000130: bf72 06bf 5f07 94bf 52bf 8e3f c2dc 85bf
00000140: 6229 783f 45af 183f c958 61bf b398 9f3e
00000150: 0966 58bf 3e58 b63f 3084 dd3f 2f9d 4d3f
00000160: b963 e6be 62e9 7bbf 318d 8cbf b3da 00c0
00000170: 0b66 53bf 2764 09be 3296 bbbf ee7e c8be
00000180: 48ad c13e 3271 cd3e 25eb c0bf a7dc 61bf
00000190: 3bee efbe 272f a7bf fb9a d6bf e46a 483f
000001a0: 5a69 a23f 33aa 92bf ec98 d0be 1370 a8bf
000001b0: 46d1 3b3f 4ff5 d7bf a81b 643d 8a80 783f
000001c0: 5be3 ce3e 947d a43e 2d16 8b3f 57b3 673f
000001d0: 4b41 1d3f 5e3f 8ebf 4502 8cbe 208b 1abf
000001e0: 4c3e 563d 2c3a 5abe 0832 12bf 518f d5be
000001f0: 81c5 313f 5fb2 b13e eba0 94be b07c a0bf
00000200: e0f3 b13e 4e7e 91bf b470 ae3f e21a 9b3f
00000210: 607d 073f 51a4 cb3e e576 90bf 01e2 c6be
00000220: 13aa 2d40 b389 c53e 5de1 86bf 84bc 4b3f
00000230: 2252 cbbe f50f 803d 62f2 4c3f 3555 b6bd
00000240: f12b 11be 1c53 4f3e 4f6b 803f ead0 5a3d
00000250: b79c 9fbf 8214 113f 46f0 62be b50a 0fbf
00000260: d782 843d feb7 f93e d686 5abf c7c7 ffbe
00000270: 4c7c 813d c878 efbd 67d6 8c3e c8bd c5bf
00000280: ed2d e9be bc8a 7e3e cdc5 243f f661 1a40
00000290: 78d8 a0bf 0113 5fbf 93f1 0e3f d0be 493d
000002a0: ed0e 543d b2c4 ddbf 76d4 ea3e a186 d1be
000002b0: 9fa3 cebf 8e39 d43e b499 fe3f ac7c 463f
000002c0: d62c c23e e3cb 2dbf 1e0c a0be 7636 f43e
000002d0: 7764 a5bc 70d9 3140 8467 9a3f fd32 923f
000002e0: 64b8 c3bc f0ea d0bc cc4c e13e 909d fabf
000002f0: c3ae e1bd 3d65 a4be 2f0d 723f a27a c23e
00000300: 64b9 933e 5aac 6b3d 0d0f 16bf 4e1c b0bf
00000310: b1be 833e 7758 6bbf 8edc ba3f e8cd 19bf
00000320: 79f5 f3be 210d 08bf 2433 c63f eb6f b83e
00000330: 7e1d 193f bc3d afbf 5331 9fbd 520d 453c
00000340: efab 91bd 1a6e ffbe 5c99 33bf a1c9 b0be
00000350: 40a0 85bf c88d bfbc a741 febf 4879 373d
00000360: d535 80be 5b5b e7be f498 08c0 da5a d63e
00000370: 844e 003f bdd7 51bf ae61 64bf c7e6 b0bf
00000380: c800 2dbf 8dce b23d cd03 723d fe5e e53e
00000390: a1a3 953f f514 d7bd ae0b c1bf d824 6f3f
000003a0: 6a22 d2bf 86b1 f2be 822c e43e 47d3 d13e
000003b0: ee15 dfbf a0b9 95bf 83d4 20c0 0641 d1be
000003c0: 9250 a6bf 08d9 b33f ad67 59bf 9fac 11c0
000003d0: 55ce 14be de1c 9f3f 0fad 183f 9863 1bbf
000003e0: a9f3 eb3e 2e2c 2ac0 56e8 8dbe 1397 3bbe
000003f0: 1760 b53f 181c 503e 0a16 9d3e 2ad0 0b40
2.2705262 -0.5018761 -0.0056413496 -1.4675524 0.030872809 0.28201422 -0.9974582 2.2343407
0.7709965 -0.3718084 0.106577165 -2.21473 0.16650532 -0.15067726 -1.7778106 1.3334862
-0.45222536 0.89494866 1.08331 0.25271198 -1.6910673 -0.8140299 0.9413954 -0.2010092
0.9166049 1.1032598 0.7700403 1.3102424 1.5123147 0.7251734 -0.18532437 -0.5655704
0.2593501 -1.2801028 -0.09297795 0.262823 -1.3883041 0.9209808 1.314787 -0.42679265
0.07248015 0.7078411 1.4697964 -1.4128247 0.27932444 1.1499768 -1.7322522 -1.6274958
2.4725575 1.3772234 -0.00011583083 -0.90938 1.1777529 -2.1211417 1.2177612 -0.76585245
0.33982155 -1.7144947 -2.0079758 0.37540692 0.6601494 0.12678367 0.05369342 -1.1250675
1.9893847 -0.2561878 0.46634442 0.078547366 0.5742302 1.0082304 0.33111426 -0.9617254
2.393498 0.64551204 0.21528584 -0.2221991 -0.5251884 -1.156475 1.1152136 -1.0457995
0.96938145 0.5964244 -0.880261 0.31171188 -0.84530693 1.4245679 1.7305965 0.8031797
-0.44997957 -0.9840299 -1.0980588 -2.0133483 -0.8257758 -0.13417111 -1.4655211 -0.3915934
0.37827516 0.40125424 -1.507176 -0.88227314 -0.46861443 -1.3061265 -1.6766046 0.782881
1.2688401 -1.1458191 -0.4074167 -1.3159202 0.733662 -1.6871737 0.055690438 0.97071135
0.40407833 0.32127059 1.0866143 0.90508026 0.61427754 -1.1113088 -0.27345482 -0.6036854
0.052305505 -0.21311253 -0.5710759 -0.41710904 0.6944199 0.347064 -0.2902902 -1.2538052
0.34756374 -1.136667 1.3628144 1.2117579 0.5292568 0.397738 -1.1286284 -0.38844302
2.7135055 0.3858162 -1.0537525 0.79584527 -0.397111 0.062530436 0.80057347 -0.08902971
-0.14176919 0.20246547 1.0032748 0.053421892 -1.24697 0.5667192 -0.2216197 -0.5587571
0.06470268 0.48773187 -0.85361993 -0.49957106 0.06322536 -0.11692959 0.27507326 -1.5448542
-0.4554285 0.2485761 0.6436432 2.412229 -1.2566061 -0.8713837 0.55837363 0.04925424
0.051772047 -1.7325652 0.4586522 -0.40923026 -1.6143683 0.4145016 1.9890656 0.77533984
0.37924832 -0.6788923 -0.31259245 0.476978 -0.020189507 2.7788963 1.206284 1.142181
-0.023891635 -0.025502652 0.44003904 -1.9579334 -0.11019661 -0.3210849 0.94551367 0.37984186
0.2885238 0.057537414 -0.58616716 -1.3758638 0.25731423 -0.9193186 1.4598558 -0.60079813
-0.47648218 -0.53145033 1.5484357 0.36022887 0.59810627 -1.3690715 -0.0777308 0.012027102
-0.07112872 -0.49888688 -0.7015588 -0.3452883 -1.043953 -0.023383036 -1.9863786 0.044793397
-0.2504107 -0.45186886 -2.1343355 0.4186619 0.50119805 -0.81969815 -0.8921155 -1.3820428
-0.6757932 0.08730803 0.059085656 0.44799036 1.169056 -0.10502044 -1.5081689 0.93415594
-1.6416752 -0.47401065 0.44565207 0.40981504 -1.7428567 -1.1697273 -2.5129707 -0.4086992
-1.2993338 1.4050608 -0.8492382 -2.276161 -0.14531834 1.2430685 0.59639066 -0.60698843
0.46084335 -2.6589465 -0.2771632 -0.18319349 1.4169949 0.20323217 0.30680877 2.1845803

weight f4 [32, 3, 9]
00000000: d967 6f3e b357 893c 0801 2abf 585c 0abf
00000010: 1ac2 fa3e 883b bd3e 41fd ddbd 1f56 b2bd
00000020: c902 2ebd ac15 843e 6bab 16bd 9559 5bbe
00000030: 3147 16bc 372a ef3e 651f bc3e 23b9 6abd
00000040: c46d 01be 846b bc3e d7bf 01bf 9af8 2dbe
00000050: 0499 ef3e 6151 993e 7ad0 74bf f93c 02bf
00000060: c6d5 233e 923c 163f f89c 02be 6947 44be
00000070: 82b7 06bd 9476 163f 63e6 b63e 6a5d a03d
00000080: d3e0 08bf c1e8 2cbf a252 83be 133d e83c
00000090: 22c4 dbbd fb9a 583d 7bd5 7e3e 8880 063e
000000a0: 6fc6 1b3e 4112 d73c 819c bc3b 381a 8b3d
000000b0: 5646 323e 0a1f 0b3e ed94 a13c ef7f f6be
000000c0: b450 95bd 1c29 a7bd 6884 7c3e 3674 893e
000000d0: 7f3f 18bb d146 16be 7e74 69be d677 d0bd
000000e0: 42b7 39be 70e4 14be 5dd9 38be a681 f1bd
000000f0: 68c9 c2bd dd81 c03d 1c1f 18be 1dfb 1c3e
00000100: 0198 273e 1f51 133e 7c9f 7f3d f2dd 393e
00000110: ff8f d83b 99f9 d6bc b133 a13d c0c1 013d
00000120: e5fd 893e 4d1d 39bc 5eb0 813e 398e 143e
00000130: 8821 033e 55bc 333c af18 46bf 79eb 7dbf
00000140: 4e64 37bf d7e4 a8bc 76e6 153d ef4a dd3d
00000150: 831c bb3d ef49 323e 164a 80bd 6894 41be
00000160: acc6 2ebf 38d5 8cbf 4036 b83e b747 9a3e
00000170: 93d2 2b3e a57c 5e3e 4edf 9f3e 090b 6f3e
00000180: 3855 943e 6713 733e 4cd8 bb3d 9aa1 30bf
00000190: 04f5 4dbf 2e04 9bbe ed65 9dbe 10c3 8fbe
000001a0: badc b0be 5270 04bf c37c 9dbe 53ef 31be
000001b0: e66c d83c a345 363d 743b 25bd 3c86 b03c
000001c0: 1db7 c13e a480 1a3c e643 9e3e 5e21 923d
000001d0: cbf1 38bc 732e 843d 7063 893d eda8 92be
000001e0: fc44 f4bd 4062 87be 113f 6b3e 77f3 463f
000001f0: b405 383e 21ad 05bd 9bdc 03bf ecd8 94be
00000200: b8ea 24be 7936 13bf b962 a1bf a9e1 ab3e
00000210: 826b 6b3f d74c 653c b1d1 e9bc a49d 97bc
00000220: dfd4 0dbb 6167 153e 106e 9e3d 4a4f 113a
00000230: b49c 76be 8bb1 1bbe 8541 363d 5710 2c3b
00000240: c36e d7bb f1bb 413d ed77 983c 60ae 5a3c
00000250: 8606 013d 52b3 3f3d 8df7 113d 9737 463d
00000260: 39e2 bf3c ac9c 023e f84b e7bd 3709 b1bf
00000270: 53bf 5f3f d9fe f73f 3482 75bf d032 ffbf
00000280: d010 a93f c15c 63be f86b c83e b572 0d3e
00000290: a6da 36bd 1a13 733e 0496 163d 4bb6 86bd
000002a0: 48c6 a6bb f924 113e 9a8d 9bbe a8fd 57bf
000002b0: d8f0 f4bb 1c17 733e 10d0 a03d b159 e5be
000002c0: 8678 55bf 93b1 0cbf 13da fa3c cf6b 133e
000002d0: 505c 273f 9c0c ec3c f032 5bbe 787c 9fbe
000002e0: 0b6c 69be 7db3 90be 793a 6bbe c48f 49bf
000002f0: fa2e e8bf aa56 09b9 f7e4 ab3d 4613 933d
00000300: ede3 05be 7ff5 16be 18c9 3abe 7c60 f4b9
00000310: c971 743a 0ede ea3c a5de e63d b088 0dbe
00000320: 3c25 2f3e a82d 8abd f2eb 97bd a23a 813e
00000330: e84e 1c3e 7e5f f3bc c72d 583b e2bf 153e
00000340: fb0e 75bf 5d9b 683f 7b72 c1bf 723a c0bf
00000350: 0d1e d13f bade 393f 71eb 69be 69cd 033e
00000360: 067e 7f3a 2a87 3ebd d6c4 413d 4948 303b
00000370: d38c ac3d b5ea 963d fec9 ebbd 7daa 0fbe
00000380: 47c1 bdbc 9a7a 98bb ab6b 723f 3f2a c8bd
00000390: 0d50 f13e 2c1e 823e 2c9b 003b d8a4 76be
000003a0: a763 363e a8c8 7b3b 0f2d 613e 1ecf f7bf
000003b0: a30e 463f dce8 25bf bfa7 96be 0a11 8ebd
000003c0: bbf4 563f 3510 6dbb 1cce 923e 6053 0dbc
000003d0: da04 a93d 3a51 ab3e 4972 7fbe 3130 42bf
000003e0: bcc5 703e 12ce 75bd 8e7f aebd 8ea2 9fbd
000003f0: 4a37 7e3d 9c83 9a3c c4ee f93e 272f 403d
0.23379458 0.016765451 -0.66407824 -0.54047155 0.48976213 0.3695948 -0.1083932 -0.087078325
-0.042483125 0.25797784 -0.03678457 -0.21420892 -0.009172247 0.46711895 0.36742702 -0.057305466
-0.12639529 0.36800778 -0.5068335 -0.16989365 0.4679643 0.299449 -0.9563061 -0.50874287
0.15999517 0.5868617 -0.12755191 -0.19167866 -0.03288985 0.58774686 0.35722646 0.07830317
-0.53468055 -0.67542654 -0.2564898 0.028349435 -0.10730769 0.052882176 0.24886124 0.13134968
0.15212415 0.026253821 0.0057559614 0.0679211 0.17409644 0.13586059 0.019724334 -0.4814448
-0.072907835 -0.08162138 0.24659884 0.26846474 -0.0023231206 -0.14675452 -0.22798344 -0.10179107
-0.18136314 -0.14540267 -0.18051668 -0.117923066 -0.095110714 0.093997695 -0.14855617 0.15330167
0.16366579 0.14386414 0.062407956 0.18151072 0.0066089625 -0.026242064 0.078711875 0.031678915
0.2695152 -0.01129849 0.2532987 0.14507379 0.1280576 0.010970195 -0.77381414 -0.9918743
-0.7163743 -0.020616932 0.036596738 0.10805308 0.091362976 0.17411016 -0.06264131 -0.18904269
-0.682719 -1.1002569 0.3597889 0.3013284 0.16779546 0.21727236 0.31225055 0.23344053
0.28971267 0.2373787 0.09172115 -0.68996584 -0.8045199 -0.30276626 -0.30741826 -0.28078508
-0.345434 -0.5173389 -0.30759248 -0.17376451 0.026419114 0.044500005 -0.040339902 0.021548383
0.37835017 0.009430084 0.30911177 0.071352705 -0.011288117 0.06454172 0.06708419 -0.28644505
-0.1192722 -0.26442146 0.22973277 0.7771525 0.17970926 -0.03263581 -0.5150849 -0.29071748
-0.16105163 -0.57504994 -1.2608253 0.33570603 0.9196092 0.013995371 -0.028542371 -0.018507786
-0.0021641774 0.14590217 0.077358365 0.0005543126 -0.24083215 -0.15204446 0.044496078 0.0026254856
-0.006574483 0.047298376 0.018611873 0.013347238 0.03150036 0.046801873 0.035636473 0.04839286
0.023423301 0.12755078 -0.11293787 -1.3830937 0.8740131 1.9374648 -0.959018 -1.9937382
1.3208256 -0.22203352 0.39144874 0.13813289 -0.044642113 0.23737755 0.03676416 -0.065777384
-0.005089555 0.1417426 -0.3038147 -0.84371424 -0.007475 0.23739284 0.07852185 -0.44794992
-0.8338703 -0.54958457 0.030621564 0.14396594 0.6537523 0.028814606 -0.2140615 -0.3114965
-0.22795121 -0.2826194 -0.22971524 -0.78734994 -1.8139336 -0.00013097623 0.08393281 0.071814105
-0.13075228 -0.14742087 -0.18240774 -0.00046611193 0.00093248166 0.028670337 0.11272935 -0.13821673
0.17104048 -0.067469895 -0.0741805 0.25240046 0.15264475 -0.02970862 0.003298627 0.14623979
-0.95725983 0.90862066 -1.5113062 -1.5017836 1.6337296 0.7260548 -0.2284372 0.12871327
0.0009746257 -0.04651562 0.047306858 0.0026898554 0.084252976 0.073689856 -0.11513136 -0.1402988
-0.02316345 -0.004653287 0.9469554 -0.09773683 0.47131386 0.25413644 0.001962374 -0.2408632
0.17811452 0.003841916 0.21989845 -1.9360082 0.77366084 -0.6480844 -0.29424855 -0.06936844
0.8396718 -0.003617299 0.28672874 -0.008625835 0.082528785 0.33460408 -0.2494594 -0.75854784
0.2351293 -0.060010977 -0.08520423 -0.07794677 0.062064447 0.018861584 0.48814976 0.046919968

bias f4 [32]
00000000: e7de cebe c179 8bbe c4cf 8ebf 255d f4be
00000010: 7c55 c0be 50aa d7bd 0a1d 59bf e1c1 7dbd
00000020: fb3d 08be c5d7 a2be 61ef 08be 8733 93bd
00000030: 1f47 42bf 82e3 40bf 29bf 2ebf 0caa 3ebd
00000040: 9359 b8bd 5fe9 7bbf cdc7 50be 3462 35bf
00000050: c9be 2cbe b2c3 2ebd 6324 06be cec3 53bf
00000060: e876 a2be 2f4a 46bf 9f18 8bbd a616 c7be
00000070: f984 c8be 044e 1bbf ad91 90be 99b4 06bd
-0.40404436 -0.27241328 -1.1157155 -0.47727314 -0.3756522 -0.105305314 -0.84809935 -0.061952475
-0.13304894 -0.31805244 -0.13372566 -0.071875624 -0.7588977 -0.7534715 -0.6826044 -0.046548888
-0.0900146 -0.9840297 -0.20388718 -0.7085297 -0.16869654 -0.0426671 -0.13099818 -0.8272065
-0.31731343 -0.77456945 -0.067918055 -0.38884467 -0.3916395 -0.6066592 -0.28236142 -0.032887075

weight f4 [32, 32, 9]
00000000: c42a 94bd 9ba9 bf3c bff0 23bf d546 60bb
00000010: 664f bdbe a133 863e b7e8 c5ba b792 c9bc
00000020: 9ca1 c6bc c2cd debe 21eb 88bd 0d7a a5be
00000030: 4a3a 57bf fe44 afbe 94a4 643e 7fc0 1abe
00000040: 6c7b be3d 2dfb 82bd da89 8fbf 4a28 a9bf
00000050: 0911 c7be 83fe cbbe 172d 553e a97c 3ebb
00000060: 49cb a93e 4226 ff3e 68f7 bebc 4e02 58bf
00000070: 0503 ecbe a468 77be a7aa 9d3d b0bc 183c
00000080: 3020 b93c bb41 2b3c 243c 11bd 895c 943b
00000090: d5c2 8bbe b2ed 363e 65d2 8cbe 079b 67bd
000000a0: a689 3b3e 23b8 8dbf f58e a8bd aa77 ca3c
000000b0: 48fe a4bd 95e8 edbd ccfa bcbe 53d7 a4be
000000c0: 457a 99be 1ac7 46be 3b53 bfbe b23a e13d
000000d0: 6192 1ebd 4a9a 2d3d 2b1a a8bf 50c0 a9bf
000000e0: 380a a3bf 82a1 79bf 49c8 14bf 9a3d 14be
000000f0: a383 903c 7e89 5a3e 0213 c03d effd dbbd
00000100: 420c 143e 4b8f d4bd 4806 853d 1729 31be
00000110: bab3 19bd c124 70be 584e 0dbe 10ed 803d
00000120: fd63 0c3f 52be 39bf 3893 5c3f c45f 423e
00000130: d01a 29bf 84ce 5bbe 568f be3d ebcb abbf
00000140: 8248 303e 27a8 103e e6c5 92be 10b8 cf3d
00000150: b552 833e 3dce babe 885b f7bd 25cf 7b3e
00000160: 4a42 ecbd 36c0 093d 7601 2dbf 903c 21bf
00000170: 61e2 5ebf 4811 87bf 656c 26bf 8262 56bf
00000180: a55a 0dbe 68ae 01bd ea06 86bd 3da9 28c0
00000190: 516c e1bf f463 82bf a350 36bf 6d54 f43c
000001a0: 3251 f93c d8ae 2e3e 0759 11bc a4ab 3dbe
000001b0: d346 adbf aa59 8dbf edf8 78bf 1f19 20bf
000001c0: 3e21 41bf 3bb8 92be 5948 e7be 6899 fd3d
000001d0: baf4 193d 0454 853e 6b35 a9bf 9b9f 92bf
000001e0: c99c f6bf 3d22 9fbf 851c 70be ada8 ab3e
000001f0: 22dd b6be f538 573e 6c34 aebe 7bed afbf
00000200: 35bc a8bf e89b 8dbf f1bb 2dbf 6790 743e
00000210: cb2e ef3e a2a1 f73e dd5d 85bd 00c6 f5be
00000220: 1072 1bbb 5276 bb3d b5da a33d 169f 39bf
00000230: b50f 80bd 028d 2cbc b00e 213d 90c3 d73c
00000240: 1f78 bcbf 6f82 00c0 ca45 c1bf 4080 1dbf
00000250: 3c8e cbbe b002 723d af05 383c 8e9c 603e
00000260: ebbc c8bd 640e 8abf f123 38bf 8cf6 9cbf
00000270: dd9a 43be cc6f 70bf 293d 35bf 3bca e1bf
00000280: 873c 82bf 8616 9d3d 74e0 4b3f 7fae 42bd
00000290: 3487 0c3f 6607 6a3f 3503 81be 0e88 a2b9
000002a0: ea55 e9be 276e 8ebf be65 20bd fff9 d6bf
000002b0: 2ccc 94bf 3a00 c7bf 0e56 8dbe b8bc 1fbd
000002c0: e92b 67bd af1b b33c 84d9 30bc 7e4d 4a3e
000002d0: 19b7 02be fced 6bbe 3d5e 19be 8031 2bbf
000002e0: f853 07bf bbf3 1fbf 4d0a 20bf 9f7d 5cbd
000002f0: 7dc6 ff3d 0a71 adbe a30d 96be 3530 5c3f
00000300: 577f 0fbf f0c5 dbbe 2a82 f3be 4745 e83d
00000310: 22b6 3abd d79d ec3d 9eee c3be 4a3d 23be
00000320: 6bee 8dbe bd05 8cbf 340a 5ebf 36e5 9cbe
00000330: 104c aabe 76c1 d0bd 704c 1a3e 65b4 983e
00000340: 31a1 5ebd e7e9 bc3c cd8b 50bf 2b37 9dbe
00000350: bc59 883e 3ca3 cabe f762 77bf 6c82 7a3d
00000360: b476 69bf 00dc 0a3d cad6 813d 0bcd 94be
00000370: e849 0abf a2ac 12bf 20ae 363e 8d23 00be
00000380: 6b00 783d fed8 2d3e 4e35 91bf 4285 e9be
00000390: 96af 7fbf 62de c73d 6a46 febd aba6 a8bf
000003a0: d5f4 c03d d6fa 023e 413a c0be c0c2 37be
000003b0: 2403 43bf 3b93 7ebf 2ee9 36be b712 3b3e
000003c0: cc91 c23d c3ef 3e39 46be 6dbb dc11 a63c
000003d0: 7129 1f3a 76e8 bebe 8fb4 47bf d238 2dbf
000003e0: ac10 62be 3852 c6bd d127 c53e 3a0e 1abf
000003f0: a940 11bf 4688 5fbf 4584 e9be 63e6 aabe
-0.072347194 0.023396304 -0.64039224 -0.0034221907 -0.3697464 0.26211265 -0.0015099262 -0.024606092
-0.024246983 -0.43516356 -0.06685472 -0.3231968 -0.8407332 -0.34232324 0.22328407 -0.15112494
0.093008846 -0.06395564 -1.1213944 -1.321542 -0.38880184 -0.39842615 0.20817982 -0.0029066002
0.33162907 0.49833876 -0.023311332 -0.84378517 -0.46096054 -0.24161011 0.07698565 0.00932233
0.022598356 0.010452683 -0.035457745 0.0045276326 -0.27297083 0.17864111 -0.27504268 -0.05654433
0.18314227 -1.1071819 -0.08230392 0.024715263 -0.08056313 -0.11616627 -0.36910093 -0.3219553
-0.29976097 -0.19411889 -0.37368187 0.10997523 -0.038713817 0.04238347 -1.3132986 -1.3261814
-1.2737494 -0.97512066 -0.5811811 -0.14476624 0.017640894 0.21341512 0.093786255 -0.10741793
0.14457801 -0.103788935 0.06495339 -0.17300831 -0.037524916 -0.2345152 -0.13799417 0.06295216
0.5484007 -0.7255603 0.8616214 0.18981844 -0.6605654 -0.21465498 0.09304683 -1.3421606
0.1721516 0.14126645 -0.2866661 0.10142529 0.25649038 -0.36485472 -0.12078005 0.24590738
-0.11536081 0.033630572 -0.67580354 -0.62983036 -0.87064177 -1.0552149 -0.65009147 -0.8374406
-0.1380411 -0.031660467 -0.065442875 -2.6353295 -1.761118 -1.0186753 -0.7121679 0.029825414
0.030434225 0.17058885 -0.008871323 -0.18522507 -1.3537239 -1.1042988 -0.9725483 -0.6253833
-0.7544135 -0.28656182 -0.45172384 0.123827755 0.037586905 0.2604066 -1.3219427 -1.1454958
-1.9266597 -1.2432324 -0.2344838 0.33527127 -0.35715586 0.21017821 -0.3402437 -1.3744348
-1.3182436 -1.1063204 -0.678649 0.2388321 0.46715388 0.48365504 -0.065120436 -0.48002625
-0.002371911 0.09153427 0.080006994 -0.7250837 -0.06252996 -0.010531666 0.039320648 0.026338369
-1.4724158 -2.007961 -1.5099423 -0.6152382 -0.39756954 0.059084594 0.011231824 0.21934721
-0.09801658 -1.0785642 -0.7192984 -1.226274 -0.19102044 -0.9392059 -0.7079645 -1.7639841
-1.0174721 0.07670312 0.79639363 -0.047529694 0.54893804 0.9141754 -0.2519776 -0.00031000416
-0.4557336 -1.1127366 -0.03915953 -1.6795043 -1.1624808 -1.5546944 -0.27604717 -0.038998336
-0.05643836 0.021863787 -0.010794047 0.19756123 -0.12765159 -0.23040003 -0.14977355 -0.66872406
-0.528625 -0.6248128 -0.6251572 -0.05383074 0.124890305 -0.33875304 -0.2930728 0.8601106
-0.5605368 -0.42924452 -0.47560245 0.113413386 -0.04558385 0.11553543 -0.38267988 -0.15941349
-0.2772096 -1.0939251 -0.8673432 -0.30643624 -0.33261156 -0.1019315 0.15068221 0.2982513
-0.054352943 0.023060752 -0.8146332 -0.30706152 0.26630962 -0.39577663 -0.96635383 0.061159536
-0.9119675 0.033901215 0.06339796 -0.29062685 -0.5401902 -0.57294667 0.17839861 -0.12513562
0.060547274 0.16977307 -1.1344392 -0.4560948 -0.998773 0.09759213 -0.12415774 -1.3175863
0.09421698 0.12790999 -0.37544444 -0.17945385 -0.7617667 -0.99443406 -0.17862388 0.18268858
0.09500465 0.0001820913 -0.0036276742 0.020272188 0.0006071544 -0.3728673 -0.78009886 -0.67664826
-0.22076672 -0.09683651 0.3850694 -0.6017796 -0.5673929 -0.8731731 -0.45608726 -0.33378896

bias f4 [32]
00000000: 7296 f1b8 a4ff cfbc 1041 46bd 169b 46bd
00000010: 4664 0cbe 8e54 e3be f129 c0bf d2d5 81bf
00000020: 1a68 bfbd af7c 95bf 027a 21bf 5753 11bf
00000030: c50c adbd 92f8 bbbc 3d54 73be ad24 84be
00000040: dc68 9abd 0bdf 21be 5964 60bc a14e 74bd
00000050: 9ac7 bcbd 1e3b 8cbc ee18 4ebc 7e04 60bd
00000060: 715b 58bc 7391 21bf e871 59bf fed1 88bd
00000070: 92f1 f0bd 1492 35be 4032 3bbc a82d 95bf
-0.00011519798 -0.025390454 -0.048401892 -0.048487745 -0.13710126 -0.44400448 -1.50128 -1.0143378
-0.09346028 -1.1678675 -0.63076794 -0.5676779 -0.08449701 -0.022945676 -0.23762603 -0.2580923
-0.075395316 -0.1580774 -0.0136958 -0.0596453 -0.092177585 -0.017118033 -0.012579186 -0.054691784
-0.013205395 -0.6311256 -0.8493943 -0.06680678 -0.11764826 -0.17731506 -0.011425555 -1.1654558

weight f4 [32, 32, 9]
00000000: 7524 6bbd 1acd 45bf ab9c 79be d549 e8be
00000010: 671c 2f3e 38d7 813e f148 6b3e c72f 183e
00000020: ed18 703e 2622 2abf 9020 0bbf 7410 0dbf
00000030: bb23 72be 1018 cbbd 86c9 28be 668a b4be
00000040: 5aec e5be 6651 1cbf d41b 48bf 4143 53bf
00000050: 4c16 7fbf 3847 87bf bf33 73bf 38fa 21bf
00000060: 1eea febe 4a89 2dbf c8bf 5bbf f3a5 643e
00000070: d05b 873e a950 a33d e11f 523e 21b7 a8bc
00000080: 93e3 83bb 25be 20be 8b49 20be 08ca a2be
00000090: ef4a 8dbe a840 a3bb dbc3 07be b4d7 06bf
000000a0: f462 25bf faf9 08bf 6def d6be fdfc 953c
000000b0: 4d90 d13d 2896 ffbe e87d 0ebf 5c37 a6be
000000c0: 26bd d2be 3e13 8fbe 981a 163e 3aac 283f
000000d0: 0c49 2d3f e2e9 343e 8a6f 3abf 20d4 bbbe
000000e0: 9706 83be f25b bdbe e0bf a6be 70fa 6ebe
000000f0: 98cb 97bd f4f0 463c 2732 47be 72b4 39bf
00000100: b5e4 30bf c182 29bf 3c0a 3cbf c29f 1cbf
00000110: 370e 12bf eb95 ddbe 84d9 81be 86d1 d7be
00000120: bc83 543d d3df 0dbd 5dd4 19bd 4548 373d
00000130: d0da e53c a3f4 b7bd 53ff 4cbe 047b b5be
00000140: 8c08 64be dad9 60be a8be 53be eb62 35be
00000150: c1c4 913e b06d 573d dd5a 1bbe 6bd6 863e
00000160: c036 b0be 0b14 77be 806a 08be 1104 59bf
00000170: b7f1 28bf e27b 3ebf 5dcd 91be 47e2 90bf
00000180: dfb1 50bf 5c2a c53c 99f5 913e c6d4 2dbf
00000190: 779a 43bf 738e 94bf f661 84bf 33d2 8cbf
000001a0: f9b2 8cbf c4ee 53bf 51c4 59bf 514a 11bf
000001b0: d858 bdbe 1bd5 3bbe 9b53 0cbf 13a4 1ebf
000001c0: 2405 cdbe 6cff edbe 9d07 7fbe 4715 9ebe
000001d0: de34 cfbe ed19 debe 2b96 5cbe b515 febd
000001e0: e377 b9bd 1958 dd3b f58f 973d d96a 053e
000001f0: 81e4 34bd e004 a4be d034 9bbd fa91 86bd
00000200: ae1f 09bf 5233 55bf f26a 21bf 58aa 02bf
00000210: c9fe 50be a460 7cbe 8f41 55be a7a5 3ebe
00000220: ec91 41be ccfc 5cbb da9a 09be e8fa e33d
00000230: cc3a 45bd b85f 353e e511 fc3d 6e62 543c
00000240: c69a 8ebe 5b9e f1be ed6c 0ebf b066 35bf
00000250: e66b 01bf 4af9 91be dade b9be 8de2 06bf
00000260: 009f 0bbf ac45 0bbf 7708 cebe 09f3 7abf
00000270: 5955 87bf 1780 7abf e0cd 0dbf 3a67 13bf
00000280: de5a 16bf a6d4 023f 54fe 8abf f0ec 42bf
00000290: 5aa3 07bf 986d 63be b66f 01be 2b7e b8be
000002a0: 8d00 bfbe 07e9 23bf 4f9a 55bf a157 3cbd
000002b0: ab13 3dbc 918e eabc 10d6 34bc 8924 03be
000002c0: 270a 5fbe 360e 103e e71d 223c 0291 323d
000002d0: 30f5 84bd 5134 2ebd 69ee d93c 4a62 79bd
000002e0: 7f65 3fbe d87c acbe 9309 acbe 4ab1 0abe
000002f0: e66d 1c3e d7d2 90be 641c 89be 16f1 1abe
00000300: c003 16bf 4ccf 81bf 6316 4dbf 3e3d 41bf
00000310: f048 6dbf 1d2e 94bf 30e0 98be c861 b2be
00000320: eb6e a2be 850a 38bf 017a 7bbf 72fa 28bf
00000330: 8280 26bf c82d 48bf 5602 49bf 55f4 9f3d
00000340: 1cea d9bd a9a7 113e d23e 743e 6f26 8e3e
00000350: 63af a73e 1b3d 05be c92c 0a3e c144 a63e
00000360: 7598 31bf 1e2e e0be 3abd 01bf f7e7 d1be
00000370: 9751 9ebe 97fe 6cbe 4a65 fabe de76 9ebf
00000380: 06fb b6bf 2a56 1cbf b204 45bf 35ae c3be
00000390: e853 19bf 5282 2cbf 715f 23bf 29ec 09bf
000003a0: 811b 64be f9f2 1abf acff 95bf f2d1 d3bf
000003b0: e4c6 a8bf c80f abbf bc8d 8ebf 23fe 71bf
000003c0: 5c18 6cbf 5299 62be 152f bdbe 121e f13d
000003d0: 7126 ec3d d24d 2c3e baac 4f3e cd95 ad3e
000003e0: 30ce e83e 879f c43e 8cd2 af3d e8c6 b23c
000003f0: 9143 463e dadf 413e fc63 8b3e a007 973d
-0.057407815 -0.77266085 -0.2437617 -0.4536883 0.17100678 0.2535951 0.22977044 0.14861976
0.23447008 -0.66458356 -0.5434656 -0.5510323 -0.23646443 -0.09916699 -0.16483125 -0.3526184
-0.44906884 -0.61061704 -0.7816746 -0.82524496 -0.996434 -1.0568609 -0.95000833 -0.6327243
-0.49787992 -0.6778761 -0.8583951 0.2232893 0.26437235 0.07974369 0.20519973 -0.020595135
-0.0040249317 -0.15697534 -0.15653054 -0.31794763 -0.27596232 -0.004982073 -0.13258307 -0.52672887
-0.64604115 -0.53506434 -0.41979542 0.01830911 0.10232601 -0.49919248 -0.5566087 -0.3246411
-0.41159934 -0.27944368 0.14658582 0.65887797 0.67689586 0.17667344 -0.72826445 -0.36685276
-0.25590965 -0.3698421 -0.32568264 -0.23337722 -0.07411879 0.012142409 -0.19452725 -0.7254096
-0.6909898 -0.6621514 -0.73453116 -0.6118127 -0.5705294 -0.4327844 -0.25361264 -0.4215204
0.051883444 -0.034637284 -0.03755604 0.044746656 0.02805844 -0.089822076 -0.20019273 -0.35445416
-0.22268885 -0.21958104 -0.20678198 -0.17713515 0.28470424 0.05259484 -0.1517138 0.26335463
-0.3441677 -0.2412874 -0.13321877 -0.8477183 -0.6599383 -0.7440778 -0.28476992 -1.1319054
-0.8152141 0.02406805 0.2850769 -0.6790279 -0.7640757 -1.1605972 -1.0342395 -1.1001648
-1.0992118 -0.827862 -0.8506518 -0.5675402 -0.36981845 -0.18343012 -0.5481507 -0.6196911
-0.40042984 -0.46483934 -0.24905248 -0.30875608 -0.40470022 -0.43379155 -0.2154166 -0.12406484
-0.0905607 0.006754887 0.074005045 0.1302904 -0.04416323 -0.3203497 -0.075784326 -0.065708116
-0.53563964 -0.83281434 -0.6305381 -0.51041174 -0.20409693 -0.2464624 -0.2082579 -0.18617879
-0.18903321 -0.0033720015 -0.13437977 0.11131841 -0.048151776 0.17712295 0.123081006 0.012962921
-0.27852458 -0.47191128 -0.5563496 -0.70859814 -0.50555265 -0.28510505 -0.36302835 -0.5268944
-0.5453949 -0.54403186 -0.40240833 -0.9802709 -1.0572921 -0.978517 -0.55392265 -0.57579386
-0.587324 0.51105726 -1.0858865 -0.7614279 -0.5298363 -0.22209775 -0.1264027 -0.3603376
-0.37305108 -0.64027447 -0.8343858 -0.045982007 -0.011540334 -0.028632434 -0.011037365 -0.12806906
-0.21781217 0.14067921 0.009894825 0.04359532 -0.06492078 -0.04253036 0.02660294 -0.06088475
-0.18691061 -0.33688998 -0.33601055 -0.13544193 0.15276298 -0.28285858 -0.26779473 -0.1513103
-0.5859947 -1.0141387 -0.80112284 -0.75484073 -0.9268942 -1.1576573 -0.2985854 -0.34840226
-0.3172525 -0.7189105 -0.9823304 -0.6600715 -0.6503984 -0.78194857 -0.7851919 0.078102745
-0.10640356 0.14224114 0.23852089 0.27763698 0.32750997 -0.13011591 0.13493647 0.3247433
-0.69373256 -0.43785185 -0.5067936 -0.40997288 -0.30921623 -0.23143993 -0.48905402 -1.2380025
-1.4295356 -0.61068976 -0.7696029 -0.38218847 -0.59893656 -0.67386353 -0.6381751 -0.53875977
-0.22276117 -0.60526997 -1.171865 -1.6548445 -1.3185697 -1.3364191 -1.1137004 -0.94528407
-0.9222467 -0.221288 -0.36949983 0.117733136 0.115307696 0.16826561 0.20280734 0.3390335
0.4546981 0.3840296 0.085850805 0.021823362 0.19361712 0.18933049 0.2722472 0.07374501

bias f4 [32]
00000000: 9a8c 11bd e5e0 63be 0f07 5ebd 942d 16bc
00000010: 717e 34bf 2772 85bd 7601 a3bd 145b 95bb
00000020: 9a44 ffbc 7fe7 47bd d059 75bd 7b2a c7bb
00000030: 9441 4dbf 4d47 cdbd c02a d9bb 2944 e5bd
00000040: d588 86be aed9 49bc b606 0ebe af27 83bc
00000050: 6f23 18be c3a4 fdbd f1db 31bf 1b91 93ba
00000060: 0376 95bc b3f7 e8bd 0478 e6bd 3bb2 11be
00000070: 9ff4 52bc 5605 72bc 7d18 04bb 64a5 2bbe
-0.03553448 -0.22253759 -0.05420595 -0.00916614 -0.70505434 -0.065159135 -0.07959263 -0.0045579765
-0.031160641 -0.048804756 -0.059900105 -0.006078062 -0.8017819 -0.10023365 -0.0066274107 -0.11194641
-0.2627627 -0.012319965 -0.13869748 -0.016010134 -0.14857267 -0.123849414 -0.6947623 -0.0011258455
-0.018244749 -0.1137537 -0.1125336 -0.14228146 -0.012875705 -0.01477178 -0.0020156198 -0.1676231

weight f4 [32, 6, 9]
00000000: f4d1 04bd b281 193d 509d 613d c22c fabd
00000010: 0100 f0bd 7d7b a53d 96ce b73d ca5d bbbc
00000020: 659b 153d 8ebf 74bd b37c dabd 283a 9bbd
00000030: c2f6 07bd de5b e83d 3cfe 2e3e d6b8 8d3b
00000040: 7946 90bc bcb1 013d 663d 403d d83a 57be
00000050: 79c8 90be c273 963e 410f e83e 0f61 92be
00000060: d90b 84be 225c 4bbc 4777 64be cd88 143e
00000070: 1c0a b5bc cb5f cbbd a3fd 25be 0528 123d
00000080: c10c 2b3e d2ee db3d 4e7c 11be 4840 763c
00000090: a068 5abf ea16 203f 8dbd a63f 41d1 21bf
000000a0: eada b1bf 27ed 103f 252a 673f 7b84 b1be
000000b0: 02b2 6bbe 67ee eabe 6461 5f3e f371 813f
000000c0: b93d d5be a045 6fbf c9a7 d03e bfa1 183f
000000d0: d587 a0be 30d2 5cbd 1ca6 d0bd 97b0 97be
000000e0: a59e 8fbe 2563 32be 52ad 80be 36d0 92be
000000f0: c768 54be 61c2 41bd 36a4 64be e287 f9be
00000100: 2022 01bf c455 b9be b8ca 0fbf faaa 2cbf
00000110: c9cb 24bf 9337 15bf d2fd 2abf dfb9 3cbf
00000120: 7397 623e bd5c ca3d f15e 9dbc 81b3 7fbe
00000130: f83f adbd 305a f03d d7c7 00bd 956b eabc
00000140: 0322 343d d12b 53bd e4e8 60bd b4b9 c53c
00000150: 45a6 f5bd 4e98 16be b5d9 cebd 63a5 883c
00000160: 0e53 67bd fe43 0b3e 9cb3 3fbd e169 e03d
00000170: 0b99 6b3e 4654 bfbd c0a5 6abd fa72 84be
00000180: a41c 83be 372f 64be 56f4 88be b98a 82bd
00000190: d36f 78bd da41 9e3c 3427 14be 1810 18be
000001a0: 4929 abbd c002 9dbe b8a4 60be 7ccb 21be
000001b0: e870 96be b04c 2abe 4ebe 683d 72ae 213e
000001c0: 6b9f 843e 311d 813e 218c b23d 9253 33be
000001d0: 1d9b ec3d fde5 57bf 5d85 9abe f7b2 9cbd
000001e0: 03c3 373d 3906 0d3d f198 573e f387 a23e
000001f0: f7e5 913e 0574 363e 8d72 68bf 9d88 babf
00000200: cf96 a9bf d271 abbe 4135 6e3f 8ad3 be3f
00000210: 6ad5 883f 8e3f c23e e2cb 87bf d158 583d
00000220: 32a7 2abe 86b8 b1be 4267 a9be d389 b5bd
00000230: 2b9d 343e cd27 9a3e 9e83 943e 5e4a 23bd
00000240: cad7 e5be 2e7b b53e 6d82 433f 074f 813e
00000250: de11 acbe bb06 0bbf 8c9c 33bf 08a7 90be
00000260: 1584 353f a8cb 8b3e 379d fa3e de9d 023f
00000270: 3a8c f0bd c888 10bf 7c17 12bf d15d d1be
00000280: 7497 fbbd 2190 123f 5e98 e03e 0da7 b83e
00000290: 8cb5 2f3e fe0a 84be aee9 50bf 53a8 89bf
000002a0: c28a 73bf d214 3fbf a15a 5dbe a7d1 5fbf
000002b0: 171f b5be 2b04 e13d de8a 443f 68df 833f
000002c0: 2df8 743f b003 0c3f a3ff 0bbe eeac 48bf
000002d0: fc4b 1cbf 7156 b3be 2b6c ccbe 5005 37bf
000002e0: 0a60 3ebf 9adf acbe 272b ad3e 18e6 403f
000002f0: 7e4f 653f 7c58 a13e e065 863d 52fe 77be
00000300: 7709 04bf 2cbb d6be 8b8e dfbd 4075 923e
00000310: 4eba c73d f7ca b43c 8cee 813d 886b 28bf
00000320: b8d9 13bf b759 443e e827 3a3f f498 be3e
00000330: e2a5 653c 7da9 4cbe b5ca 063e a5f5 913e
00000340: 3ca9 223f dce6 c13e b682 22bf 0369 a5bf
00000350: c61b 20bf 134d b73e 74d7 2b3f fc26 ad3d
00000360: 8d9e 953e e1ec bc3e b1f1 fe3d 9277 9e3e
00000370: a863 b93e b40d 8b3e 9592 883e 4197 103f
00000380: cbe1 223f 1d3b 17bf 8395 eabe cc5b 07bf
00000390: 854d d4be 64e0 80be 7ae2 a2be f1e5 e0bc
000003a0: 11b9 69bd cfe1 f23c 857a 3fbf 2235 71bf
000003b0: 77c9 a7bf 7b42 a0bf b3a6 b4bf b4dd a1bf
000003c0: 58c4 94bf 2700 1ebf 7ecf 0ebe 52fb d83c
000003d0: 92e8 5a3c 82fd 4a3d f974 9bbd 445a ef3d
000003e0: 0343 0c3e 4015 95bb 5bee a73d a37d 51bb
000003f0: 254e 8cbe 4db1 73be 5c07 e2bd 69e3 b9bd
-0.03242679 0.037477203 0.055081666 -0.12215568 -0.11718751 0.08080194 0.0897495 -0.02287187
0.03652515 -0.059752993 -0.10668316 -0.07579452 -0.03319431 0.11345647 0.1708917 0.0043250127
-0.017611729 0.03166364 0.046933554 -0.21018541 -0.28277948 0.2938519 0.45324138 -0.28589675
-0.2579029 -0.012412103 -0.22311126 0.1450531 -0.022099547 -0.099303804 -0.16210036 0.035682697
0.16704084 0.10738911 -0.14207575 0.015029974 -0.85315895 0.62534964 1.3026596 -0.6320992
-1.3894932 0.56611866 0.9029868 -0.34671387 -0.23017123 -0.45885012 0.21814495 1.01129
-0.41648653 -0.93465614 0.4075301 0.59621805 -0.31353632 -0.053911388 -0.10187933 -0.29626915
-0.28050724 -0.17420633 -0.25132233 -0.28674477 -0.20743094 -0.047304515 -0.22328267 -0.48736483
-0.50442696 -0.36198246 -0.561687 -0.6744839 -0.6437345 -0.58287925 -0.6679355 -0.73721117
0.22128086 0.0988097 -0.01921031 -0.24970819 -0.08459467 0.11735952 -0.031440582 -0.028615752
0.04397775 -0.05155546 -0.0549096 0.024136402 -0.11994604 -0.14706537 -0.10100118 0.016680425
-0.05647569 0.13600156 -0.04680215 0.10957695 0.230076 -0.09342246 -0.057286978 -0.2586897
-0.2560779 -0.22283636 -0.26748914 -0.063741155 -0.06065352 0.01931851 -0.1446808 -0.1484989
-0.08357484 -0.3066616 -0.21937835 -0.1580028 -0.29383016 -0.16630816 0.056822114 0.15789202
0.25902876 0.25217584 0.08718134 -0.17512348 0.11553023 -0.8433531 -0.30179873 -0.07651322
0.044863712 0.034429763 0.21054436 0.31744346 0.28495762 0.17817695 -0.9079979 -1.4572941
-1.3249148 -0.33485276 0.9305001 1.4908307 1.0690129 0.37939113 -1.0609095 0.052819077
-0.16665342 -0.34711093 -0.33086592 -0.088641785 0.1763808 0.3010849 0.29006666 -0.039865844
-0.44891196 0.3544554 0.7637089 0.25255606 -0.33607382 -0.54307145 -0.70160747 -0.28252435
0.70904666 0.27303815 0.4894807 0.51022136 -0.11745496 -0.5645871 -0.57067084 -0.4089189
-0.12284747 0.57251173 0.43866247 0.3606495 0.17159098 -0.25789636 -0.81606567 -1.0754493
-0.951336 -0.74641144 -0.21616603 -0.8742928 -0.35375282 0.10987123 0.76774395 1.0302553
0.95691186 0.54693127 -0.13671736 -0.7838887 -0.6105344 -0.35026887 -0.39926276 -0.7149248
-0.74365294 -0.33764344 0.33821985 0.75351095 0.8957442 0.3151282 0.065624 -0.24218109
-0.5157694 -0.41939676 -0.1091586 0.2860508 0.09752332 0.022069437 0.06344327 -0.6578908
-0.5775409 0.19174848 0.7271714 0.3722607 0.0140166 -0.1998653 0.13163264 0.28507724
0.6353948 0.37871444 -0.634807 -1.2922672 -0.6254238 0.3580099 0.6712563 0.08454701
0.29222527 0.36899474 0.12448443 0.309506 0.36208844 0.27158892 0.26674333 0.56480795
0.6362578 -0.59074575 -0.45817193 -0.52874446 -0.41465393 -0.25171196 -0.31813413 -0.027453395
-0.05706126 0.02964869 -0.74796325 -0.942217 -1.3108357 -1.2520288 -1.4113373 -1.2645783
-1.1622419 -0.6171898 -0.1394634 0.026487026 0.013361113 0.04955817 -0.0759067 0.11687139
0.13697438 -0.0045496523 0.081997596 -0.0031965754 -0.2740337 -0.23798104 -0.1103656 -0.09076578

bias f4 [32]
00000000: 3242 58bd 3d87 b1be f60f e6bd d613 a6bd
00000010: 8f41 42bf 1fd8 40bd eae4 8fbd bdf7 16be
00000020: a371 05bd 3d0f 12bd c694 59bd 1bb8 51bd
00000030: 8a73 8fbb 2903 7abd 2bb8 34be 594f 44bd
00000040: a0b8 a3bd 7eae 2abd 8166 f9bd 3e2b 26bd
00000050: 25b7 6dbd e1af 18bd 9940 13bf d1b6 0fbd
00000060: 41f8 e6bb 97dd d0bd 443e a6bd e4c8 e4bd
00000070: ba6e 4cbf 17bc e6be f76b f3bd 4e3d 0ebf
-0.052797504 -0.3467349 -0.11233513 -0.08109252 -0.75881284 -0.04708111 -0.07026084 -0.14742942
-0.032579076 -0.035659064 -0.053120397 -0.051200967 -0.004377787 -0.06103817 -0.1764838 -0.047927234
-0.07994199 -0.041670315 -0.12177754 -0.040568583 -0.05803599 -0.037277106 -0.57520443 -0.035086457
-0.007048637 -0.10198515 -0.08117345 -0.11171129 -0.79856455 -0.45065376 -0.11885827 -0.55562294
