models/v1_mode.pt (torch, 588052 bytes, 57 tensors)

cls f4 [1, 1, 32]
0	0xbed41a61	-0.41426376
1	0x3f4b3f29	0.7939325
2	0x3fecbfc4	1.8496022
3	0xbe57a52a	-0.21059099
4	0xbe3300b2	-0.17480734
5	0x3fa36420	1.2764931
6	0xbf3d98d7	-0.7406134
7	0xbef165a8	-0.4714787
8	0x3fe79a45	1.8093954
9	0xbfd57180	-1.6675262
10	0xbf59d22b	-0.85086316
11	0xbdcb1fed	-0.09918199
12	0xc00c9e5f	-2.1971662
13	0xbff78e5a	-1.9340317
14	0xbdd886b6	-0.10572569
15	0xbf37dde3	-0.7182295
16	0x3f57e1bd	0.84328824
17	0xbf171001	-0.59008795
18	0xbf6519d4	-0.89492536
19	0x3d5e9d41	0.054349188
20	0xbf0e24ea	-0.55525076
21	0xbf8619af	-1.0476588
22	0xbfabb311	-1.3414022
23	0x3fe915d9	1.8209792
24	0x3f95ba7c	1.1697536
25	0xbdc98d18	-0.098413646
26	0xbf447886	-0.76746404
27	0x3f00a8ab	0.50257367
28	0xbf16e39e	-0.58941066
29	0xbf85a282	-1.0440218
30	0x3fe00cbb	1.7503885
31	0xbf777003	-0.9665529

gaze_pe f4 [1, 120, 32]
0	0xbe86bf06	-0.26317614
1	0xbe2a81bb	-0.16651051
2	0xbe640d36	-0.22270665
3	0x3ee6b293	0.45058116
4	0x40034a39	2.0514052
5	0xbe8ae2a9	-0.27126053
6	0xbf48867c	-0.78330207
7	0xbf1c8b7b	-0.6115033
8	0xbea8a372	-0.329372
9	0xbf108c38	-0.56463957
10	0x3f14d2b1	0.5813399
11	0x3f4a3b0e	0.7899636
12	0x3e11a923	0.14224677
13	0x3f016da7	0.5055794
14	0x3f8b8991	1.0901357
15	0xbf87e747	-1.0617455
16	0x3f46fa12	0.77725327
17	0xbf6673a4	-0.90020204
18	0x3e3ab0bf	0.18231486
19	0x3ea46a0d	0.3211216
20	0x3f29a689	0.6626974
21	0x3ea1dadc	0.3161229
22	0xbfbb5719	-1.4635955
23	0xbf8d1102	-1.1020815
24	0xc029821b	-2.648566
25	0xbe533d41	-0.20628835
26	0xbfdf7132	-1.745642
27	0x3f5ee982	0.87075055
28	0xbf3942c3	-0.72367495
29	0xbfb63075	-1.4233538
30	0xbeb507e1	-0.35357574
31	0xbcf2d567	-0.029642774
32	0xbfa22845	-1.2668539
33	0xbf986be8	-1.190793
34	0x3f518140	0.81837845
35	0x3f289f30	0.658679
36	0xbec56a94	-0.38557875
37	0xbf84d1ed	-1.0376564
38	0xbd2f3d1d	-0.04278289
39	0xbe3c089f	-0.18362664
40	0xbf053bf5	-0.5204461
41	0xbf2a7f52	-0.66600525
42	0x3f5f550a	0.87239134
43	0xbf7d6c1d	-0.9899309
44	0x3f331a3e	0.6996192
45	0xbe9335f1	-0.28752092
46	0x3f8dadb8	1.106864
47	0xbf036d76	-0.513389
48	0xbe84e51b	-0.25956044
49	0xbe64b8fd	-0.22336192
50	0xbea8543f	-0.32876775
51	0x400eb530	2.2298088
52	0xbd438029	-0.047729645
53	0x3f0ae7cf	0.5425996
54	0x3e32d33d	0.17463394
55	0x3fa8ec0d	1.3197037
56	0xbf3e5914	-0.7435467
57	0xbe89682e	-0.26837295
58	0x3ecee97b	0.40412506
59	0x3f262887	0.6490559
60	0x3eb1d649	0.347338
61	0x3f976e61	1.183056
62	0x3fa5614c	1.2920318
63	0x3d4cc75b	0.049994808
64	0x3f54684a	0.8297163
65	0x3eceb605	0.40373245
66	0xbf8ecd9a	-1.1156495
67	0x3fa9e7d8	1.3273878
68	0xbeb06553	-0.34452304
69	0xbe33d111	-0.17560221
70	0x40064e7a	2.0985398
71	0xbf847ec1	-1.0351182
72	0xbef96d4c	-0.487162
73	0xbf8322d0	-1.0244999
74	0xbf2df4e9	-0.6795183
75	0x3c9d7f91	0.019225867
76	0xbfb37751	-1.4020787
77	0x3f568a2b	0.8380458
78	0xbfe97820	-1.8239784
79	0x3fc8b48a	1.5680096
80	0x3f41bfc1	0.7568322
81	0x3dd0227d	0.10162828
82	0xbf7d063d	-0.98837644
83	0xbf8a8910	-1.0823078
84	0xbd379e21	-0.044828538
85	0xbf4058df	-0.75135607
86	0x3d258975	0.040414292
87	0x3efbdb7e	0.49190897
88	0xbfa9a53d	-1.3253552
89	0xbd77424f	-0.06036597
90	0xbcb51701	-0.022105696
91	0x3f9d983b	1.2312082
92	0xbeefc2e1	-0.46828368
93	0xbe8462e8	-0.2585671
94	0xbf5c6d80	-0.86104584
95	0x3fafad2c	1.3724723
96	0x3f1197f8	0.5687251
97	0x3fae43db	1.3614458
98	0x3e8625fe	0.2620086
99	0xbe4ff37d	-0.20307727
100	0xbf99ac64	-1.2005734
101	0x3f0f7732	0.5604125
102	0xbf48da4d	-0.784581
103	0x3e641a78	0.22275722
104	0xbfd34948	-1.6506739
105	0x3f0acd49	0.5421949
106	0xbf100079	-0.5625072
107	0x3e40a9eb	0.18814819
108	0xbe234e89	-0.15947928
109	0x3fa94224	1.322331
110	0x3ed56dbc	0.41685283
111	0xbe963936	-0.29340523
112	0x3f30cc93	0.69062155
113	0xbfd1753d	-1.6363903
114	0xbed8f8db	-0.42377362
115	0xbf3a8406	-0.728577
116	0xbdbe4545	-0.09290556
117	0x3febc4a2	1.8419383
118	0x3e8f923b	0.28041252
119	0x3e237b81	0.15965082
120	0xbfef9045	-1.8715903
121	0xbf828f8b	-1.0200056
122	0xbf113f51	-0.5673724
123	0xbeb39a7d	-0.35078803
124	0xbf20a57b	-0.62752503
125	0xbeee3813	-0.46527156
126	0x3fdc9a6b	1.7234625
127	0x3e801d61	0.25022414
128	0xbeddec6c	-0.43344438
129	0x3ed62732	0.4182678
130	0xbf947875	-1.159926
131	0x3f13584f	0.57556623
132	0xbecb47f6	-0.3970334
133	0xbe84cc26	-0.25937003
134	0xbdc8380c	-0.09776315
135	0x3e05824f	0.1303799
136	0xbd1394c8	-0.03603056
137	0xbf35d913	-0.71034354
138	0x3e0fd80c	0.14047259
139	0xbfbc7d1b	-1.4725679
140	0xbfc28234	-1.5195985
141	0xbf995980	-1.1980438
142	0x3fbfa05f	1.4970816
143	0xbec2319a	-0.37928468
144	0xbe3e3335	-0.18574221
145	0x3f85ef96	1.0463741
146	0xbebb680c	-0.3660282
147	0x3f8268c1	1.0188218
148	0xbf9a749e	-1.2066839
149	0x3f537631	0.8260222
150	0xbef4fe41	-0.4785023
151	0x3f9f88ca	1.246362
152	0x3f47d400	0.7805786
153	0x3eaab0f2	0.33338124
154	0xbf0db3cd	-0.5535248
155	0xbe86db0a	-0.2633899
156	0x3e8e991f	0.27851197
157	0xbeae7d92	-0.34080178
158	0x3e867c8d	0.262669
159	0x3df2a37d	0.11847589
160	0x4007a755	2.1195881
161	0x3f52859c	0.8223512
162	0x3d509dc9	0.050931726
163	0x3f33cbea	0.70233023
164	0xbd4c3c8b	-0.049862426
165	0xbfd16e90	-1.6361866
166	0x3f6e79d0	0.9315462
167	0x3eb8de3b	0.36107048
168	0xbf3c5f00	-0.7358246
169	0x3e82d7c7	0.2555525
170	0x3f6ee624	0.93319917
171	0x3fa72ad2	1.3059943
172	0x3d8fee76	0.07027905
173	0xbc64dd67	-0.013968802
174	0xbf108564	-0.5645354
175	0xbe2238d1	-0.15841986
176	0x3e3ff692	0.18746403
177	0x3eb4e54e	0.35331196
178	0xbf79fa1e	-0.97647274
179	0xbf06be8b	-0.52634495
180	0xbefa6462	-0.4890471
181	0x3ebe9cf4	0.3722912
182	0xbe8f27f3	-0.27960166
183	0x3dac8d4d	0.084253885
184	0xbf17cd18	-0.59297323
185	0xbfb1e4f7	-1.3898
186	0xbee8abb4	-0.454435
187	0x3f40fd73	0.7538673
188	0xbf2f5c74	-0.6850045
189	0x3e0f1815	0.1397403
190	0x3ed2d244	0.41176045
191	0xbed6ccc8	-0.4195311
192	0x3f29c5ea	0.6631762
193	0xbfa265c3	-1.2687305
194	0xbea1c943	-0.31598863
195	0x3f5716cb	0.84019154
196	0x3cc116da	0.023570467
197	0xbea2493a	-0.31696492
198	0x3ffc65c9	1.9718562
199	0x3f49793b	0.7870061
200	0x3f003c23	0.5009176
201	0xbfbf750b	-1.4957594
202	0xbd25accc	-0.040447995
203	0xbd37e247	-0.04489353
204	0x3f97b493	1.1851982
205	0x3e6f63b6	0.2337788
206	0xbf515f26	-0.8178581
207	0xbeab4c4f	-0.33456656
208	0x4040cf04	3.0126352
209	0x4007d432	2.1223264
210	0xbf3efd61	-0.74605376
211	0x3f583654	0.844579
212	0xbeb2e978	-0.34943748
213	0xbe757839	-0.23971643
214	0x3de5351c	0.111917704
215	0xbf896062	-1.0732539
216	0x3fbbb219	1.4663726
217	0x3fcdcb72	1.6077712
218	0xbed3efa4	-0.4139377
219	0xbe14f95c	-0.14548248
220	0xbf11591a	-0.56776583
221	0x3f0cdd87	0.55025524
222	0x3eb807a2	0.35943323
223	0x3f387ffd	0.72070295
224	0xbf44f9c0	-0.7694359
225	0x3e62a73c	0.22134107
226	0xbd928b72	-0.07155503
227	0x3cd10ca8	0.02551873
228	0x3f2896a8	0.65854883
229	0x3dbba670	0.09162605
230	0xbed46026	-0.41479605
231	0x3e98254e	0.2971596
232	0x3f0e59ce	0.5560578
233	0xbf0afb2d	-0.54289514
234	0xbb82857c	-0.0039831977
235	0x3e1ff71e	0.15621611
236	0x3f3db74a	0.741078
237	0xbe1a1ad9	-0.15049304
238	0xbf72343b	-0.9461095
239	0xbe234f48	-0.15948212
240	0xbe10a974	-0.14127141
241	0xbec939ee	-0.3930201
242	0x3e7c65a1	0.24648143
243	0x3f3e789c	0.74402785
244	0xbf588853	-0.84583014
245	0xbf402a69	-0.7506471
246	0xbf1bfff0	-0.60937405
247	0x3fd8b589	1.69304
248	0x3f7783cb	0.96685475
249	0xbe4cfe47	-0.20018874
250	0xbfeb146d	-1.8365608
251	0xbfc46811	-1.5344259
252	0x3f15986e	0.58435714
253	0x3e2c5de4	0.16832691
254	0x3e72b134	0.2370041
255	0xbe816803	-0.25274667

imu_pe f4 [1, 120, 32]
0	0x3f5370a0	0.8259373
1	0x3ed913a9	0.42397812
2	0x3ea41ab0	0.3205161
3	0xbf3d33e5	-0.7390731
4	0xbf572f9f	-0.8405704
5	0xbe8f477e	-0.27984232
6	0x3f1bdd16	0.60884225
7	0x3e3fb512	0.18721417
8	0xbfc7c843	-1.560799
9	0xbf38e6b1	-0.7222701
10	0xbf44625d	-0.7671259
11	0xbf24f3f4	-0.6443474
12	0x3eaf2564	0.34208214
13	0xbf00edc6	-0.50362813
14	0x3fb18476	1.3868549
15	0x3d7aae4b	0.061201375
16	0x3f9b0565	1.2111021
17	0x3e9cfd99	0.3066223
18	0xbd7d8526	-0.06189456
19	0xbe329f1c	-0.17443508
20	0x3f797dad	0.9745739
21	0x3ef7d0fa	0.48401624
22	0x3eaf8be4	0.34286416
23	0xbfb139c3	-1.3845752
24	0x3f3c9c36	0.7367586
25	0x3f64b559	0.89339215
26	0xbf889017	-1.0668973
27	0xbedbfe49	-0.42967442
28	0x3f91bece	1.1386354
29	0xbe84856e	-0.2588305
30	0xbf87b709	-1.0602733
31	0x4002cb7d	2.04367
32	0x3f04a2e5	0.5181106
33	0x3f4fe702	0.81211865
34	0x3f94970e	1.1608598
35	0xbffe48f0	-1.9866009
36	0xbf60fb71	-0.8788367
37	0xbf45095c	-0.76967406
38	0x4003be98	2.058508
39	0xbfab5a2c	-1.3386893
40	0xbc9dabb6	-0.019246917
41	0xc00be8c6	-2.1860824
42	0xbf972c28	-1.181035
43	0xbfdd3c26	-1.7283981
44	0xbf93e477	-1.1554097
45	0xbfa6e821	-1.303959
46	0x400a8ccb	2.1648433
47	0xbe803eb8	-0.2504785
48	0xbfca0790	-1.5783558
49	0xbea67b61	-0.32516006
50	0xbf8fcb84	-1.1233983
51	0xbe178c5a	-0.14799634
52	0x3e43d20f	0.191231
53	0x3fa0f329	1.2574207
54	0xbddbc129	-0.10730202
55	0xbf8b2830	-1.0871639
56	0xbff39051	-1.9028417
57	0x3e1a1056	0.15045294
58	0xbf132e3b	-0.5749242
59	0xbfa4280b	-1.282472
60	0x3d006443	0.031345617
61	0x3d37375c	0.04473053
62	0xbf406363	-0.7515165
63	0x3fd7a071	1.6845838
64	0x3f3df60d	0.7420357
65	0xbfbd50b4	-1.4790254
66	0x3f97f72a	1.1872303
67	0xbfc43c7e	-1.5330961
68	0x3d177219	0.036974046
69	0x3fa6aa40	1.3020706
70	0xbe9128b5	-0.2835137
71	0x3dff7e74	0.12475291
72	0xc0122e8c	-2.284091
73	0x3eec77b3	0.46185073
74	0x3e81efe0	0.25378323
75	0x3f33fbda	0.7030617
76	0x3ed9ce9b	0.4254044
77	0x3f0bc0ac	0.5459087
78	0x3fc1e586	1.514817
79	0x3f56e4e5	0.83943015
80	0x3f048431	0.5176421
81	0xbe040a17	-0.12894474
82	0x3f022a69	0.5084596
83	0xbea3cd64	-0.31992638
84	0x3da50245	0.080570735
85	0x3fa799c7	1.3093804
86	0x3db5b5b3	0.08872547
87	0x3f418b71	0.75603396
88	0x3f28a6a5	0.6587928
89	0x3d614b20	0.055003285
90	0x3cc6eaec	0.024281941
91	0xbdc1048f	-0.094246976
92	0xbe961e88	-0.29320168
93	0x3d9f8ba1	0.07790304
94	0x3f0064f0	0.5015402
95	0xbeecbfcf	-0.46240088
96	0x3fd98070	1.6992321
97	0x3cdd1e81	0.026992084
98	0x4023c8ac	2.559123
99	0xbe8c5510	-0.27408648
100	0x3ef5576c	0.4791826
101	0xbea83e56	-0.3286006
102	0x3e7d9e80	0.24767494
103	0x3c7ae236	0.015312722
104	0xbfd83c46	-1.6893394
105	0xbb94fff5	-0.004547114
106	0x3ece158a	0.40250808
107	0x3fc86e4d	1.5658661
108	0x3f6e2eb4	0.93040013
109	0x3f5d3221	0.86404616
110	0xbf5eaddf	-0.86984056
111	0x3fa4c810	1.2873554
112	0x3fba42ed	1.4551674
113	0xbfb475ce	-1.4098451
114	0xbfc2d00d	-1.5219742
115	0x3f95e128	1.1709337
116	0xbde168e0	-0.110063314
117	0x3f31af28	0.6940789
118	0xbea0c3a9	-0.31399277
119	0xbe6ea506	-0.23305139
120	0x3cba0ab2	0.022710178
121	0x3eba8f89	0.36437634
122	0x40040197	2.062597
123	0x3e139eff	0.14416121
124	0x3e247e6c	0.16063851
125	0xbf153abe	-0.5829276
126	0x3faeab38	1.3646002
127	0xbbe4768a	-0.006972139
128	0xbfc0bc1b	-1.5057405
129	0xbf2a46e9	-0.6651445
130	0xbfa0e881	-1.2570955
131	0xbf8be315	-1.0928675
132	0x3debb693	0.11509433
133	0x3ee1641f	0.440217
134	0x3fa21d68	1.2665224
135	0x3eedf004	0.4647218
136	0xbf0cc991	-0.54995066
137	0xbfe48a94	-1.7854791
138	0xbfdc00e8	-1.7187777
139	0x3f96bcd9	1.1776382
140	0xbf4e664e	-0.80624855
141	0x3e8a3051	0.26989987
142	0xbf9e549b	-1.236957
143	0xbeac026d	-0.335956
144	0xbdb2097b	-0.086932145
145	0xbe4eb7b6	-0.20187268
146	0xbf615424	-0.88019013
147	0x3ebe5019	0.37170485
148	0x3f880548	1.0626612
149	0x3f423ac2	0.7587091
150	0xbed6b47f	-0.41934583
151	0xbedea8c1	-0.43488124
152	0x3ff24332	1.8926756
153	0xbdc37217	-0.09543245
154	0xbf5065a5	-0.814051
155	0x3eced1b3	0.40394363
156	0xbf1e9e33	-0.6196014
157	0x3f0e5035	0.55591136
158	0x3f8c051a	1.0939057
159	0xbce6e683	-0.028186088
160	0xbfb8cf7a	-1.4438317
161	0xbea40200	-0.32032776
162	0xc00839a3	-2.1285179
163	0xbfe6339f	-1.7984504
164	0x3eadbff3	0.33935508
165	0xbe0e195f	-0.13876866
166	0xbf8d44f5	-1.1036669
167	0x3e3efdc0	0.18651485
168	0xbf1115c6	-0.5667385
169	0x3dde0579	0.108408876
170	0x3f0ab112	0.5417644
171	0x4026d634	2.606824
172	0xbeec9954	-0.4621073
173	0x3f876978	1.0579062
174	0xbf699441	-0.9124184
175	0x3cf73dfe	0.030180927
176	0x3f2144cc	0.629956
177	0x3f9eb6f1	1.2399579
178	0xbe9120d7	-0.28345367
179	0x3fe7ef31	1.811987
180	0xbf01ea69	-0.50748307
181	0xbf39165b	-0.72299737
182	0xbecd19c3	-0.40058717
183	0xbfa11d20	-1.2587013
184	0xbfa21cb7	-1.2665013
185	0xbf44e7a1	-0.7691594
186	0xbe8aa24d	-0.2707695
187	0xbfa992a5	-1.3247877
188	0xbf7a23b5	-0.97710735
189	0xbeab876e	-0.33501762
190	0xbec05b31	-0.37569574
191	0xbd32a15a	-0.043610908
192	0x3f249606	0.6429142
193	0x3fda1fa3	1.7040905
194	0x3fd6052a	1.6720326
195	0xbef19b30	-0.4718871
196	0x3eeba143	0.4602147
197	0x3f27303f	0.6530799
198	0xbea4823c	-0.3213061
199	0xbf9ef71d	-1.2419163
200	0x3f82fcdf	1.023342
201	0xc00e87ea	-2.2270455
202	0xbf4b62b3	-0.7944748
203	0x3e5a3f78	0.21313274
204	0x3d663f8e	0.056212954
205	0x3f703f48	0.9384656
206	0x3fe4c208	1.7871714
207	0xbf646b1e	-0.8922595
208	0x3d94e76b	0.07270702
209	0x3e742495	0.2384208
210	0x3e5ea56a	0.21742788
211	0xbfa15ea1	-1.2607003
212	0x3faa2754	1.3293252
213	0xbdd8755c	-0.105692595
214	0xbe910e91	-0.28331426
215	0x3f6c2cd7	0.9225592
216	0x3f65763f	0.89633554
217	0xbf2380d7	-0.6386847
218	0xbf8ec503	-1.1153873
219	0x3e45c17d	0.19312091
220	0x3faa1e99	1.3290588
221	0x3f783de7	0.96969455
222	0x3fa446cc	1.2834105
223	0x3fef76a4	1.8708081
224	0x3fe3749a	1.7769959
225	0xbe16ea1d	-0.14737745
226	0x3e48c6fd	0.19607158
227	0x3fa0739b	1.253528
228	0x3ec784f3	0.3896862
229	0xbe5a47e7	-0.21316491
230	0xbf5454e4	-0.8294203
231	0xbe54e0a8	-0.20788825
232	0xbe20b35b	-0.15693419
233	0x3e9fb6a1	0.31194022
234	0xc0109317	-2.2589777
235	0xbf9eedb0	-1.2416286
236	0x3f792dad	0.9733532
237	0x3e882c81	0.26596454
238	0x3f17e92c	0.5934017
239	0xbfac5e1e	-1.3466222
240	0x3e228bcb	0.1587364
241	0x3f3f99f0	0.74844265
242	0xbfa9bec2	-1.326134
243	0xbe840e8f	-0.25792357
244	0x3fca4fe8	1.5805635
245	0xbe8452a6	-0.25844306
246	0x3f703735	0.9383424
247	0x3eed30d1	0.46326306
248	0xbfd4650f	-1.6593341
249	0x3eed6c88	0.46371865
250	0xbf3506d1	-0.70713526
251	0x3f4f0eaf	0.8088178
252	0x3f99a4e0	1.2003441
253	0x3ec4495e	0.38337225
254	0x3ec8b723	0.39202222
255	0x3f02b184	0.5105212

rgb_pe f4 [1, 49, 32]
0	0xbeb98f28	-0.36242032
1	0xbf323643	-0.69614047
2	0x3f71379a	0.94225466
3	0xbf3dba9b	-0.7411286
4	0xbfcba778	-1.5910482
5	0x3ecc8622	0.39946085
6	0xbe907397	-0.28213188
7	0x3ec0084f	0.3750634
8	0x3f02a44c	0.5103195
9	0xc00de0c5	-2.2168438
10	0xbeb9fef1	-0.36327317
11	0x3fb62040	1.4228592
12	0x3e947efc	0.2900313
13	0xbf22dabe	-0.63615024
14	0xbf1788c5	-0.5919307
15	0x3f7e38c4	0.9930537
16	0x3e803f72	0.25048405
17	0x3f1134f6	0.56721437
18	0xbf1f87d8	-0.62316656
19	0xbe8ade60	-0.27122784
20	0xbf845f93	-1.0341667
21	0xbfac88f3	-1.3479294
22	0xbdf26c13	-0.1183702
23	0x3f94110b	1.1567701
24	0xbebe4171	-0.37159303
25	0xbe962a46	-0.29329127
26	0xbe4ab7eb	-0.19796722
27	0xbf1f9d7a	-0.62349665
28	0x3effb1cf	0.49940345
29	0xbf62c3f8	-0.88580275
30	0xbfac2c16	-1.3450954
31	0xbf4282af	-0.7598066
32	0x3f8f4671	1.1193372
33	0x3ded28a7	0.115800194
34	0x3fba1a14	1.4539208
35	0x3e2f0264	0.17090756
36	0x3d8943ed	0.06702409
37	0x3ed87697	0.42277977
38	0x3f9f7d15	1.2460047
39	0x3f29030d	0.6602028
40	0x3ee8efa7	0.4549534
41	0xbd9db11e	-0.07699798
42	0x3f8baf92	1.0912955
43	0xbe930c3f	-0.2872028
44	0xbf166a0c	-0.58755565
45	0x3f73918f	0.9514398
46	0x3f24c3e9	0.64361435
47	0x3f291561	0.66048247
48	0x3f2ea0e7	0.6821427
49	0x3f3f09da	0.7462441
50	0xbf26856d	-0.6504734
51	0xbde811fd	-0.11331556
52	0x3db599a6	0.08867197
53	0x3ea8137a	0.3282736
54	0x3dd621cc	0.10455665
55	0xbe854f9a	-0.26037294
56	0xbe3be971	-0.1835077
57	0x3f9ad635	1.2096621
58	0xbe2d6c8b	-0.16935937
59	0x3ff2ba77	1.8963155
60	0xbe837ad3	-0.25679645
61	0xbec87dbc	-0.39158428
62	0xbf4f8f7b	-0.8107831
63	0xbda46e16	-0.0802881
64	0xbdf4d46a	-0.11954577
65	0x3dbabf8f	0.09118568
66	0xbf2ecb02	-0.68278515
67	0x3fcb4b54	1.5882363
68	0xbe4a34b4	-0.19746667
69	0x3f75d0e8	0.9602189
70	0x3e743186	0.23847017
71	0x3f46e606	0.7769474
72	0x3f8d44c4	1.1036611
73	0xbee131de	-0.43983358
74	0xbea389de	-0.31941122
75	0x3f5f9b35	0.873462
76	0x3fae70db	1.3628191
77	0xbe199669	-0.14998783
78	0x3e755b52	0.23960617
79	0x3f0845a1	0.53231245
80	0xbf213735	-0.62974864
81	0x3fca4a26	1.5803878
82	0xbf2acaa4	-0.66715455
83	0x3f43c80e	0.76477134
84	0xbe27a614	-0.16371948
85	0xbfa63f58	-1.2988081
86	0xbf2ea810	-0.68225193
87	0x3f3f5cc8	0.7475095
88	0xbf274bde	-0.6535014
89	0x3fef6fe5	1.8706023
90	0x3f61da32	0.88223565
91	0xbf530e0c	-0.8244331
92	0xbee4fc0f	-0.44723555
93	0x3ef9848c	0.48733938
94	0xbe192201	-0.14954378
95	0xbef38e7c	-0.47569644
96	0x3e19a2b4	0.15003473
97	0x3f1de031	0.61670214
98	0x3f67bba1	0.90520674
99	0xbf10bef6	-0.56541383
100	0xbebb9b1e	-0.36641783
101	0xbee10be6	-0.4395439
102	0xbee1936f	-0.44057795
103	0x3ff0c663	1.8810543
104	0x3ebf37d5	0.37347284
105	0xbcc1d546	-0.023661267
106	0xbc92aa94	-0.017903604
107	0x3e8c735a	0.27431756
108	0x3e07a740	0.13247395
109	0x3e8c88a3	0.27447996
110	0xbeb91acd	-0.3615326
111	0xbfaff4ee	-1.3746622
112	0x3f119c0b	0.5687873
113	0xbedf1187	-0.4356806
114	0xbe80677d	-0.25078955
115	0x3d071258	0.03297648
116	0x3b81de2e	0.0039632535
117	0x3ead67a7	0.33868143
118	0x3f73037e	0.94927204
119	0xbefbab4a	-0.4915412
120	0xbe05ccfe	-0.1306648
121	0x3f427987	0.75966686
122	0xbe5b3adf	-0.21409176
123	0x3fcac46b	1.5841192
124	0x3e4ca028	0.1998297
125	0xbeeec549	-0.46634892
126	0xbec6258e	-0.38700527
127	0xbf01f17d	-0.50759107
128	0x3f6cc36e	0.924857
129	0x3e076b84	0.13224608
130	0xbf1b63bf	-0.60699075
131	0x3f0e597a	0.5560528
132	0x3e526f09	0.20550169
133	0xbeb8631a	-0.36013108
134	0x3ee51392	0.44741493
135	0xbf8292f2	-1.0201094
136	0x3fc5187e	1.53981
137	0x3f575bf1	0.84124666
138	0xbf8e8503	-1.1134342
139	0xbf3b6e1d	-0.73214895
140	0xbc947ee0	-0.018126905
141	0x3f846690	1.03438
142	0xbfec5cdc	-1.8465838
143	0xc002abba	-2.0417314
144	0xbea032d5	-0.31288782
145	0x3fdd4d71	1.7289258
146	0x3fa64ee4	1.2992826
147	0xbed038bb	-0.40668282
148	0x3f3ecc5c	0.7453058
149	0x3e51b776	0.20480141
150	0xbfd786a6	-1.6837966
151	0x3f19f49c	0.6013887
152	0xbe793313	-0.2433589
153	0x3f17fefa	0.5937344
154	0xbfeb3f66	-1.8378723
155	0x3ee5bb26	0.44869345
156	0x3f26fcea	0.65229666
157	0x3f9861e6	1.1904876
158	0xbf77a91e	-0.9674243
159	0x3f3f1637	0.7464327
160	0xbec99ff7	-0.39379856
161	0x3def38ae	0.11680733
162	0xbd12c252	-0.03582985
163	0xbda6133b	-0.08109137
164	0xbe7343e7	-0.23756371
165	0x3ee6f3dd	0.45107928
166	0x3f2f0d1e	0.6837939
167	0x3d6adc98	0.05733928
168	0xbe3bb059	-0.1832899
169	0x3e8fe502	0.28104407
170	0xbebd05ac	-0.3691839
171	0x3ec9d4ca	0.39420158
172	0xbea72079	-0.32641962
173	0xbea1efb3	-0.31628188
174	0x3f6c3b98	0.9227843
175	0xbebff76c	-0.37493455
176	0x3f472b88	0.778008
177	0x3fb00971	1.3752881
178	0x3f419a92	0.7562648
179	0x3ece3be0	0.40280056
180	0x3f81685e	1.0109975
181	0xbf16d452	-0.58917725
182	0x3fba28d0	1.4543705
183	0xbec2ab5d	-0.38021365
184	0x3ce619e9	0.028088527
185	0x3ff2f6f6	1.8981616
186	0xbe40e3da	-0.18836918
187	0x3f88b76d	1.0680977
188	0xbcba74e3	-0.022760814
189	0x3f8da916	1.1067226
190	0x3ff96b24	1.9485822
191	0xbfe3c514	-1.7794518
192	0xbf88cd44	-1.0687642
193	0x3e722223	0.23645835
194	0xbff4f58a	-1.9137433
195	0x3f7d7a15	0.9901441
196	0x3fe3f0fc	1.7807918
197	0xbf08f7bc	-0.5350301
198	0xbe3830bb	-0.17987339
199	0x3f998af2	1.1995528
200	0x3fff0dcd	1.9926087
201	0xbf9d4949	-1.228799
202	0x3e8f0740	0.2793522
203	0xbf0a38b7	-0.5399279
204	0x3f8e0b49	1.1097194
205	0x3ee63ba6	0.44967383
206	0x401ee275	2.4825718
207	0xc0179eb1	-2.3690608
208	0xbfc3d450	-1.5299168
209	0x3fa13124	1.2593122
210	0xbdb959e7	-0.09050351
211	0xbf1edd0c	-0.6205604
212	0xbf7d74e5	-0.9900649
213	0x3e159eeb	0.14611404
214	0xbe1786b0	-0.14797473
215	0xbc60d086	-0.013721591
216	0x3f971458	1.1803083
217	0xbf9872d9	-1.1910049
218	0xbeff5b6e	-0.49874443
219	0x3cdbc1bf	0.026825784
220	0xbea3f11e	-0.32019895
221	0xbfcaf52f	-1.5856074
222	0x3e485889	0.19565023
223	0xbe11d874	-0.14242727
224	0x3eaec47b	0.34134278
225	0xbf51ad39	-0.8190494
226	0x3f0d99fb	0.5531308
227	0xbf935756	-1.1511028
228	0x3e3101fa	0.1728591
229	0x3f1baff0	0.60815334
230	0xbf87f3dc	-1.0621295
231	0x3f80c192	1.0059073
232	0x3f73ed98	0.95284414
233	0xbf4ea728	-0.8072381
234	0x3eb6e2a4	0.35719788
235	0x3fc2426d	1.5176522
236	0xbefde753	-0.4959055
237	0xbfedbf53	-1.8574013
238	0xbdeab183	-0.11459639
239	0xbeeeb7cf	-0.4662461
240	0xbe9528c4	-0.29132664
241	0x3f136d4a	0.57588637
242	0xbec43c7f	-0.38327405
243	0xbeba4fe2	-0.3638907
244	0x3f16d63d	0.5892065
245	0xbd7bb56b	-0.06145231
246	0xbe372f34	-0.178891
247	0xbf806f9d	-1.0034062
248	0xbe90f678	-0.2831304
249	0x3f28ab07	0.65885967
250	0x3f96d19d	1.1782719
251	0x3ea51f27	0.3225033
252	0xbf7bdc5d	-0.9838312
253	0xbf8150a8	-1.0102739
254	0xbfa00dc7	-1.2504205
255	0x3dbca275	0.09210674

weight f4 [32, 3, 9]
0	0xbb7f9a19	-0.0039001761
1	0x3dec6320	0.11542344
2	0x3c8da255	0.01728932
3	0xbdb72d5b	-0.08944198
4	0xbd88df97	-0.066832714
5	0xbe64489d	-0.22293325
6	0x3cbf142b	0.023325047
7	0x3cde92e2	0.027169649
8	0xbe020bf6	-0.12699875
9	0x3daea35a	0.085272506
10	0x3e928c07	0.28622457
11	0xbd8ac1cd	-0.06775246
12	0xbeb5e6db	-0.3552769
13	0x3e9848a2	0.29742914
14	0xbe9d3b01	-0.3070908
15	0x3d570df0	0.052503526
16	0xbe85948a	-0.2608989
17	0x3c9ed6c0	0.01938951
18	0x3d8679d7	0.06566208
19	0x3f5c4b26	0.8605217
20	0x3f06c0e0	0.52638054
21	0x3dd63c90	0.1046077
22	0xbf975ec1	-1.1825792
23	0x3ecacf18	0.39611125
24	0xbebcaa22	-0.3684855
25	0xbe5614a5	-0.20906313
26	0xbfcb296c	-1.5872016
27	0x3e76301b	0.24041788
28	0xbd662686	-0.056189083
29	0xbe9aca3c	-0.30232418
30	0xbedf00df	-0.43555352
31	0xbd024a9c	-0.031809434
32	0x3f1ebb1d	0.6200426
33	0x3e6cf41e	0.23139998
34	0xbd9121c5	-0.07086519
35	0xbd7e9412	-0.06215293
36	0xbdf3ea94	-0.119099766
37	0x3d97f54d	0.07419834
38	0xbea4f95b	-0.32221493
39	0xbdb9c763	-0.09071233
40	0xbe03e415	-0.12879975
41	0x3f1aa39b	0.6040589
42	0x3ecf3e93	0.40477428
43	0xbea90af4	-0.3301617
44	0x3e211580	0.15730858
45	0x3e83712c	0.2567228
46	0xbcf21fb7	-0.029556138
47	0x3f0b659e	0.5445193
48	0x3e92055a	0.28519708
49	0x3e63d937	0.2225083
50	0xbf526435	-0.82184154
51	0xbedc8ee9	-0.43077782
52	0x3e3b9a44	0.18320566
53	0x3b6ca796	0.0036110631
54	0xbe6f0f71	-0.23345734
55	0x3d47c265	0.048769373
56	0x3d3b17b2	0.045676894
57	0x3ca33868	0.019924358
58	0x3e2f7cec	0.17137498
59	0x3ea56d64	0.3231002
60	0x3e3aa2c0	0.18226147
61	0x3d881a96	0.06645696
62	0xbe331384	-0.17487913
63	0xbb631a59	-0.0034653156
64	0x3cb56e96	0.022147458
65	0xbe11ee74	-0.14251119
66	0xbf08d126	-0.53444135
67	0xbf162823	-0.58654994
68	0xbf3dea6f	-0.7418584
69	0xbf2c183d	-0.67224485
70	0xbe7ad0eb	-0.24493758
71	0xbc3b7aeb	-0.01144288
72	0xbf05c000	-0.52246094
73	0xbe973f18	-0.29540324
74	0xbf09c59b	-0.53817147
75	0xbf123c20	-0.57122993
76	0xbf61780b	-0.88073796
77	0xbf400451	-0.75006586
78	0xbec5caf9	-0.38631418
79	0xbeb02817	-0.34405586
80	0xbec62692	-0.38701302
81	0xbe04f58b	-0.12984292
82	0x3e837a61	0.25679305
83	0x3f2be960	0.67152977
84	0x3eeffc2a	0.46872073
85	0x3e37c626	0.17946681
86	0xbec6f678	-0.38859916
87	0xbf255a6f	-0.64591116
88	0xbef4b834	-0.47796786
89	0xbdca1541	-0.09867335
90	0xbccbdf33	-0.024886703
91	0x3ab215df	0.001358684
92	0x3c133337	0.008984379
93	0x3d7006f6	0.05860039
94	0x3d4c353a	0.04985545
95	0xbd67a091	-0.056549612
96	0xbdcdcb41	-0.10048533
97	0xbc18c4aa	-0.009324232
98	0x3dc87084	0.09787086
99	0xbd6961e8	-0.056978136
100	0xbe653b7d	-0.22385974
101	0xbe1ee36b	-0.1551644
102	0xbdf79d45	-0.12090544
103	0x3d0b2262	0.033968337
104	0x3dee15e5	0.1162527
105	0x3e66cbf9	0.22538747
106	0x3e080eb0	0.13286853
107	0x3c976a56	0.018483322
108	0xbc15bb0b	-0.009138833
109	0x3dc64902	0.09681894
110	0x3d8132f6	0.06308548
111	0xbdbbd26e	-0.09170996
112	0xbdfba818	-0.12287921
113	0xbcbcbb30	-0.023038477
114	0x3e383857	0.17990242
115	0x3ca2435b	0.019807508
116	0xbd5d1f74	-0.053985074
117	0x3f0d543b	0.5520665
118	0x3d22ab65	0.039714236
119	0x3f1076a2	0.5643102
120	0xbd3b83f3	-0.045780133
121	0xbddc7b06	-0.10765652
122	0x3e220c6e	0.15825054
123	0x3df2ce94	0.11855808
124	0xbe40d0c2	-0.18829635
125	0x3d8b5839	0.068039365
126	0xbf68bf76	-0.90917146
127	0x3f8c67d4	1.0969186
128	0x3e99fa66	0.3007385
129	0x3f2865c3	0.65780276
130	0x3f806fe7	1.003415
131	0xbe807af5	-0.2509381
132	0x3efc9460	0.4933195
133	0x3dd77e42	0.10522129
134	0x3e7ba760	0.24575567
135	0xbc7e57ee	-0.015523894
136	0xbde354a4	-0.11100128
137	0x3d1b1e50	0.037870705
138	0xbd979905	-0.07402233
139	0xbde4d40b	-0.111732565
140	0xbd99d1c5	-0.075107135
141	0xbcb26979	-0.021778809
142	0xbd66ffc0	-0.056396246
143	0xbdb9d81d	-0.090744235
144	0xbf0de4a6	-0.55427015
145	0xbf36ebac	-0.71453357
146	0xbe7afa1e	-0.24509475
147	0xbe96f552	-0.2948404
148	0x3e6c7935	0.23093112
149	0xbea37e2e	-0.31932205
150	0xbf0ee470	-0.5581732
151	0xbf0ed385	-0.55791503
152	0x3dc56c9a	0.09639855
153	0x3f2e1daa	0.68014014
154	0x3f9ddd6c	1.2333198
155	0x3e862fac	0.26208246
156	0x3f6b5c60	0.9193783
157	0x3de4b8e0	0.111680746
158	0x3f3e3eef	0.7431478
159	0x3f152839	0.582645
160	0x3f4a403b	0.7900426
161	0xbe1b5abe	-0.15171334
162	0xbe1b90d3	-0.15191965
163	0x3e199952	0.14999893
164	0xbe7c6947	-0.24649535
165	0x3e3d4356	0.18482718
166	0xbdc293e3	-0.095008634
167	0x3c822251	0.015885504
168	0x3d948870	0.07252586
169	0x3d4b8ef6	0.049696885
170	0x3ccfe45c	0.025377445
171	0xba9ad83a	-0.0011813708
172	0xbc20511a	-0.009784961
173	0x3d9fd354	0.078039795
174	0x3f52b2e0	0.8230419
175	0x3f393dd5	0.72359973
176	0x3f35bb6a	0.70989096
177	0xbe07c4b1	-0.13258626
178	0xbe03b23d	-0.12860961
179	0x3dec9446	0.115517184
180	0xbf118de6	-0.56857145
181	0xbf10df1c	-0.5659044
182	0x3d86f651	0.0658995
183	0xbf08bc84	-0.5341265
184	0x3e087a81	0.13327982
185	0x3e3c83bf	0.18409632
186	0x3eb46d98	0.35239863
187	0x3e097a23	0.13425498
188	0x3eba47bd	0.36382857
189	0xbb4a0e33	-0.0030831217
190	0x3ce077fd	0.027400965
191	0x3c9ec08c	0.019378923
192	0x3eb3c0bc	0.35107982
193	0x3ec31f11	0.3810964
194	0xbf196a5b	-0.5992791
195	0xbea854fd	-0.3287734
196	0x3d6b1c2b	0.05739991
197	0x3d4ee07b	0.05050705
198	0xbd2b0ed9	-0.041762207
199	0xbe1a41e1	-0.15064193
200	0xbee3d3a9	-0.4449742
201	0xbe58b858	-0.21164072
202	0x3ef0ca8b	0.47029528
203	0xbe8638b7	-0.26215145
204	0xbe08cf7c	-0.13360399
205	0x3f12af2d	0.5729855
206	0x3ecee745	0.4041082
207	0xbeb3a73d	-0.3508853
208	0xbee5815f	-0.44825265
209	0x3e1bce89	0.15215506
210	0x3dedc634	0.1161007
211	0xbf0c6454	-0.5484059
212	0x3f12880b	0.57238835
213	0x3f1239e3	0.5711958
214	0xbe4997d3	-0.19686823
215	0xbd6576e1	-0.056021575
216	0x3d9cb388	0.0765143
217	0x3e202692	0.15639713
218	0x3eadaae2	0.33919436
219	0x3f22e494	0.6363003
220	0x3f12f50a	0.5740515
221	0x3ee015fb	0.4376677
222	0x3e3cdbfe	0.18443295
223	0x3cbe18a5	0.02320511
224	0x3cf5c8b7	0.030002935
225	0xbe066c90	-0.13127351
226	0xbd108941	-0.035287146
227	0xbdd2965d	-0.10282586
228	0xbdb6d8e7	-0.089280896
229	0xbdaaf295	-0.0834705
230	0x3d9db78d	0.07701025
231	0x3ce7ee68	0.028311923
232	0x3da39bb9	0.07988686
233	0x3d3762f9	0.044772122
234	0x3ea1e0ea	0.31616908
235	0x3c8ff55b	0.01757305
236	0x3eceee10	0.40416002
237	0x3f0288fe	0.50990283
238	0x3eb1c7c5	0.34722725
239	0xbe1f813e	-0.15576646
240	0xbea5812c	-0.32325113
241	0xbe87af6f	-0.26501033
242	0xbdc2737e	-0.09494685
243	0xbc7d4624	-0.015458617
244	0xbd2c554a	-0.042073525
245	0xbe9cd2ce	-0.3062958
246	0xbeec7158	-0.46180224
247	0xbf0b6b8b	-0.5446097
248	0xbf0ca1a3	-0.5493414
249	0xbeb7eb22	-0.3592158
250	0xbcae4664	-0.0212738
251	0x3c04c120	0.008102685
252	0x3cfa2789	0.03053643
253	0xbbb3fda3	-0.0054928823
254	0xbc88324c	-0.016625546
255	0xbd1cedea	-0.03831283

bias f4 [32]
0	0x3cb9dee1	0.022689285
1	0xbe9951bd	-0.29945174
2	0xbf001cf6	-0.5004419
3	0xbe969793	-0.29412517
4	0x3cd63baf	0.026151506
5	0xbefde440	-0.49588203
6	0xbf0f3cb2	-0.5595199
7	0xbea59b7a	-0.32345182
8	0xbde0a08a	-0.109681204
9	0xbdbfdcec	-0.093683094
10	0xbee2e11d	-0.44312373
11	0xbe3c8c92	-0.18412998
12	0xbe864c35	-0.26230016
13	0x3c3fce57	0.01170691
14	0xbecfc561	-0.40580276
15	0xbeb4b21f	-0.35292146
16	0xbe0a2af2	-0.13492945
17	0xbd693461	-0.056934718
18	0xbe8fe5a8	-0.281049
19	0xbdbdf294	-0.09274784
20	0xbe7ad1eb	-0.2449414
21	0x3d3a2c23	0.04545225
22	0xbe27a3d1	-0.16371085
23	0xbe90e163	-0.28296956
24	0xbe8b051b	-0.27152333
25	0xbe1bfc9a	-0.15233079
26	0xbe4a2a6d	-0.19742747
27	0xbeb58716	-0.35454625
28	0xbe16a8cc	-0.14712828
29	0xbf182ae7	-0.59440464
30	0xbf428de1	-0.7599774
31	0xbf7d7f0c	-0.99021983

weight f4 [32, 32, 9]
0	0xbf26827e	-0.65042865
1	0xbee399ed	-0.44453374
2	0x3e2e8adc	0.17045158
3	0x3e3c5fc9	0.18395914
4	0x3cfd029e	0.030885037
5	0xbe382c45	-0.17985637
6	0x3d7db09d	0.06193601
7	0x3e40f78c	0.18844432
8	0x3e36944b	0.17830007
9	0xbeffd28e	-0.49965328
10	0xbef9d9ea	-0.48799068
11	0xbf13e65b	-0.5777337
12	0xbf1ea071	-0.61963564
13	0xbeef5e1a	-0.4675148
14	0x3e1cb51e	0.15303466
15	0xbdebbfe8	-0.115112126
16	0x3e411973	0.18857364
17	0xbd76368d	-0.060110617
18	0xbe0bb7ca	-0.13644329
19	0xbe952604	-0.29130566
20	0xbe43fbd6	-0.19139037
21	0xbc63a661	-0.013894648
22	0x3d04fe25	0.032468934
23	0xbd404c91	-0.04694802
24	0xbc6bdf5b	-0.014396514
25	0x3da319ff	0.07963943
26	0x3df0e7bc	0.1176295
27	0xbf6718c0	-0.9027214
28	0xbf28f215	-0.6599439
29	0xbe33bb0c	-0.17551821
30	0xbc0dd105	-0.008655791
31	0x3d31992a	0.04335896
32	0x3db1e497	0.08686178
33	0x3ca09137	0.019600494
34	0x3da4a03f	0.08038377
35	0xbcbbaebf	-0.022910474
36	0x3ea74517	0.326699
37	0x3e735060	0.2376113
38	0xbeab3d9e	-0.33445448
39	0x3c66186d	0.0140439095
40	0xbee75d8e	-0.45188564
41	0xbe69a56b	-0.22817008
42	0xbf0c1246	-0.54715383
43	0xbed66616	-0.4187476
44	0x3e79850f	0.24367164
45	0x3ed7dc7b	0.421604
46	0x3ea2fab0	0.31831884
47	0x3f25b1b7	0.64724296
48	0x3ea88df5	0.32920805
49	0x3d2ed630	0.042684734
50	0xbe7f4459	-0.24928416
51	0xbeb0fe82	-0.34569174
52	0x3da3ee10	0.08004391
53	0x3e6e5fe2	0.23278764
54	0xbf0282ae	-0.5098065
55	0xbeb511be	-0.353651
56	0xbef6170d	-0.4806446
57	0xbf9f179d	-1.2429081
58	0xbfca5d81	-1.5809785
59	0xbf5ef2e0	-0.8708935
60	0xbef47897	-0.47748253
61	0xbe745b23	-0.23862891
62	0xbeb81418	-0.3595283
63	0xbf5a71c1	-0.85329825
64	0xbfb0066d	-1.3751961
65	0xbf43747f	-0.76349634
66	0xbeacc5a9	-0.33744553
67	0xbe44b1ab	-0.192084
68	0xbda674ea	-0.08127768
69	0xbd8a642f	-0.0675739
70	0x3dc75d3f	0.09734582
71	0xbdac1ee7	-0.08404332
72	0x3c98263b	0.018572917
73	0x3d25ca59	0.040476177
74	0x3e086f1c	0.13323635
75	0x3dabe4de	0.08393262
76	0x3d8b97af	0.06816041
77	0x3cdc3fe3	0.026885932
78	0xbd491d01	-0.049099926
79	0x3c4fca72	0.012682544
80	0xbd75efe2	-0.060043223
81	0x3ea89e8a	0.32933456
82	0x3e5e79a7	0.21726094
83	0x3df44f41	0.11929179
84	0x3e023bb2	0.12718084
85	0x3daf8c74	0.08571711
86	0x3cb64f0e	0.022254493
87	0x3d442a2d	0.047891784
88	0xbc95c1ca	-0.018280882
89	0xbd1db874	-0.038505986
90	0xbecc72f8	-0.39931464
91	0xbe430779	-0.1904582
92	0x3e09214f	0.13391612
93	0xbcfb882a	-0.030704577
94	0xbf4984ce	-0.7871827
95	0xbc7a9f80	-0.015296817
96	0xbf0eddca	-0.55807173
97	0x3ecd3fec	0.4008783
98	0xbeeb6d3a	-0.4598177
99	0xbd018331	-0.031619254
100	0x3ce21cb6	0.027601581
101	0x3d266a58	0.04062876
102	0xbd59b624	-0.05315222
103	0xbd4f85fd	-0.05066489
104	0xbd23f165	-0.040025134
105	0xbd1f6d51	-0.03892261
106	0x3de67e9b	0.11254617
107	0xbc89cb9b	-0.01682072
108	0xbd6314d7	-0.055439796
109	0xbe85c2c7	-0.26125166
110	0xbe85e8a4	-0.26154053
111	0xbe5b8100	-0.21435928
112	0x3dba8099	0.09106559
113	0x3dceb23d	0.1009259
114	0x3cbbfb68	0.022947028
115	0x3b2ab1c9	0.002604591
116	0x3d47e11c	0.048798665
117	0x3ed818fd	0.42206565
118	0x3dbc0911	0.09181417
119	0x3deb93c0	0.115027905
120	0x3da29695	0.079388775
121	0xbd7d6361	-0.061862353
122	0x3e27db29	0.16392197
123	0xbc791a48	-0.01520402
124	0xbd514736	-0.051093303
125	0xbe9fe850	-0.31231928
126	0xbe98d2a7	-0.29848215
127	0xbeac66a0	-0.33672047
128	0xbdab4903	-0.08363535
129	0x3de35895	0.1110088
130	0x3e7555a7	0.23958455
131	0xbdd72100	-0.10504341
132	0xbddc3f33	-0.10754242
133	0xbe4d0c3a	-0.20024195
134	0xbf191492	-0.5979701
135	0xbe783263	-0.24237971
136	0x3df43209	0.11923606
137	0xbe4f2535	-0.20229037
138	0xbe4bc175	-0.19898017
139	0x3de28bcd	0.11061821
140	0xbdc1395e	-0.0943477
141	0xbcfc426b	-0.03079339
142	0xbd3d9442	-0.046283968
143	0xbd21060e	-0.039312415
144	0xbefe699a	-0.49689943
145	0xbf397dfd	-0.7245787
146	0xbebc7119	-0.36805037
147	0xbf7ec4a7	-0.9951882
148	0xbec8d163	-0.3922225
149	0xbe540b5e	-0.20707461
150	0x3dd7d9a7	0.10539561
151	0x3e058bba	0.13041583
152	0x3e00cf8d	0.12579174
153	0x3eb4cf7a	0.35314542
154	0x3e2c5a36	0.16831288
155	0x3e660e36	0.22466359
156	0x3e1b31dc	0.15155739
157	0xbdc95c13	-0.09832015
158	0xbe35e918	-0.177647
159	0xba0acb62	-0.00052945886
160	0x3df70ea5	0.1206334
161	0x3bea9000	0.0071582794
162	0xbea95ef0	-0.33080244
163	0xbeb45b2a	-0.35225803
164	0x3d686a48	0.056741983
165	0x3c5e4dd8	0.013568364
166	0xbc610cdc	-0.013735976
167	0xbd103c9b	-0.035214048
168	0x3dc6f329	0.09714348
169	0xbd4b76ed	-0.049673963
170	0x3d97d1b1	0.07413042
171	0xbe1721f3	-0.14759044
172	0xbcf9ade3	-0.030478423
173	0xbe159827	-0.14608823
174	0xbeb144a4	-0.3462268
175	0xbe271386	-0.16316041
176	0xbe0d0dcc	-0.13774794
177	0x3dfc4eeb	0.1231974
178	0x3e69949a	0.22810593
179	0xbdf84867	-0.12123185
180	0xbf45d84c	-0.7728317
181	0xbf061ddf	-0.5238933
182	0xbea8491c	-0.32868278
183	0xbef6b6f5	-0.4818646
184	0xbe8404c8	-0.25784898
185	0xbe00f361	-0.12592842
186	0x3cc4a49f	0.024004279
187	0x3d08e97d	0.033425797
188	0x3cda7120	0.02666527
189	0xbe2937a9	-0.16525139
190	0xbe92606e	-0.28589195
191	0xbedf4c10	-0.4361272
192	0xbeb91a48	-0.36152864
193	0xbcc7eb96	-0.024404328
194	0x3dbaabe2	0.09114815
195	0x3e2e87ed	0.17044039
196	0x3d946545	0.07245878
197	0xbe1cd678	-0.15316188
198	0xbee7fefc	-0.45311725
199	0xbeb0f0bf	-0.34558675
200	0xbd671445	-0.056415815
201	0x3efd2dd6	0.49449033
202	0xbd0cad48	-0.03434494
203	0xbea0ac1b	-0.31381306
204	0x38da6f95	0.00010415834
205	0xbdf36dd9	-0.11886186
206	0xbbe63b32	-0.0070260996
207	0xbe79fbf7	-0.24412523
208	0xbf2dfead	-0.6796673
209	0xbf88c243	-1.0684284
210	0xbf804c3a	-1.0023263
211	0xbe426f24	-0.1898771
212	0xbc241fb1	-0.010017321
213	0x3dc18afc	0.09450337
214	0xbe202cae	-0.15642044
215	0xbe50216c	-0.2032525
216	0xbfe39073	-1.7778457
217	0xbfc4911a	-1.5356781
218	0xbf6539b8	-0.89541197
219	0xbe03e204	-0.12879187
220	0x3e0e8cd1	0.13920905
221	0x3dc3d1f0	0.09561527
222	0xbd30cc54	-0.043163612
223	0x3c47d613	0.012197035
224	0x3eef38b5	0.46722952
225	0xbfe0f68d	-1.7575241
226	0xbf408449	-0.7520185
227	0xbde64ebd	-0.11245487
228	0xbec72d81	-0.38901904
229	0xbc4d2832	-0.01252179
230	0xbed804c1	-0.42191127
231	0x3dbc9d75	0.0920972
232	0x3e959e3d	0.2922229
233	0x3c877e9c	0.016539864
234	0xbf84fccd	-1.0389649
235	0xbf269a5d	-0.6507929
236	0xbfbb2b93	-1.4622673
237	0xbf91e2a7	-1.1397294
238	0xbf20b1b1	-0.62771136
239	0xbe40f7c0	-0.18844509
240	0x3dc75f6a	0.09734996
241	0x3e8275c9	0.25480488
242	0xbe0ed0db	-0.1394686
243	0xbf2b4a74	-0.6691048
244	0xbddebace	-0.10875474
245	0x3e582d94	0.21111137
246	0xbe0a764d	-0.1352169
247	0xbcb97708	-0.022639766
248	0x3d869d61	0.065729864
249	0x3a67bbf8	0.000883996
250	0xbd0dfa94	-0.034662798
251	0xbb89996b	-0.004199197
252	0xbf453b95	-0.7704404
253	0xbf29d54c	-0.6634109
254	0xbec4b8c5	-0.38422218
255	0xbed293a1	-0.41128257

bias f4 [32]
0	0xbf0944f5	-0.53620845
1	0xbf386269	-0.7202516
2	0xbe18d823	-0.149262
3	0xbe05f16c	-0.13080376
4	0xbd0ac4c2	-0.03387905
5	0xbfa70c42	-1.3050616
6	0xbe2b6203	-0.16736607
7	0xbe278033	-0.16357498
8	0xbecf05eb	-0.40434203
9	0x3d383a5d	0.044977535
10	0xbe2a81b0	-0.16651034
11	0x3b8aca0b	0.004235511
12	0xbe104cde	-0.14091823
13	0x3e1dfb0a	0.15427795
14	0xbf708e28	-0.93966913
15	0xbe647fbd	-0.22314353
16	0xbe0eddc7	-0.13951789
17	0x3b2a3a17	0.0025974566
18	0xbfca2826	-1.5793502
19	0xbf70530c	-0.9387672
20	0xbdbc6036	-0.09198038
21	0xbde43ccc	-0.111444086
22	0xbdb8d012	-0.09024061
23	0xbde9d19d	-0.11416934
24	0xbbb05acb	-0.005381917
25	0xbb68f989	-0.0035549125
26	0x3b18a8c8	0.002329396
27	0xbfb9e520	-1.4523048
28	0xbdfd49f2	-0.123676196
29	0xbcd5091e	-0.026005324
30	0x39fbef48	0.0004805273
31	0xbdb18dce	-0.08669625

weight f4 [32, 32, 9]
0	0xbec2c337	-0.38039562
1	0xbeb31a5f	-0.34981057
2	0xbe84360e	-0.2582249
3	0xbccba4da	-0.02485888
4	0xbe86c0c9	-0.26318958
5	0xbe7ac70e	-0.24489996
6	0xbec6a5be	-0.38798326
7	0xbe794cbb	-0.24345677
8	0xbec886da	-0.39165384
9	0xbef86782	-0.4851647
10	0xbd890e09	-0.0669213
11	0xbe3bde16	-0.18346438
12	0xbe265814	-0.16244537
13	0x3de52298	0.11188239
14	0x3dacf82e	0.08445774
15	0xbe682c58	-0.22673166
16	0xbddf5701	-0.109052666
17	0x3de6f5c4	0.11277345
18	0xbed232fd	-0.41054526
19	0xbea8dbff	-0.32980344
20	0xbe823c15	-0.25436464
21	0xbe52d0fb	-0.20587532
22	0xbe97bf30	-0.29638052
23	0xbebcbb73	-0.36861762
24	0xbed3f424	-0.41397202
25	0xbec4e08f	-0.38452575
26	0xbeb0e516	-0.3454978
27	0x3e120955	0.14261372
28	0x3dc1a230	0.09454763
29	0x3c51ed8d	0.012812984
30	0x3eef7cda	0.46774942
31	0x3f2d606c	0.67725253
32	0x3f74b1d2	0.9558383
33	0x3f7e30ea	0.99293387
34	0x3f597b60	0.8495388
35	0x3f1e0a06	0.61734045
36	0xbe0cba9c	-0.13743061
37	0xbe8fa88a	-0.28058273
38	0xbdd880fd	-0.105714776
39	0x3d456777	0.048194375
40	0xbbb3f38d	-0.00549168
41	0xbe349e30	-0.17638469
42	0xbea8642e	-0.3288893
43	0xbe8c1f2e	-0.27367538
44	0xbeb96f37	-0.36217663
45	0xbee9c390	-0.45657015
46	0xbe967624	-0.2938701
47	0xbec767ee	-0.3894648
48	0xbe4edcff	-0.20201491
49	0xbdba88ad	-0.091081
50	0xbe2b3e1c	-0.16722912
51	0xbe02ecc2	-0.12785628
52	0x3e1590e1	0.14606048
53	0x3e0adb91	0.1356032
54	0xbbe79c24	-0.007068174
55	0x3d314246	0.043276094
56	0x3cb9d3d1	0.02268401
57	0x3e6ed541	0.23323537
58	0x3ebee1a2	0.3728152
59	0x3eae8440	0.34085274
60	0x3e2f446d	0.17115946
61	0x3db3b00f	0.08773815
62	0x3ddf0cf3	0.10891142
63	0x3f006b53	0.50163764
64	0x3ed37c40	0.41305733
65	0x3f188c03	0.5958864
66	0x3f22395b	0.6336877
67	0x3f395dd9	0.72408825
68	0x3f35c91a	0.7100998
69	0x3f15d5b2	0.585292
70	0x3f005002	0.5012208
71	0x3f08aece	0.5339173
72	0xbf196227	-0.59915394
73	0xbef791c9	-0.48353413
74	0xbeb94a1a	-0.36189348
75	0xbe437733	-0.1908844
76	0xbdd2c17a	-0.10290809
77	0xbe44b5ed	-0.19210024
78	0xbe66de0a	-0.22545639
79	0x3cb37291	0.021905215
80	0xbe601841	-0.21884252
81	0x3e6f300f	0.23358177
82	0x3e54da76	0.20786461
83	0x3e401b6b	0.18760459
84	0xbb844c55	-0.00403742
85	0xbcc23f97	-0.023711963
86	0x3e05d86d	0.13070841
87	0x3d94975d	0.07255433
88	0xbe513c6b	-0.20433204
89	0xbe654f92	-0.22393635
90	0xbea050b4	-0.31311572
91	0xbe691cab	-0.22764842
92	0xbdb94261	-0.09045864
93	0xbe61e536	-0.22060093
94	0xbea3470b	-0.3189014
95	0xbe71e3df	-0.23622082
96	0xbe98c40c	-0.29837072
97	0xbe8674da	-0.26261026
98	0xbe61bdf0	-0.22045112
99	0xbe7247f8	-0.23660266
100	0xbe1f8e3f	-0.15581606
101	0xbe926987	-0.28596136
102	0xbd2c36bd	-0.04204439
103	0x3e666fbf	0.22503565
104	0x3e9456dc	0.28972518
105	0x3dd5a8ad	0.10432563
106	0xbbecd552	-0.007227578
107	0xbd243d3d	-0.040097464
108	0xbd83be24	-0.06432751
109	0x3cb5b13c	0.022179238
110	0x3e0466b4	0.12929803
111	0xbe235900	-0.1595192
112	0xbd9e5e40	-0.077328205
113	0x3e8a2a52	0.26985413
114	0x3d80e092	0.062928334
115	0xbe5906c8	-0.21193993
116	0x3e342590	0.17592454
117	0xbf1e7594	-0.6189816
118	0xbe66adc5	-0.22527225
119	0xbe5341a2	-0.20630506
120	0xbe88d6ea	-0.26726466
121	0xbef4f16b	-0.47840437
122	0xbebcc26e	-0.36867088
123	0xbf036386	-0.51323736
124	0xbea499f7	-0.32148716
125	0xbeb30603	-0.34965524
126	0xbea48ea9	-0.3214009
127	0xbe22d842	-0.15902808
128	0xbe7d444e	-0.24733087
129	0xbd925ce0	-0.07146621
130	0xbcd51330	-0.026010126
131	0xbdf3a68b	-0.11897
132	0xbe2c312c	-0.16815633
133	0xbea8f104	-0.3299638
134	0xbe3a064a	-0.18166462
135	0xbf0a4b7c	-0.5402143
136	0xbda614cd	-0.08109436
137	0xbdace441	-0.084419735
138	0xbee4a150	-0.44654322
139	0xbe735e87	-0.23766528
140	0x3c44eff4	0.0120201
141	0xbe2b6366	-0.16737136
142	0xbdee98ea	-0.1165026
143	0x3dbfc30b	0.09363373
144	0x3c213f46	0.009841746
145	0xbd2fc35f	-0.04291093
146	0xbd078b0d	-0.033091594
147	0x3ccbabb1	0.024862142
148	0x3e8026b5	0.2502953
149	0x3e160cf2	0.14653376
150	0xbd68feec	-0.056883737
151	0xbdd0ec96	-0.10201375
152	0xbde87081	-0.113495834
153	0xbe98c9e6	-0.29841536
154	0xbe7d4429	-0.24733032
155	0xbdc6c6e8	-0.09705907
156	0xbd0831fb	-0.03325079
157	0x3dbbb78a	0.09165867
158	0x3e01bb72	0.12669161
159	0xbcc3293c	-0.023823373
160	0x3c6d7055	0.014492114
161	0x3dfa26df	0.12214445
162	0xbf2ce32a	-0.67534125
163	0xbeff8612	-0.49906975
164	0xbd068fee	-0.032852106
165	0xbea2ecd4	-0.3182131
166	0xbe5e6cae	-0.21721146
167	0x3d5e34f5	0.054249723
168	0x3e4e1c6b	0.20128028
169	0xbd9671fe	-0.07345961
170	0xbdd88c70	-0.10573661
171	0xbde66bb4	-0.112510115
172	0xbd040f24	-0.032241
173	0xbd62a643	-0.05533434
174	0xbe006d89	-0.12541784
175	0xbe357f64	-0.17724377
176	0xbdc5ab63	-0.0965183
177	0xbe2dfdb5	-0.16991313
178	0xbedf8f6a	-0.43664104
179	0xbf0c363b	-0.5477025
180	0x3e4de7a1	0.2010789
181	0x3e4889b1	0.19583775
182	0x3ea1d0f0	0.3160472
183	0x3eedf20a	0.46473724
184	0x3f0dab63	0.5533964
185	0x3f060156	0.5234579
186	0x3e8c4b8d	0.2740139
187	0xbcae53de	-0.021280225
188	0x3dff5538	0.12467426
189	0xbe6a76d7	-0.22896896
190	0xbd93cb09	-0.0721646
191	0x3e792832	0.2433174
192	0x3edafb27	0.4276974
193	0x3f111b02	0.56681836
194	0x3f551390	0.83232975
195	0x3f322d6e	0.6960057
196	0x3ea8a9f7	0.32942173
197	0x3e13c4b2	0.14430502
198	0xbe2ffbcc	-0.17185897
199	0xbd2427cf	-0.040077027
200	0x3d1a4ed1	0.03767282
201	0x3e4868ec	0.19571275
202	0x3ec5431e	0.3852777
203	0x3f2d1011	0.6760264
204	0x3f514db8	0.81759214
205	0x3f5df6b9	0.86704594
206	0x3f008408	0.50201464
207	0xbe256c39	-0.16154565
208	0xbe823995	-0.25434557
209	0xbede9118	-0.43470073
210	0xbf001412	-0.50030625
211	0xbf108502	-0.56452954
212	0xbf25b010	-0.64721775
213	0xbf27c95d	-0.6554163
214	0xbf271eea	-0.65281546
215	0xbf135051	-0.5754443
216	0xbdc7d8c6	-0.09758143
217	0x3f0553bd	0.520809
218	0x3ebf22ca	0.3733123
219	0x3e5d730b	0.21625917
220	0x3de86841	0.1134801
221	0x3e31811a	0.17334405
222	0x3d713ae0	0.05889404
223	0x3e4fcfdf	0.2029414
224	0x3eca4543	0.39505967
225	0xbdb5c515	-0.08875481
226	0xbaee5230	-0.0018182453
227	0xbdec439d	-0.11536334
228	0xbe9affc3	-0.30273256
229	0xbdcce2ab	-0.10004171
230	0xbcf7e2df	-0.030259548
231	0xbd2cbe36	-0.042173587
232	0x3d68d5be	0.056844465
233	0x3dc9b383	0.09848692
234	0xbdabfefa	-0.08398242
235	0xbe4a566a	-0.19759527
236	0xbeb347de	-0.35015768
237	0xbe6badca	-0.23015514
238	0xbe59578b	-0.21224801
239	0xbce51ea5	-0.027968714
240	0x3d705f42	0.058684595
241	0x3e24ad4d	0.16081734
242	0x3e2f4fad	0.17120238
243	0xbeba34ac	-0.3636831
244	0xbdb8d6e5	-0.09025363
245	0xbe1ce4a6	-0.15321597
246	0xbd07760a	-0.033071555
247	0xbd86e0f7	-0.065858774
248	0xbe01eb8b	-0.12687509
249	0xbe20713b	-0.15668194
250	0x3ad48cfd	0.0016216334
251	0x3bbd153a	0.0057703527
252	0xbf31422d	-0.692416
253	0xbf2f9528	-0.6858697
254	0xbf44e4b1	-0.76911455
255	0xbe9552d6	-0.2916476

bias f4 [32]
0	0xbe1eb7a4	-0.15499741
1	0xbe9516cd	-0.29118958
2	0xba0ffa01	-0.00054922706
3	0xbb7f8552	-0.0038989377
4	0xbd947b79	-0.07250113
5	0xbb481ebc	-0.0030535897
6	0xbb6ef2fc	-0.0036460748
7	0xbef0db74	-0.4704243
8	0xbe2d1312	-0.16901806
9	0x3c9889b7	0.018620355
10	0xbedd8ba4	-0.432706
11	0x3c565f1c	0.013084199
12	0xbf317584	-0.6931994
13	0xbe8606c9	-0.26177052
14	0xbf3d2ae7	-0.7389359
15	0xbeed8667	-0.46391603
16	0x3d88a3bd	0.066718556
17	0x3bf35f61	0.0074271415
18	0x3d0b6b3a	0.034037806
19	0xbc09f94a	-0.008421252
20	0xbdc80a4f	-0.09767591
21	0xbe0ac805	-0.13552864
22	0xbc85385c	-0.016262226
23	0xbdad8aa9	-0.08473713
24	0xbdf93ada	-0.12169428
25	0x3bc15fd8	0.005901318
26	0x3c502d33	0.012706089
27	0xbee7b786	-0.45257205
28	0x3b1fbfa6	0.0024375706
29	0xbebde456	-0.3708827
30	0x3bfb14ac	0.0076623764
31	0xbdc35cbb	-0.09539171

weight f4 [32, 6, 9]
0	0xbe8205e1	-0.2539511
1	0xbe11752f	-0.14204858
2	0x3c5c2a83	0.01343787
3	0x3e404ab5	0.18778498
4	0x3dd86d70	0.105677485
5	0x3e0d8746	0.13821134
6	0x3e3d2880	0.18472481
7	0x3e054164	0.13013226
8	0x3df41941	0.11918879
9	0x3d364cfa	0.044507004
10	0xbdbdc989	-0.092669554
11	0x3c931084	0.017952211
12	0x3dd37f61	0.1032703
13	0xbcc28f4f	-0.023749975
14	0x3dd32028	0.10308868
15	0x3d84f900	0.064928055
16	0x3cd08019	0.025451707
17	0xbe3ebfe1	-0.18627883
18	0x3ed59397	0.41714165
19	0x3f2b6c3c	0.6696203
20	0x3f7b3ece	0.9814271
21	0x3fa6f4b0	1.3043423
22	0x3fbae75d	1.4601856
23	0x3fbc0368	1.468854
24	0x3f8de306	1.1084907
25	0x3f5a4dd8	0.8527503
26	0x3f2e9595	0.68196994
27	0x3caad7f0	0.02085492
28	0x3d6f03ca	0.058353223
29	0x3c556850	0.013025358
30	0x3cbef907	0.023312105
31	0x3cd9f4bc	0.026605956
32	0xbe013441	-0.1261759
33	0xbd990b67	-0.07472878
34	0xbb9b1d65	-0.0047337287
35	0xbdc4123a	-0.09573789
36	0xbe382237	-0.17981802
37	0x3dd254de	0.102700934
38	0x3e6eb299	0.23310317
39	0x3ea67fe5	0.3251945
40	0x3e9b0f4f	0.30285117
41	0x3e8c44d9	0.27396277
42	0x3db4ebda	0.088340476
43	0xbcbff596	-0.023432534
44	0x3c4f8f1f	0.0126684
45	0x3e844d74	0.25840342
46	0x3dd82d63	0.10555532
47	0x3c590433	0.01324563
48	0xbd19d641	-0.037557844
49	0xbdc70a03	-0.097187065
50	0xbe4cd7da	-0.20004216
51	0xbe5110b6	-0.20416531
52	0xbd467cf2	-0.048459
53	0x3e805629	0.25065735
54	0xbed4160b	-0.41423067
55	0xbf0f2e62	-0.5593015
56	0xbedb8eb5	-0.42882314
57	0xbf26d1b5	-0.6516374
58	0xbf15cf6a	-0.58519614
59	0xbeacda27	-0.33760187
60	0xbea551a0	-0.32288837
61	0xbead517c	-0.3385123
62	0xbe47378c	-0.19454783
63	0x3e319aa1	0.17344142
64	0x3e4cb762	0.1999183
65	0x3eb6a2e4	0.3567115
66	0x3f086520	0.53279305
67	0x3f24a737	0.6431765
68	0x3f1f46c5	0.6221736
69	0x3ea6e0e5	0.32593456
70	0x3eb57fd7	0.35449097
71	0xbbf0099c	-0.0073253643
72	0xbe47b03b	-0.1950082
73	0xbe48e9d9	-0.19620456
74	0xbd4b519f	-0.049638387
75	0x3e45871f	0.19289826
76	0x3ece17be	0.4025249
77	0x3f3d7e7e	0.74021137
78	0x3f68ac83	0.9088823
79	0x3f703756	0.93834436
80	0x3f9b4204	1.2129521
81	0xbc83c4e5	-0.016085098
82	0xbd00e33b	-0.031466704
83	0xbde77ca6	-0.11303072
84	0xbc91527e	-0.01773953
85	0xbd1f5f26	-0.0389091
86	0xbbd7439f	-0.0065693404
87	0x3d45728f	0.048204955
88	0x3c3f559b	0.011678125
89	0x3df6dd83	0.12053969
90	0x3c785c06	0.015158659
91	0x3c41ef87	0.011836893
92	0x3e40a5eb	0.18813293
93	0x3d8c02ea	0.06836493
94	0x3de3aefc	0.1111736
95	0x3da33b26	0.07970266
96	0x3e0d7d28	0.13817275
97	0x3da042a0	0.07825208
98	0x3d33bcf9	0.04388139
99	0xbea0f3bd	-0.31435958
100	0xbec9b8f6	-0.39398926
101	0xbe717163	-0.2357841
102	0xbe35b813	-0.17746
103	0xbd9b41a4	-0.07580879
104	0x3dfff9a9	0.12498791
105	0x3d1c0538	0.038090914
106	0x3e3d19e6	0.1846691
107	0x3d010b2b	0.03150479
108	0x3c17f0e6	0.009273743
109	0x3d288c70	0.041149557
110	0x3db23d5b	0.08703109
111	0x3d82789a	0.06370659
112	0x3e71be4a	0.23607746
113	0x3b710a82	0.0036779945
114	0xbe572c3e	-0.21012971
115	0xbe5cf8d4	-0.21579295
116	0xbe8fb61f	-0.28068635
117	0x3f07e6cd	0.5308655
118	0x3f063a8e	0.524331
119	0x3f0218a7	0.50818866
120	0x3ecfe68a	0.40605575
121	0x3f0b2e10	0.5436716
122	0x3e8046ba	0.2505396
123	0x3e4ea22f	0.20179056
124	0x3e9b0ac9	0.30281666
125	0x3eb5f44d	0.3553795
126	0xbec399d3	-0.38203296
127	0xbf069ad6	-0.5258001
128	0xbf3c208f	-0.7348718
129	0xbf46ea55	-0.7770131
130	0xbf25d3b6	-0.6477617
131	0xbeeb1908	-0.45917535
132	0xbeda16d1	-0.42595533
133	0xbed4151f	-0.41422364
134	0xbebcea7c	-0.36897647
135	0x3e209c0d	0.15684529
136	0x3e298446	0.16554365
137	0x3da5a4e0	0.08088088
138	0x3c075c43	0.008261743
139	0xbcd8f6a8	-0.026484802
140	0xbdd6185b	-0.10453864
141	0x3d6268d9	0.05527577
142	0x3dfbce3f	0.12295198
143	0x3d85d9a6	0.06535654
144	0xbe863ddd	-0.26219073
145	0xbcbbbe0d	-0.022917772
146	0xbe506f3a	-0.2035493
147	0xbdc3e63d	-0.09565399
148	0xbe841b65	-0.2580215
149	0xbe7d005e	-0.24707171
150	0xbeab6e0d	-0.334824
151	0xbe905b71	-0.28194764
152	0xbe20968c	-0.15682429
153	0xbdbe12f5	-0.092809595
154	0x3c259590	0.010106459
155	0xbdd76cc1	-0.1051879
156	0xbe5b07a7	-0.21389638
157	0xbe07a693	-0.13247137
158	0xbe41da35	-0.18930896
159	0x3e1153ce	0.14192125
160	0x3d549f8a	0.05190996
161	0x3e116805	0.14199837
162	0xbf098446	-0.5371746
163	0xbe152188	-0.14563572
164	0x3d28ac12	0.041179724
165	0x3e7ce3d2	0.24696282
166	0x3e0dd801	0.1385193
167	0x3e80b877	0.25140736
168	0x3ea611c3	0.32435426
169	0x3e7f0930	0.24905849
170	0xbec8f4d0	-0.39249277
171	0xbec310a9	-0.38098648
172	0xbd79a837	-0.060951438
173	0xbe387f6f	-0.18017362
174	0x3e851893	0.2599531
175	0x3d640aaf	0.05567425
176	0x3ea3a99b	0.31965336
177	0x3e584df9	0.21123494
178	0xbdbff4df	-0.09372877
179	0xbe69a345	-0.22816189
180	0xbf23cac7	-0.6398129
181	0xbe49d533	-0.19710235
182	0x3dae1576	0.08500187
183	0x3d8cc88e	0.0687419
184	0xbe6bcf0f	-0.23028205
185	0x3f9c9250	1.2232151
186	0x3e20e945	0.15713985
187	0x3e0236fb	0.12716286
188	0xbf125421	-0.5715962
189	0x3f0013ff	0.5003051
190	0xbeb5b59c	-0.3549012
191	0xbf3eeef4	-0.74583364
192	0xbe465f42	-0.19372275
193	0x3ef1f281	0.47255328
194	0x3f2f2842	0.68420804
195	0x3e52e366	0.20594558
196	0xbf0a5927	-0.54042286
197	0xbe5ff791	-0.21871783
198	0x3ece1056	0.40246838
199	0x3e19ebc0	0.15031338
200	0xbe94f272	-0.2909122
201	0x3e2c419b	0.16821902
202	0x3e957d42	0.29197127
203	0xbef87749	-0.48528507
204	0xbe62cf02	-0.2214928
205	0x3ec65eff	0.3874435
206	0x3ea8060d	0.32817116
207	0xbd360493	-0.044437956
208	0xbdddb311	-0.1082517
209	0x3e8ff6db	0.28118023
210	0x3d729187	0.059220817
211	0xbdcca9f7	-0.09993356
212	0x3d1b4733	0.037909698
213	0x3ecce160	0.40015697
214	0x3de5afee	0.112151965
215	0x3eb7000a	0.35742217
216	0xbdaef32b	-0.08542474
217	0x3da750fb	0.08169743
218	0xbdb3227e	-0.08746813
219	0xbda3987b	-0.07988068
220	0xbd2e0fc7	-0.042495515
221	0x3e4810f0	0.19537711
222	0x3da8d7bb	0.08244272
223	0x3d82bed8	0.06384057
224	0x3e5cc55c	0.21559662
225	0x3df3e22b	0.119083725
226	0x3a5d2010	0.00084352586
227	0x3d840160	0.06445575
228	0x3d0c183e	0.034202807
229	0x3d3e31cc	0.04643421
230	0xbceb7502	-0.028742317
231	0x3d2715b0	0.040792167
232	0x3d98bde3	0.07458093
233	0xbe14e947	-0.14542113
234	0x3f6a9d02	0.91645825
235	0x3f6f2d73	0.93428725
236	0x3f6a1a46	0.9144634
237	0x3f33f5ce	0.70296943
238	0x3ed34137	0.41260692
239	0x3e6fcd77	0.23418222
240	0x3e755902	0.23959735
241	0x3ebe3426	0.3714916
242	0x3f296667	0.6617188
243	0x3e7ca6f3	0.24673061
244	0x3e9632f6	0.29335755
245	0x3e1351f3	0.1438673
246	0x3c968b2c	0.01837691
247	0x3c9f3a8b	0.019437095
248	0x3e6fa49c	0.23402637
249	0x3d0a5b77	0.033778634
250	0x3e2b1a4e	0.16709253
251	0x3c83b9fb	0.016079893
252	0x3d02564b	0.031820577
253	0x3cd4f098	0.02599363
254	0x3d91f1b4	0.07126179
255	0x3e059b72	0.13047579
